ndp/weights/finetune-3.pt (torch, 9775 bytes, 5 tensors)

linear_1.weight f4 [36, 27]
0	0x3c1bafd4	0.00950237
1	0xbc9910e7	-0.018684817
2	0xbc51192c	-0.012762349
3	0x3d2ba1f3	0.041902494
4	0x3dc598f5	0.09648315
5	0xbd3ee1f7	-0.046602216
6	0x3d2ee283	0.042696487
7	0x3e1bd28e	0.15217039
8	0xbd6e92f9	-0.058245633
9	0x3da15787	0.07878023
10	0x3cbb7bc1	0.022886159
11	0x3dcd2946	0.10017638
12	0x3dc1360c	0.09434137
13	0xbce86661	-0.02836913
14	0x3e591cb3	0.21202354
15	0x3d27ccb1	0.040966693
16	0xbdb42f0e	-0.087980375
17	0xbe931522	-0.2872706
18	0x3e2bee8d	0.16790219
19	0xbe6f4e1f	-0.23369645
20	0x3d6315bd	0.055440653
21	0xbe3fa37a	-0.18714705
22	0xbe20ee31	-0.15715863
23	0x3d455b2d	0.048182655
24	0x3c22d135	0.009937574
25	0xbc268387	-0.0101631945
26	0x3d217a1a	0.039423086
27	0x3db6cd0a	0.08925827
28	0xbd403441	-0.046924833
29	0xbdf43033	-0.11923256
30	0x3c8bde27	0.017073704
31	0x3e55b1e7	0.20868646
32	0x3e3399f7	0.17539202
33	0xbdbf94bf	-0.09354543
34	0xbd3fc123	-0.04681505
35	0x3e3806bf	0.17971323
36	0x3e541ca7	0.20714055
37	0xbe0f017f	-0.13965414
38	0x3d3b841b	0.045780282
39	0x3cf6c337	0.030122383
40	0xbccfaa46	-0.025349747
41	0x3e34c4f4	0.17653257
42	0x3911bc76	0.00013898485
43	0x3e710d3f	0.23540209
44	0x3e45b5bf	0.19307612
45	0x3dd5bdac	0.10436568
46	0x3d8e7662	0.069561735
47	0x3db519ef	0.08842837
48	0xbdd42bca	-0.103599146
49	0x3e432321	0.1905637
50	0x3db536ba	0.08848329
51	0x3d30964a	0.043112077
52	0x3d8c8829	0.06861908
53	0xbdc939f4	-0.09825507
54	0xbd929027	-0.07156401
55	0x3e2c3cf8	0.16820133
56	0xbc7adb44	-0.015311066
57	0xbd254d30	-0.040356815
58	0x3e3b2128	0.18274367
59	0x3de93458	0.11386937
60	0xbdccd899	-0.1000225
61	0x3daf791c	0.08568022
62	0xbdf8de70	-0.121518016
63	0x3e66a407	0.22523509
64	0x3e2f5325	0.17121561
65	0xbcc2a96f	-0.023762433
66	0xbd4e64a5	-0.05038895
67	0xbc60dc7e	-0.013724444
68	0x3ca995b1	0.020701261
69	0xbcada7c8	-0.021198168
70	0x3d571d94	0.052518442
71	0x3e12c99e	0.14334723
72	0x3e415ea9	0.18883766
73	0xbd33a5f0	-0.043859422
74	0xbe165eb6	-0.14684567
75	0x3e5e7414	0.21723968
76	0x3e1587c7	0.14602576
77	0x3d997560	0.07493091
78	0x3e107207	0.14105998
79	0xbc95740d	-0.018243814
80	0x3dc4cc9f	0.09609341
81	0xbd856896	-0.06514089
82	0x3e357994	0.1772216
83	0x3d72a848	0.059242517
84	0x3e550c30	0.2080543
85	0x3e3180eb	0.17334335
86	0x3e1b14ab	0.15144603
87	0xbd37eec2	-0.04490543
88	0x3dd01e25	0.101619996
89	0xbd2b7169	-0.041856203
90	0x3d01d887	0.031700637
91	0x3e34942a	0.17634645
92	0xbe03e54e	-0.12880442
93	0x3e2ce7bb	0.16885273
94	0x3e4bbe1e	0.19896743
95	0xbe05ff53	-0.1308568
96	0xbc6bc60f	-0.014390483
97	0x3cce43d3	0.025178825
98	0x3e203540	0.15645313
99	0xbca5044e	-0.020143654
100	0x3dcc8547	0.09986358
101	0x3dba51bd	0.090976216
102	0x3e2c3580	0.16817284
103	0xbcf77b38	-0.030210122
104	0xbd5ca62c	-0.05386941
105	0x3e0057e1	0.12533523
106	0xbc259139	-0.010105425
107	0xbd12a233	-0.035799216
108	0x3e484696	0.19558176
109	0x3e2f91d1	0.17145468
110	0x3e16fa8d	0.14744015
111	0x3e13316d	0.14374323
112	0xbe0f91af	-0.14020418
113	0xbdcd333c	-0.10019538
114	0xbcdafe54	-0.026732601
115	0x3dbac802	0.0912018
116	0x3dbc41bf	0.091922276
117	0xbd709f6e	-0.058745794
118	0xbbd29158	-0.0064260177
119	0x3e6e1623	0.23250632
120	0xbd110f4b	-0.035414975
121	0xbde5cd07	-0.112207465
122	0xbce3d154	-0.027809776
123	0x3deb4ce6	0.114892766
124	0x3d89c8ab	0.067277275
125	0x3d9e517f	0.07730388
126	0x3d57741c	0.052600965
127	0x3db81779	0.08988852
128	0xbdad033c	-0.084478825
129	0x3e44eded	0.19231386
130	0xbcd0a0d1	-0.025467308
131	0xbc9cd441	-0.01914418
132	0x3e5a09f2	0.21292856
133	0x3d67f1fd	0.056627262
134	0xbdc448f5	-0.09584228
135	0x3df2445b	0.11829444
136	0x3d059a1b	0.03261767
137	0x3e7a83ee	0.2446439
138	0x3da54b29	0.08070976
139	0xbd5d3e26	-0.054014347
140	0xbc135623	-0.008992705
141	0x3d00a3b1	0.03140611
142	0xbd89e789	-0.06733615
143	0xbd9f56d3	-0.07780232
144	0xbe011b80	-0.12608147
145	0x3d5a58c9	0.05330733
146	0xbdabfb6a	-0.08397563
147	0x3e2dad5f	0.16960667
148	0xbd811d2b	-0.063043915
149	0x3d4e6c63	0.050396334
150	0x3dae377b	0.08506676
151	0x3d540d25	0.051770348
152	0x3c396f0b	0.011317979
153	0xbe0744e4	-0.13209873
154	0x3e01d106	0.12677392
155	0x3bdf7a17	0.006819974
156	0x3de2fa84	0.11082938
157	0x3c756009	0.01497651
158	0xbce63476	-0.028101187
159	0x3d644ed8	0.055739254
160	0x3e4894d2	0.1958802
161	0xbd9582a0	-0.07300305
162	0x3e35e39b	0.17762606
163	0x3ddcc446	0.10779624
164	0x3e071718	0.13192403
165	0xbc6c8af4	-0.014437426
166	0x3d823608	0.06357962
167	0xbd9c04ea	-0.07618125
168	0x3dcc168b	0.09965237
169	0x3e429ad2	0.19004372
170	0xbe080c60	-0.1328597
171	0xbd43df4e	-0.04782038
172	0x3e6bb671	0.23018815
173	0x3d02f249	0.031969342
174	0x3e238aa0	0.1597085
175	0x3e203a09	0.15647139
176	0xbe0325b5	-0.12807353
177	0xbc69486c	-0.014238458
178	0x3dc281f3	0.09497442
179	0x3e3a411d	0.18188901
180	0x3e1b7f08	0.15185177
181	0x3dfd61eb	0.12372192
182	0x3cb995e9	0.02265449
183	0x3e060929	0.13089432
184	0x3e3d39a4	0.1847902
185	0xbe02b401	-0.12763979
186	0x3e10baf5	0.14133818
187	0xbdcb0ff7	-0.099151544
188	0xbd1890f5	-0.037247617
189	0xbd841103	-0.06448557
190	0x3d469241	0.048479322
191	0x3deb448b	0.11487683
192	0x3e062db0	0.13103366
193	0x3e5cb597	0.21553646
194	0xbdea406e	-0.1143807
195	0xbc8cabd3	-0.017171776
196	0xbdabf793	-0.083968304
197	0x3e372311	0.1788447
198	0x3abfb001	0.0014624597
199	0xbd13472b	-0.035956543
200	0xbda7a897	-0.08186453
201	0x3d85bdb5	0.06530324
202	0x3c85041a	0.016237307
203	0xbd415987	-0.04720452
204	0x3c9908b5	0.01868091
205	0xbcac5be3	-0.021039909
206	0x3e49e2a1	0.19715358
207	0x3e2828a1	0.16421749
208	0x3e1999ca	0.15000072
209	0x3e31ba10	0.17356133
210	0xbd18ca15	-0.037302095
211	0x3deeb1a4	0.11654976
212	0xbabd01b4	-0.0014420063
213	0xbda5c9c7	-0.080951266
214	0xbd27be25	-0.04095282
215	0x3c40e93c	0.011774357
216	0xbce37b8b	-0.02776887
217	0x3e48da3f	0.19614504
218	0x3d5f93d7	0.05458435
219	0x3d970100	0.073732376
220	0x3e25e3d2	0.16200188
221	0x3e1f3172	0.15546206
222	0xbde6d5c8	-0.11271244
223	0xbe216c23	-0.15763907
224	0x3ba701ae	0.005096636
225	0x3e341550	0.17586255
226	0x3e2e3811	0.17013575
227	0xbde5416c	-0.11194119
228	0x3d3f175d	0.04665314
229	0x3e2aca0e	0.1667864
230	0x3e20185c	0.15634292
231	0x3e13cb6d	0.1443307
232	0xbd6e221a	-0.05813799
233	0xbd1b7522	-0.037953503
234	0xbe0775b1	-0.1322849
235	0x3e250460	0.1611495
236	0x3e469fd8	0.19396913
237	0x3e2c9cec	0.16856736
238	0x3e2e0cc9	0.16997065
239	0xbe17fa6d	-0.14841624
240	0x3e2c80ec	0.16846055
241	0x3de9a036	0.11407511
242	0x3e0d5e03	0.13805394
243	0x3d3339ad	0.043756176
244	0x3c123e7b	0.008926029
245	0x3da7a64f	0.08186018
246	0x3d6d5007	0.05793765
247	0x3d49b803	0.049247753
248	0xbe218dce	-0.1577675
249	0x3e6bf73f	0.23043536
250	0xbe32e991	-0.17471911
251	0x3d5f3359	0.05449233
252	0xbe2ea3ef	-0.17054723
253	0x3ddcd66a	0.10783084
254	0x3d8977fe	0.0671234
255	0x3dc84c94	0.09780231

linear_1.bias f4 [36]
0	0x3dff6979	0.12471289
1	0xbd0ad4f1	-0.033894483
2	0x3cfc364a	0.030787606
3	0x3e233f17	0.15942036
4	0x3e220e21	0.15825702
5	0x3e43a8db	0.19107382
6	0xbe01e650	-0.12685513
7	0xbd89db0d	-0.06731234
8	0xbd886efa	-0.06661792
9	0xbd0ba1ce	-0.034089856
10	0x3dae600a	0.08514412
11	0xbdcab87e	-0.0989847
12	0x3dae2a62	0.08504178
13	0xbe0594b1	-0.13045003
14	0x3c01005d	0.007873622
15	0xbe3793e0	-0.17927504
16	0xbd9f103a	-0.07766767
17	0x3d8cd63c	0.068767995
18	0x3e660489	0.22462668
19	0xbd83d204	-0.06436542
20	0xbe1184f9	-0.14210881
21	0x3e6cd664	0.23128659
22	0xbd8852bf	-0.066564076
23	0x3e2745ae	0.16335174
24	0x3cd6bf98	0.026214406
25	0x3df08852	0.11744751
26	0xbd446ccf	-0.04795533
27	0x3c4eaf71	0.012615071
28	0xbb3b9b23	-0.0028626404
29	0xbda4678d	-0.08027563
30	0xbe320fdc	-0.17388862
31	0xbe215109	-0.15753569
32	0xbdb005c3	-0.08594849
33	0xbde3f539	-0.11130757
34	0x3e37e58f	0.17958663
35	0x3e010b8c	0.12602061

linear_2.weight f4 [24, 36]
0	0x3d54704d	0.05186491
1	0x3de60003	0.11230471
2	0x3e2c6ea5	0.16839083
3	0x3e3b25ce	0.1827614
4	0x3d8a3f28	0.06750327
5	0xbccec396	-0.025239747
6	0xbdcd1d5a	-0.10015364
7	0x3df3004c	0.11865291
8	0x3e05c0db	0.1306185
9	0x3ddc65e0	0.107616186
10	0x3e2d9f9c	0.16955417
11	0x3e35770d	0.17721196
12	0xbd1ae11a	-0.03781233
13	0x3c771500	0.01508069
14	0xbc5288a9	-0.012849965
15	0xbce8f54c	-0.02843728
16	0xbdb5501e	-0.08853172
17	0x3df18711	0.1179334
18	0x3e3c2c15	0.18376191
19	0x3e406b8d	0.18791027
20	0xbdbf5730	-0.093428016
21	0x3dc87a5a	0.09788962
22	0x3e488c84	0.19584852
23	0x3ea89e88	0.3293345
24	0x3e245aa1	0.16050197
25	0x3dca6433	0.09882393
26	0x3de6f6ee	0.11277567
27	0x3e3d04dc	0.18458885
28	0xbd2dd6b4	-0.042441085
29	0x3cef804d	0.029235983
30	0xbd9eed61	-0.0776012
31	0x3e0fcd6c	0.14043206
32	0x3d118acc	0.035532758
33	0x3d7ec1e5	0.06219663
34	0x3df54053	0.119751595
35	0xbde2c414	-0.11072555
36	0x3e0bc76d	0.13650294
37	0xbdf9eab6	-0.12202971
38	0x3e1b1afd	0.15147014
39	0x3e305501	0.17219926
40	0xbd0b2864	-0.033974066
41	0x3dabff4d	0.08398304
42	0x3e4a067e	0.19729039
43	0xbe435dff	-0.19078825
44	0xbdae170d	-0.0850049
45	0x3d6580d7	0.056031074
46	0x3dd47b07	0.10375028
47	0x3d1da4fa	0.038487412
48	0x3d564307	0.052310016
49	0x3e359a5a	0.17734662
50	0x3dc9820e	0.09839259
51	0x3de0a9fb	0.10969921
52	0x3dc86047	0.097839884
53	0xbbe1223b	-0.0068705357
54	0x3e1dee5a	0.15422955
55	0x3e0c6934	0.13712007
56	0xbd69bfe3	-0.057067763
57	0x3e4b7084	0.1986714
58	0xbd5412f0	-0.051775873
59	0x3ea7ba2c	0.32759225
60	0x3e069238	0.13141716
61	0xbdaf1797	-0.08549421
62	0xbce7f663	-0.028315729
63	0xbd256824	-0.04038252
64	0x3e46b943	0.19406609
65	0xbd9477ce	-0.072494134
66	0x3df379be	0.11888455
67	0xbd15d625	-0.036581177
68	0xbcfad975	-0.03062127
69	0x3ad8f4f0	0.0016552489
70	0x3e590ccc	0.21196288
71	0xbc51884d	-0.012788844
72	0x3da592a5	0.08084611
73	0xbc030d9b	-0.007998849
74	0x3af11ba0	0.0018395074
75	0x3e1b04a2	0.15138486
76	0xbdb92f0a	-0.09042175
77	0x3d2a6490	0.04159981
78	0x3bdd3451	0.0067506214
79	0xbde368e9	-0.111039944
80	0x3d72eec2	0.05930973
81	0x3e350364	0.17677075
82	0x3e1a740e	0.15083334
83	0x3ddc765c	0.10764763
84	0x3d9b317e	0.07577799
85	0xbd3fc72f	-0.046820816
86	0xbd8df90d	-0.06932268
87	0x3dadad6f	0.084803455
88	0xbd078c48	-0.033092767
89	0xbd151839	-0.036400054
90	0xbdc84a50	-0.09779799
91	0x3e0304ea	0.12794843
92	0xbd225c35	-0.039638717
93	0x3d83dd4d	0.06438694
94	0x3e45b4ac	0.19307202
95	0x3e453740	0.19259357
96	0xbd2705b5	-0.040776927
97	0x3dcb0ccf	0.099145524
98	0x3c6a19a5	0.014288341
99	0xbd9c6d39	-0.0763802
100	0x3dafbdc6	0.08581118
101	0xbd6b16d2	-0.05739481
102	0xbdc70879	-0.09718413
103	0x3e2285fa	0.1587142
104	0xbc9ce847	-0.019153727
105	0x3d7108a8	0.058846146
106	0xbd0c7206	-0.03428843
107	0xbdbf6114	-0.09344688
108	0x3cab1773	0.020885205
109	0xbd172e9d	-0.03690969
110	0xbcef3dfc	-0.029204361
111	0x3e1826c3	0.14858536
112	0x3c4dab6b	0.012553076
113	0xbccc7ffa	-0.024963368
114	0xbd2ffd8e	-0.042966418
115	0xbe37d40d	-0.17951985
116	0x3e355d46	0.17711362
117	0xbd7de2bc	-0.06198381
118	0x3e21e8c3	0.15811448
119	0xbddc8086	-0.107667014
120	0x3e31515b	0.17316191
121	0x3d9862d6	0.074407265
122	0xbdd223db	-0.10260745
123	0x3dda50c6	0.106599376
124	0x3da5cc9f	0.08095669
125	0xbdc1e62e	-0.094677314
126	0x3e0936d0	0.13399816
127	0x3e3aa73f	0.18227862
128	0x3e278dbc	0.16362661
129	0xbc6ead2a	-0.014567653
130	0x3e0d8903	0.13821797
131	0x3d97a34b	0.074041925
132	0x3e4beeea	0.19915357
133	0x3e1c43f0	0.15260291
134	0xbe16a685	-0.1471196
135	0x3d76f247	0.060289647
136	0x3dd0a8b5	0.10188428
137	0xbd67c7aa	-0.0565869
138	0xbe17757a	-0.14790908
139	0x3d8dd978	0.069262445
140	0x3d2e927f	0.04262018
141	0x3db2e9ec	0.08736023
142	0xbde186c5	-0.110120334
143	0xbd37d9fb	-0.044885617
144	0xbdcfffbb	-0.101561986
145	0x3d885ea1	0.06658674
146	0xbc8d3224	-0.017235823
147	0xbe2d0012	-0.16894558
148	0x3cc95bb8	0.024579868
149	0xbddf8ab4	-0.109151274
150	0xbd86d40f	-0.06583416
151	0x3d902878	0.07038969
152	0xbe2cd027	-0.16876279
153	0xbcdef8fd	-0.027218336
154	0x3e08f178	0.13373363
155	0x3e0c7951	0.13718154
156	0x3e133514	0.14375716
157	0x3def9510	0.11698353
158	0xbe1967d8	-0.1498102
159	0xbe1c4dcb	-0.1526405
160	0xbd81f1ec	-0.06344971
161	0xbcd20c53	-0.025640642
162	0xbde6aef5	-0.11263839
163	0xbce1cddc	-0.027563982
164	0xbd0eff6d	-0.03491156
165	0xbce20977	-0.027592404
166	0xbe270c02	-0.16313174
167	0x3dec134b	0.11527117
168	0xbdffccbd	-0.124902226
169	0xbc36a1e6	-0.011146998
170	0x3e19824a	0.14991108
171	0x3e0c0f61	0.13677742
172	0xbdbe72a0	-0.09299207
173	0x3d81713b	0.06320425
174	0x3cd94716	0.026523154
175	0x3cc86ceb	0.024465999
176	0xbdf4588e	-0.11930953
177	0x3dcb995f	0.099413626
178	0x3ddc1f49	0.10748155
179	0xbd068d50	-0.03284961
180	0x3e99dd6a	0.30051738
181	0xbe021ed6	-0.12707075
182	0x3e02be4a	0.12767902
183	0xbe06bcf4	-0.13158017
184	0xbbec0c4b	-0.007203614
185	0x3dc337bd	0.095321156
186	0x3d690f8a	0.056899585
187	0xbd534dac	-0.051587746
188	0xbd47a683	-0.048742782
189	0x3daa07cb	0.08302268
190	0xbd6cc2db	-0.057803016
191	0x3e2c1e53	0.16808443
192	0xbcb32a9f	-0.02187091
193	0xbd8cc547	-0.06873565
194	0xbde91c4f	-0.113823526
195	0xbe18b3ce	-0.1491234
196	0x3dab978b	0.08378514
197	0x3dea2682	0.11433126
198	0x3d429cf9	0.047512982
199	0xbca1e623	-0.019763058
200	0x3c095a62	0.008383365
201	0x3e0b5f4c	0.13610572
202	0xbe1a248b	-0.15053003
203	0x3e72e5f5	0.23720534
204	0x3c9232b6	0.017846446
205	0x3e05c5a8	0.13063681
206	0x3dad18d3	0.084520005
207	0x3e0796f6	0.13241181
208	0x3bd40fb9	0.006471601
209	0xbd667b7e	-0.056270115
210	0x3d812e63	0.06307676
211	0xbcf9b18e	-0.030480172
212	0x3e1758c2	0.14779952
213	0x3dae46ff	0.08509635
214	0x3e1838e6	0.14865455
215	0xbd9e96ce	-0.077436075
216	0xbc5a3e0c	-0.013320457
217	0x3d7e8f0a	0.06214813
218	0xbe15aebf	-0.14617442
219	0xbcd2fb22	-0.025754515
220	0xbd2642bb	-0.040590983
221	0xbdf2361f	-0.11826729
222	0xbdbb3357	-0.09140652
223	0xbd48f0b6	-0.049057685
224	0x3d115f66	0.03549137
225	0x3e15384d	0.14572258
226	0x3d6c6b19	0.057719324
227	0xbdd64168	-0.10461694
228	0xbbcae744	-0.00619212
229	0x3c8479ef	0.016171424
230	0xbd3f926e	-0.046770506
231	0xbe106f3d	-0.14104934
232	0x3c48ecb8	0.012263469
233	0xbe1b63e0	-0.15174818
234	0xbd8c6513	-0.06855216
235	0x3dece70e	0.11567508
236	0xbd0c65e2	-0.03427685
237	0x3d42c1b0	0.047547996
238	0xbdbc5cb9	-0.09197373
239	0x3da555dc	0.08073017
240	0x3b6ff8e7	0.0036616863
241	0xbd2697ae	-0.040671997
242	0x3dfde8c0	0.12397909
243	0x3ba54116	0.0050431592
244	0x3e008487	0.12550555
245	0xbe047935	-0.12936862
246	0xbd0779f6	-0.033075295
247	0x3deb311b	0.114839755
248	0xbdfb879d	-0.122817256
249	0xba82224c	-0.0009928434
250	0xbc5f4e04	-0.01362944
251	0xbdab5ab0	-0.08366907
252	0x3df24f21	0.11831499
253	0xbddc5eb1	-0.107602485
254	0xbd5b4962	-0.05353678
255	0x3de4bd14	0.11168876

linear_2.bias f4 [24]
0	0xbdc6a137	-0.09698718
1	0x3de504a9	0.111825295
2	0x3da9091d	0.08253691
3	0x3d3153cd	0.04329281
4	0xbc6dbbb7	-0.014510087
5	0x3cdec40d	0.027193094
6	0x3d5cef1d	0.053938974
7	0xbe241cf6	-0.16026673
8	0xbe0f2168	-0.13977587
9	0xbe0c9b3a	-0.13731089
10	0x3dcff7be	0.10154675
11	0x3e115eaa	0.14196268
12	0x3e041939	0.12900247
13	0xbd8aca93	-0.06776919
14	0xbd1b0cc6	-0.03785398
15	0xbd9d2f7b	-0.07675072
16	0x3e0a80c8	0.13525689
17	0x3c7dd8d4	0.01549359
18	0x3df73fd4	0.12072721
19	0x3e4ac403	0.19801335
20	0xbe2b1970	-0.16708922
21	0xbd736c47	-0.059429433
22	0xbd242b46	-0.04008033
23	0xbdd75d63	-0.10515859

linear_3.weight f4 [1, 24]
0	0x3e6b8b54	0.23002368
1	0x3e382677	0.17983423
2	0x3de684f4	0.112558275
3	0x3e68c573	0.22731571
4	0xbd52c44e	-0.051456742
5	0x3cf3191d	0.02967506
6	0xbd9dbb4e	-0.07701741
7	0xbda718be	-0.08159016
8	0xbe1fe93d	-0.15616317
9	0x3e0f4955	0.13992818
10	0x3e2860b3	0.16443138
11	0x3e6480f8	0.22314823
12	0x3e0ee58e	0.13954756
13	0x3d474be3	0.048656356
14	0xbd47d1df	-0.048784133
15	0x3df4889e	0.1194012
16	0x3d9f53ed	0.077796794
17	0xbd85ddd0	-0.06536448
18	0x3e1b02e8	0.15137827
19	0x3e2df7c1	0.16989042
20	0xbe2a076b	-0.16604392
21	0xbe25d8db	-0.16196005
22	0xbe3280ad	-0.17431898
23	0xbe4bd874	-0.19906789
