ndp/weights/finetune-7.pt (torch, 316143 bytes, 5 tensors)

linear_1.weight f4 [196, 343]
00000000: 3195 e0bc e927 62bd 7864 e23b 0e4a 8fbc
00000010: f8d0 17ba 11e9 c23b 4fa8 32bc daeb 52bd
00000020: 4fb9 f3bc e407 9c3c 8eaa 4c3c ebbe 4cbd
00000030: 0272 ce3c 155c d3bb 7826 a7bc 270e 3d3d
00000040: 37fa 4dbb 2912 233c 9921 fdbc b006 5abd
00000050: 2db0 58bd 0c47 983c 2b07 50bd d72f f23c
00000060: 3dd2 f73c 2164 a4bb 3da8 03bb 027e 133d
00000070: 00d0 7e3c 649f 353d 4b75 cc3a 1aec e33c
00000080: e347 013c 6ded 883c bcc2 3d3c d638 e7bc
00000090: 33f2 643b e08e 8bbc af04 4dbd 2ab8 6c3c
000000a0: cd52 383d fd28 69bc b1ec e83c 73e4 c73b
000000b0: 9220 883c 98dd e8bc 44f7 00bc bdd5 38bc
000000c0: f997 f2bc 9d37 023d f30d 13bd 5114 323d
000000d0: 4c17 d7bc ee9e 393b eb30 0abd db7f dfbc
000000e0: f688 a9bc 8ab0 3bbd 1b12 1bbd 3402 c6bc
000000f0: 7a63 e13c 4165 2b3c b490 543c 5d27 1abd
00000100: bdb9 183c fd3f 173d 50f5 263c 1119 0f3d
00000110: 4017 ac3a 6bb5 1e3d 046b 0abd 45c5 273d
00000120: 4090 c93c 016e b2b9 4561 edbc 60f9 05bd
00000130: 7c2a 68bb 3990 293d 4327 3a3d 3cca 51bd
00000140: 48ec 0a3d eca0 65bd f3a8 053a f6ce f73a
00000150: d05c ffbc 808c 253c 8bcb 22bd af7c b6bb
00000160: 3a58 6b3c f341 fdbb 6ede 1fbd a2fc 79bc
00000170: fdf2 483d 2a86 59bd c717 8b3c 1e99 cb3c
00000180: 7fc5 6e3c a879 b1bc 51ce d53c 9686 e53c
00000190: 6ac2 bc3b 0717 39bd f60c f63c 0a9a 2b3d
000001a0: e2c8 02bc 52a8 31bc 15ba 45bd a62d a6bc
000001b0: 4df2 5c3c ff8a 3e3c 2e79 233d 1304 043d
000001c0: 2a02 6bbd 9c84 463c 7292 1b3d 9b29 20bd
000001d0: 513c cf3c 6935 46bd 40a7 57bd eee3 77bc
000001e0: 2024 cf3c 12c1 b1bc ba3a 93bc eb3a 82bc
000001f0: 8451 6bbc 0a76 83bb 08f5 b53b b782 3cbd
00000200: 054f 00bb 3a99 69bd 724a ea3c ca3a 3d3d
00000210: a9ea da3c 8187 123d 0c7d 68bb 5cd9 873c
00000220: d85f b43c aa71 60bd 9e33 ab3c c0c8 863c
00000230: 647c 2d3d 8f9b 1ebd 5280 5abd bf73 41bd
00000240: e8e5 77bb c730 253d 5fcc 363d 4e2f 213d
00000250: b6ef 213d 558f cd3c f7d4 72bc 8a18 943c
00000260: 82f5 d3bc eb3c 443d 1815 9d3b 3d91 c0bc
00000270: 3fd6 073d 461b c13c cb0f c5bc 6e0a 433d
00000280: 2aa5 353d 648c 9d3b 31e5 0f3d a948 43bc
00000290: 2eff c2bc 2c5b 0b3d 406a 29bc b15f e43c
000002a0: e4d5 173c 918b 2db8 3090 17bd a12e 28bd
000002b0: 5df6 48bc 5425 13bd 5205 b6bc 1c50 093d
000002c0: fccf 233d 9037 153d dc0a 9b3c c99f 68bc
000002d0: d9d2 d1ba c135 413d 401e 2c3c e9c4 3d3d
000002e0: c481 2dbd 63cf 90bc a194 dabc f418 00bd
000002f0: 1bde 933c bdf4 35bd c15f d43c 33f5 06bd
00000300: a8f7 413d cc66 1c3d d286 993c 0059 e53b
00000310: 4d79 12bd 79ab 03bd 8f69 2ebd ca36 d83c
00000320: 9717 833c f2a3 df3c 7390 39bd a754 38bd
00000330: da0e 06bd 7a5d 433d cfce 253d 2274 5bbd
00000340: 9a85 20bc 5925 a23c 7d06 aa3c d409 5abd
00000350: 7f19 5dbc b391 89bc b0d2 c5bc 400b 273d
00000360: 1564 5dbc 5624 a8bb fb9f c83c 321d bbbc
00000370: c5ed 2cbd dcd2 143d 6c8c a73c 2a78 293b
00000380: d2da 6ebd eac9 bebc 27c4 4fbd c62c 82bc
00000390: 3875 72bc 2d6e 3b3d 71f0 e23c 61f1 333d
000003a0: 10b2 4f3c cea2 1abc 9dcb 02bd 8bff 213d
000003b0: bac6 51bd 2ee6 53bd 2b3b 95bc e1d4 bebc
000003c0: c891 a7bb 06b6 28bc 5125 8f3c 6476 63bd
000003d0: 3604 3cbd f2bf 37bd 6fa2 d2bc d1ff c2bb
000003e0: 51a1 973c 608a 53bd 9e93 25bd f148 f6bc
000003f0: 40a9 4abd 6df0 f23c 5f20 23bd 0660 b0bc
-0.02741489 -0.055213843 0.0069089495 -0.017491367 -0.00057913316 0.005948194 -0.010904386 -0.051494457
-0.029751448 0.019046731 0.012491835 -0.04998676 0.025200848 -0.006450186 -0.020404086 0.046156075
-0.0031429657 0.00995306 -0.03089981 -0.053229034 -0.05290239 0.018588565 -0.050788086 0.029563827
0.030251617 -0.005016819 -0.0020089292 0.036008842 0.015552521 0.04434146 0.0015598921 0.027822543
0.007890674 0.016714776 0.011582073 -0.028225344 0.00349344 -0.017035902 -0.050053295 0.014448205
0.04500084 -0.014230964 0.028433176 0.0061002313 0.016617093 -0.028425977 -0.007871453 -0.011281428
-0.029613482 0.03179132 -0.035901975 0.043476406 -0.026256226 0.002832349 -0.033738058 -0.027282646
-0.02069519 -0.045822658 -0.037859064 -0.024170972 0.027513254 0.0104611525 0.012973953 -0.037635196
0.009321627 0.03692626 0.010190323 0.034936015 0.0013129488 0.038747232 -0.033793464 0.040959615
0.024604917 -0.00034032765 -0.028977046 -0.032708526 -0.0035425713 0.041397307 0.0454476 -0.051218256
0.03391674 -0.05606167 0.0005098723 0.0018906284 -0.031172186 0.010104299 -0.039744895 -0.0055690627
0.014364297 -0.007728809 -0.039030485 -0.015257986 0.049059857 -0.053106464 0.016979111 0.024853285
0.014573454 -0.021664456 0.026099356 0.028018277 0.0057604806 -0.045187976 0.030035477 0.04189495
-0.0079824645 -0.010843353 -0.048273165 -0.020285439 0.013485503 0.011629819 0.039910488 0.032230448
-0.05737511 0.0121165775 0.037981458 -0.039102178 0.025297316 -0.04839078 -0.052649736 -0.015130026
0.02528578 -0.021698508 -0.017972339 -0.015897235 -0.014362697 -0.004011874 0.0055528916 -0.046023097
-0.001957835 -0.057030894 0.028599951 0.046198644 0.026723223 0.035773758 -0.0035474924 0.016583137
0.022018358 -0.0547959 0.020898636 0.016453147 0.042354956 -0.03872257 -0.053345032 -0.047229525
-0.0037826244 0.04032972 0.044628497 0.039351754 0.039535247 0.02509276 -0.014821283 0.018078107
-0.025873903 0.04790966 0.0047937743 -0.023506755 0.033163305 0.023572575 -0.024055382 0.04761737
0.044346966 0.0048079956 0.035130683 -0.011919179 -0.02380332 0.034022495 -0.010340273 0.02787766
0.009267304 -4.1376396e-05 -0.037002742 -0.041060094 -0.012265769 -0.03592427 -0.022219334 0.033523664
0.03999327 0.03642994 0.018926077 -0.014198252 -0.0016008272 0.047170404 0.010505259 0.046330366
-0.042360082 -0.017677015 -0.0266822 -0.031273797 0.018050244 -0.044422854 0.025924565 -0.032948684
0.047355324 0.038183972 0.018741045 0.006999135 -0.035760213 -0.03214595 -0.042581137 0.026393313
0.01600246 0.027299855 -0.045303773 -0.045002606 -0.032729007 0.047696568 0.04048043 -0.05357755
-0.009797478 0.0197932 0.020755047 -0.05323203 -0.013494848 -0.016793108 -0.024148315 0.040782213
-0.013512631 -0.0051312847 0.024490347 -0.02284107 -0.042218942 0.036333904 0.0204527 0.0025858977
-0.058314152 -0.02328964 -0.050724175 -0.01589049 -0.014798455 0.04575937 0.027702542 0.04393137
0.012676731 -0.00943823 -0.031932462 0.039550345 -0.05121491 -0.05173319 -0.01821669 -0.023294868
-0.005113814 -0.010297304 0.017473849 -0.055532828 -0.045902453 -0.044860788 -0.02571222 -0.005950906
0.018509539 -0.051645637 -0.04042398 -0.030064078 -0.049477816 0.02965566 -0.039825793 -0.021530163

linear_1.bias f4 [196]
00000000: d578 50bd 2c8e 8f3b 5547 523c 5d59 1d3d
00000010: 7102 123d e4a1 b73b 56fe 0abb 25ac be3c
00000020: cf18 0e3d 0adc 40bd 1e5e f13c 4059 553d
00000030: 74c0 d53b 0fd9 b63c 6895 ecbc 499f 093b
00000040: ea2a 123d 8f16 123c 8025 6fbd 21f8 c63c
00000050: 601a 733b 41f1 56bd 9765 1bbd 1b4b 06bd
00000060: fcac 013d a52e 24bc 0e08 2c3d 5105 78bc
00000070: f9fa 35bd ddbe 9b3c f4be 213d 386f 213d
00000080: 9dde 45bb 70cc d6bb 6b2e 2d3d 1e1f 00bd
00000090: f5f4 d4bb 01d9 5f3d 4a83 693d 2a1d 4b3d
000000a0: f465 40bb b1ef 0fbd efeb ddbc a9fb b93b
000000b0: 0111 883a 55f5 213d f291 293d 7b3f da39
000000c0: e36d 65bd 3e8a 01bd 5dd6 c0bc 772a f4bc
000000d0: f066 20bd 5f52 803b 07f6 13bd d2ce 88bb
000000e0: 9780 debc fb8f ddbc df2c 28bd 02e3 8dbc
000000f0: 8085 763d 4951 f03c 828e 4cbd c93c 413d
00000100: 3445 79bc 8d2d 5e3c d50e f5bc 9b40 01bc
00000110: f2b5 df3c 76a8 dc3c f979 c9bc 87c8 0abd
00000120: ab54 e2bb 8d1f 0dbd b5b0 6a3d 81a1 6b3d
00000130: eefe 7cbb b779 2a3d 9da4 64bd 13dc 84bc
00000140: 726f 143d bd99 44bc 45c8 303d 5050 0bbd
00000150: 55f3 583d 5ed0 bc3c 4967 a4bb b15a 303d
00000160: 061f 3cbd 220b 35bd f156 3bbc 6ae4 443d
00000170: ecc6 223d 431e 583d 972c 133c 863d dfbc
00000180: 5ac9 f03b 030d 5a3d ff38 f43c d90b 023d
00000190: 7785 203d f03e 493b c4cc 373d 7a7e a83c
000001a0: b161 a0bc b7e2 3d3d 90cc 373d e7e0 733c
000001b0: 21d1 053d 4069 6cbc 2560 db3c ca3d 2fbd
000001c0: b111 e83b 32cf e43c e376 fa3c a1f6 5fbd
000001d0: 6402 cf3c dc67 e13c 42a6 563d bae0 31bc
000001e0: 9095 c4bc 15cb 0f3d 3b96 57bc 4769 503c
000001f0: 58b2 2abd 6501 debc 6978 0ebd 55ad 433d
00000200: 8c61 36bd fe7d 4f3d 0010 44bd f0e7 b3bc
00000210: eca9 debc 3a78 a2ba d06a 223c c8bd 67bb
00000220: d29f 3abc 93d2 4ebd 97a9 4abd 1c93 433d
00000230: 5ac3 3abd 8901 b23a 12ad a73c 5d4c c7bc
00000240: 3b00 21bd 8687 adbb b63d 253d 452b 783b
00000250: 8176 263d 5d5f 033d b1cc b83b b6b0 713d
00000260: 1ca4 2c3d 5e62 18bd 3bac 463d 6580 04bd
00000270: f9c4 09bc 2d0c 02bd 32ff afbc 84fb 93ba
00000280: 7999 983b 28b8 05bd 2c44 123c b3aa 233d
00000290: 958c 0d3d f9bc c1bc e274 443d 7cc8 0f3c
000002a0: 04f5 1dbd cfaf c53c 2c95 ef3c c489 ce3c
000002b0: 98ce 1c3c 5200 763d a726 e6bc 9cb1 5abc
000002c0: c1ff 3b3c 3799 053d c389 2c3c ae3b 2bbd
000002d0: a18f 09bd f3a7 a33c 9a8e 8bbc ca78 e53c
000002e0: e940 123c 892f 53bc 1911 8abb 242d ae3c
000002f0: 7c31 293d 1550 913c 28f7 c93c eea7 f2bc
00000300: a5fa 1b3c dc22 083d fa7a 30bc 3610 e83c
-0.050896484 0.004380962 0.01283439 0.0384153 0.03564686 0.0056040157 -0.0021208725 0.023275444
0.034691628 -0.047084846 0.029463824 0.05208707 0.0065231863 0.022320298 -0.028879836 0.0020999482
0.035685457 0.008916511 -0.058385372 0.024288239 0.0037094578 -0.05247617 -0.03793868 -0.03278647
0.03165911 -0.010020887 0.04199987 -0.015137986 -0.0444288 0.01901191 0.039488748 0.039412707
-0.0030192502 -0.0065551326 0.042280596 -0.031279676 -0.0064989277 0.05465031 0.057009973 0.04958836
-0.0029357644 -0.035140697 -0.027090041 0.005675752 0.0010381044 0.039540607 0.04139895 0.00041627497
-0.056013 -0.03162598 -0.023539716 -0.029805405 -0.03916067 0.0039160694 -0.0361233 -0.0041750455
-0.027160926 -0.027046194 -0.041058417 -0.01732016 0.06018591 0.029335635 -0.049940594 0.04717711
-0.015214253 0.013560665 -0.029914299 -0.007888938 0.027308438 0.026935797 -0.024594294 -0.033882644
-0.006907066 -0.034453917 0.057297427 0.05752707 -0.0038604098 0.041619983 -0.05582105 -0.01621822
0.036239095 -0.011999545 0.043159742 -0.03401214 0.052966435 0.023048576 -0.0050171954 0.04305524
-0.045928024 -0.04420007 -0.011434303 0.048069395 0.039740488 0.052763235 0.008982799 -0.027251016
0.0073482217 0.053235065 0.029812334 0.03174958 0.039189782 0.003070768 0.044873014 0.020568121
-0.019577833 0.04635879 0.04487282 0.014885164 0.032670144 -0.01442939 0.026779244 -0.042783536
0.007082187 0.02793083 0.030574268 -0.054678563 0.025269695 0.027515344 0.05240465 -0.010856802
-0.023997098 0.035105783 -0.013158376 0.012720413 -0.041673988 -0.027100274 -0.0347828 0.047772724
-0.04452662 0.050657265 -0.04786682 -0.021961182 -0.027180634 -0.001239545 0.009913161 -0.0035360921
-0.011390643 -0.050493788 -0.04947814 0.047747716 -0.045596458 0.001358078 0.020468269 -0.024328405
-0.03930686 -0.0052956967 0.040342055 0.0037867588 0.040640358 0.032073367 0.0056396355 0.059006415
0.042148694 -0.037203185 0.048504096 -0.03234901 -0.008408778 -0.031749893 -0.021483991 -0.0011290167
0.0046569672 -0.03264633 0.008927386 0.039957713 0.034557898 -0.02364968 0.04796303 0.008775827
-0.038563743 0.024131684 0.029245935 0.025212176 0.00957074 0.0600589 -0.028094603 -0.013348009
0.011474551 0.03261682 0.010530892 -0.04180496 -0.03358424 0.019977545 -0.017035771 0.028011698
0.008926609 -0.012889751 -0.004213464 0.02126176 0.041306958 0.017738381 0.024653986 -0.02962109
0.0095202075 0.03323637 -0.010771507 0.028328042

linear_2.weight f4 [56, 196]
00000000: 6ea8 1d3d 8a55 debc ce0c 02bd d1c3 3ebd
00000010: c175 5ebc e57f 79bd 8e01 8f3d ee88 833c
00000020: 0123 4e3c e00b 9cbc b3d4 33bd e534 6ebc
00000030: 05c5 bcbc d392 033d 5532 403d b7b8 22bd
00000040: ee2e b23b 9afc 503d ea61 493d 539e 0bbd
00000050: 73fd 86bd 2189 593d 65c6 6e3c c0e4 95bc
00000060: 4e8e a0bc 2ec6 e0bc ace0 2ebd 7cb6 1fbd
00000070: 6df9 87bd b73c 37bc ce7e 80bc 4a85 7fbc
00000080: 7730 893c 0096 81bb 8512 bdbc 8a8a ea3c
00000090: 8894 6c3d b07b 8f3d 0154 e0bb 60dd 9bbc
000000a0: ca9b 2f3d faca 7f3d cc30 2bbd 137b 4c3c
000000b0: de41 73bd c75e 853d a7d4 473d 888e 6dbd
000000c0: 9a91 5f3d 80b9 25bd 5333 f4bc d425 873d
000000d0: d394 b3bc 5c6b b03b f86e 71bd da3c 0dbd
000000e0: dc00 7e3c 0aef 85bc 9b14 91bd 1717 cf3c
000000f0: 216d 543d 0151 7dbc 3871 ffbb 3afe 6bbd
00000100: 1ce4 0dbc b86d ecbb f3bd 87bc 4e58 ba3c
00000110: 8a07 d5bc 6ec1 2fbd 9c21 4a3d 252b 19bb
00000120: 0a14 83bd b715 98b9 9350 abbb eee6 2ebd
00000130: 8a9e cebc 55bf 81bd be3a 7cbd f5e8 7bbd
00000140: 214c edbc 303b 1bbd c05f a33c 371b 313c
00000150: 4eaa e6bc 2722 13bd b13f 54bd f2b5 82bd
00000160: 5314 55bd 47a3 193d c0b7 8f3d 38fd 713c
00000170: 0350 403d fa88 0f3d 4108 ea3c 8e29 923c
00000180: c345 7e3d b7a2 5a3b 138f 3ebc 6ede b4bb
00000190: 1cbd 7fbd f513 16bd 9c6d 3fbc 2541 81bb
000001a0: 1542 4abd 97be 4abd b72d af3c e540 7e3c
000001b0: b711 42bc a1d3 73bd 93bc 493c 9e93 063d
000001c0: b705 0d3a 7efc 0ebd 612b 73bd 8a61 bd3c
000001d0: 38fd ec3b 6538 f93c faa0 00bd 1c17 b0bc
000001e0: f3c6 38bd e3c9 7ebd 7b79 813d 38de 7ebc
000001f0: ca76 97bb 1123 49bd 2a32 523d 9ceb 723c
00000200: c3d0 85bd 60ac 123d b7ec 3fbb 377f 03bd
00000210: c14e 7dbd 35a6 823d 4a87 a33b 6e07 9d3b
00000220: d5aa 2b3d 9ae4 633d ca78 643c 0a42 103d
00000230: 9a01 5ebd 3347 fc3c b785 a43a 474a 583d
00000240: 936d 76bd 181b e33c b8ee 7c3d ce53 e2bc
00000250: ae1d 023d 4a12 87bd 4738 3fbd ee99 7ebd
00000260: eda9 80bd e710 47bd a58d 3cbd dc96 1abd
00000270: 2ae2 c2bc 81f0 ad3b d333 2f3d 8c12 873d
00000280: 25f9 9c39 e597 133c 4eac 3a3d 4c8d 863d
00000290: 25c4 0abd 730b d1bc da13 47bd 1cbd 08bc
000002a0: c06f aabc 1345 773d ceaa ebbc 8530 80bc
000002b0: 8a68 083c f092 07bd 96d6 81bd 9c0c d13c
000002c0: 45f2 563d 3869 ddbb 1e0a 73bd 53b1 2e3c
000002d0: 6c1d 5fbd d7d4 003d 73a8 29bd fe71 65bd
000002e0: 7c64 c7bc d365 d23c 4e76 36bd 25ac 243b
000002f0: 1382 d43b 2a36 79bd 974e d6bc 2ee9 583d
00000300: 25af 8cbb 6565 0fbd 37bf 993b 7d9f 82bd
00000310: c4fc 4ebd af3c a6bc ea15 963b c125 4cbd
00000320: dbdb 793d 1e7b 443c cb60 783d 5f4a 55bc
00000330: 674f 9a3d 44f0 20bb ccb8 09bc 616f 553c
00000340: 9e06 803d 0fa2 983d eae8 b33b 8882 fb3c
00000350: 06c8 3f3d 398e f43c f71b abbb a41c 29bd
00000360: 3051 3ebd ca03 85b8 06ce 4c3d 3f15 1f3c
00000370: b6c7 563d 4682 673d 9354 903d 4479 d03c
00000380: 4fc6 8e3d b8f9 343d 5c83 5c3d 12d5 20bd
00000390: e0e2 9c3d 07a4 3d3c 75a8 06bd 59db 833d
000003a0: c3fa 34bc 8c17 9f3d 399d 643d 1523 313d
000003b0: 146d 713d 7e30 e83c 2ed7 86bd dc56 2e3d
000003c0: e4a3 863d 6cb2 9a3d c0c9 20bd e36a 4e3c
000003d0: 90a9 983c c73a 623c 1f30 633d 7914 453d
000003e0: e8a5 86bd 436b 42bd 56a3 2fbd 3da2 403d
000003f0: 4cc5 4b3d b02e 82bd 7f32 ec3c a4f3 63bd
0.038490705 -0.027140398 -0.031750493 -0.046573464 -0.013577879 -0.060912985 0.069827184 0.016056504
0.012581588 -0.019048631 -0.043904018 -0.014538978 -0.023043165 0.032122444 0.046923 -0.03972694
0.0054377234 0.05102215 0.049165644 -0.034086537 -0.0659131 0.053109292 0.014573668 -0.018297553
-0.019599106 -0.02743825 -0.042694733 -0.03899239 -0.06639371 -0.011183909 -0.015685465 -0.015595743
0.016746743 -0.003954649 -0.02308012 0.028630514 0.057758838 0.070060134 -0.0068459515 -0.019026458
0.04287318 0.062449433 -0.041794583 0.012480515 -0.059388988 0.06512218 0.048786785 -0.057997257
0.054582216 -0.04046011 -0.02980963 0.06599012 -0.02192155 0.005383892 -0.05894372 -0.03448186
0.015503135 -0.016349334 -0.07084008 0.025279565 0.051861886 -0.015461207 -0.007795479 -0.057615496
-0.008660343 -0.007215228 -0.016570067 0.022747185 -0.026004571 -0.04290908 0.04934846 -0.0023371663
-0.064003065 -0.00029007878 -0.005228111 -0.0427007 -0.025222082 -0.06335322 -0.06157946 -0.061501462
-0.028966965 -0.037898242 0.019943118 0.010809711 -0.02815738 -0.035921242 -0.051818553 -0.063823596
-0.052021336 0.03750923 0.070174694 0.014769845 0.046951305 0.03504274 0.028568389 0.01784208
0.06207825 0.0033361146 -0.011630791 -0.0055196797 -0.062436208 -0.036640126 -0.011683848 -0.0039445334
-0.049379427 -0.049498167 0.021384103 0.015518402 -0.011845044 -0.059527997 0.012313026 0.032855622
0.0005379575 -0.034908764 -0.05936754 0.0231178 0.0072323345 0.030422399 -0.03140352 -0.021495394
-0.045111608 -0.062204253 0.06321999 -0.015555911 -0.004622315 -0.049105708 0.05131737 0.014826681
-0.06533959 0.03580892 -0.002928538 -0.032103743 -0.061842684 0.06379358 0.004990493 0.0047921455
0.041910965 0.055637933 0.013944814 0.03521923 -0.054200746 0.03079567 0.0012552057 0.05280521
-0.060163092 0.02772288 0.061751097 -0.027627852 0.031766586 -0.06595285 -0.04668453 -0.062158518
-0.06282411 -0.048600104 -0.04603352 -0.037741527 -0.023789484 0.0053082113 0.042774033 0.065953344
0.00029940266 0.009008382 0.04557448 0.06569919 -0.033878464 -0.025518155 -0.048602916 -0.008345868
-0.02080524 0.06036861 -0.02876797 -0.015648136 0.008325705 -0.033099115 -0.06339757 0.025518708
0.05247714 -0.006756928 -0.05933582 0.010662395 -0.05447142 0.03145298 -0.04142041 -0.056016915
-0.024339907 0.02568332 -0.044546418 0.002512702 0.0064852326 -0.06084267 -0.026160521 0.052956752
-0.00429334 -0.035008807 0.004691984 -0.06378076 -0.050534025 -0.020292608 0.004580249 -0.049840692
0.061000686 0.011992244 0.060639184 -0.01301822 0.07534676 -0.0024557272 -0.008405875 0.013027043
0.06251262 0.07452785 0.005490412 0.03070189 0.046821617 0.029852973 -0.0052218395 -0.04128708
-0.046464145 -6.34264e-05 0.050001167 0.009709655 0.052436553 0.056520723 0.07047381 0.025448449
0.06971418 0.044183463 0.05383621 -0.0392657 0.076604605 0.011574752 -0.032875497 0.064383216
-0.011046114 0.07768163 0.055814 0.043246347 0.058941916 0.028343435 -0.06584011 0.042563304
0.065742284 0.075535625 -0.039254904 0.012598726 0.018635541 0.013807959 0.055465814 0.048115227
-0.06574613 -0.047465574 -0.04288038 0.047029722 0.049748704 -0.06356561 0.028832672 -0.055652276

linear_2.bias f4 [56]
00000000: 6516 0d3d c4d0 143d 1816 e13c 26d3 aebc
00000010: da56 65bd 53a8 d3bc b536 ecbc ddbd d2bb
00000020: 026d 92bd 4a50 123d 6530 33bd 35ab c8bb
00000030: f40d 143d 1a89 42bd 3b87 5b3d d43f 113c
00000040: 5367 c5bc 9c17 133d 799b 193d 32d7 92bd
00000050: 0041 17bd 9f60 773d 5972 573c 5e75 f73b
00000060: 11b5 d53c 74a1 593d bfc4 d53c 1af5 07bd
00000070: 6a08 eabc 5a30 ad3b afbe d2bc c9f0 5a3d
00000080: cea4 e9bc bfed 1bbd ab04 49bc 6a37 ed3c
00000090: a3a1 8f3d ccc4 13bd f807 7f3d b67e 45bd
000000a0: 4685 873d 561d 363d 336b edbc 51a3 d7bc
000000b0: 2d86 6ebc 3d60 97bd 1c2a 3abd 6b31 85bd
000000c0: 8140 b93c 4127 93bd bca4 81bd 7826 933d
000000d0: 02ba 9e3d 010d 32bd 310f 68bd 41d3 153d
0.034445185 0.036331907 0.027476355 -0.021340918 -0.05599103 -0.0258371 -0.02883468 -0.006431325
-0.07149698 0.0357211 -0.043747324 -0.006123925 0.03614612 -0.04749403 0.053595763 0.0088653155
-0.02409712 0.035911188 0.037501786 -0.071699515 -0.036927223 0.06039488 0.013149821 0.007551833
0.026087316 0.05313249 0.026094792 -0.03319273 -0.028568465 0.005285305 -0.02572569 0.053452287
-0.028520968 -0.03806853 -0.012269179 0.028957088 0.07013252 -0.036076352 0.06226346 -0.048216544
0.06617217 0.04446157 -0.02898178 -0.026322993 -0.014558357 -0.07391403 -0.045450315 -0.06503566
0.022613766 -0.071852215 -0.06330249 0.07185072 0.07750322 -0.043469433 -0.056655113 0.03657842

linear_3.weight f4 [1, 56]
00000000: cca4 973d 9a78 fc3d 8a77 083e 9288 88bd
00000010: 7020 babd bc36 e8bd 1f64 11bd 3536 e83d
00000020: 1bd3 94bd 0e55 183d e166 4c3d c977 91bd
00000030: d17f d83d 92b8 d93d 63b8 0c3e 0488 c43d
00000040: 17e2 4e3c 4676 c8bd 13e1 ebbd d615 8cbd
00000050: f9a2 d33d fe19 f7bd 0b41 893d 434f 9e3d
00000060: 8c86 f33d de82 563d 8c6c cc3d 8bd4 16bd
00000070: 42a8 b4bd 8452 13bd d241 d73d ab9d 983d
00000080: 9ade 9a3b d4c1 e0bd c67b 3cbc f4b7 803d
00000090: 9794 693d 389b bcbc 9524 c0bd c3be ac3d
000000a0: 6a33 f0bc 16cb 973c 36a2 bc3d 75e5 0a3e
000000b0: 8349 24bc 385c 0c3b 6e75 ef3d 7158 d9bd
000000c0: 6111 97bc bd2e 20bd 4d7d a4bd 8866 973d
000000d0: 3579 3a3d f55b 923d 3105 363d 2890 063c
0.074044794 0.123276904 0.1332685 -0.06666674 -0.09088218 -0.11338565 -0.035495874 0.11338464
-0.07266828 0.03719049 0.0499028 -0.07102925 0.10571254 0.10630907 0.13742213 0.095962554
0.012627146 -0.09788184 -0.11517539 -0.068401024 0.10333819 -0.120655045 0.06701859 0.07729962
0.11890897 0.0523709 0.09981641 -0.03682379 -0.08821155 -0.035967365 0.10510601 0.07451948
0.004726243 -0.1097447 -0.011504119 0.06285086 0.057026472 -0.023023233 -0.093819775 0.084348224
-0.029321391 0.018529456 0.09210627 0.13564093 -0.010027292 0.0021417271 0.1169232 -0.10612572
-0.018440904 -0.039107073 -0.08031712 0.07392603 0.04552575 0.07146446 0.044438545 0.0082130805
