ndp/weights/finetune-8.pt (torch, 593583 bytes, 5 tensors)

linear_1.weight f4 [256, 512]
-0.016658003 -0.040125843 0.013142755 0.04601126 0.009433684 0.013438844 -0.030806586 0.01654177
-0.034586035 -0.017487278 0.018287161 0.029400606 -0.0051796595 0.031529468 0.0042951927 0.023373963
0.019572258 0.033947382 -0.005105685 -0.026071612 -0.030497182 0.021015966 -0.0016674694 -0.00036370583
0.00911118 0.02110863 0.036443442 0.03017347 0.023541369 0.031049516 0.009316757 0.03815994
-0.0116913095 -0.0002387711 -0.011283016 -0.041178096 0.0054974435 -0.004881597 0.020130116 -0.035686735
0.03775903 -0.026654044 0.041248303 0.005361455 -0.019690907 -0.022859856 0.017853025 -0.021915467
0.0385624 -0.022305863 0.010075179 -0.03270517 0.0339012 -0.025117464 0.03247268 0.031386025
0.032986432 -0.026706686 0.016128661 -0.0076669822 -0.03994052 0.0018124625 -0.03306237 0.025947098
-0.015156011 0.03369579 0.012566742 0.017172953 -0.012416028 0.03271537 0.042645335 0.0409224
-0.0025324314 0.031378087 0.028107094 0.034585424 0.034201417 0.045900214 0.01053483 -0.02324077
0.01978369 -0.0240527 0.009813905 0.009002319 0.0033410422 0.013073915 -0.017957605 0.011915979
-0.009514686 -0.0022979449 -0.019871378 0.026328295 0.002925704 0.029024184 -0.028810117 -0.0050086174
-0.0117046265 0.03562008 0.01953622 0.001238291 0.005897689 0.0234887 0.025951326 -0.008846866
0.020141207 0.00012144831 0.040800363 0.03799569 -0.021364452 0.03654956 -0.039860718 0.023219382
0.00664154 0.017587043 -0.031755548 -0.016211402 0.024013633 0.022574585 0.003667233 -0.02536381
-0.02559731 0.016793692 0.046508066 -0.0053181844 0.04349855 0.03192859 0.017227342 -0.0032030449
0.0014858473 -0.01789094 0.0032649443 0.038167365 -0.030387603 -0.028880104 0.007270169 0.012078132
0.0061014337 0.019444227 -0.009530536 -0.01861098 0.027132493 0.03254666 0.0030423007 0.013540475
0.021145537 -0.02857249 -0.0067106765 0.0037535557 0.03420309 -0.0421788 0.013689988 0.020056875
0.035158496 0.018747142 0.003255141 0.010037534 -0.0024785206 -0.009031641 -0.03413772 -0.004208862
-0.0366506 -0.03544315 -0.026583508 0.011939609 0.046645343 -0.036468454 -0.03297365 0.020077681
-0.009747853 0.011144655 -0.012768761 0.045820877 -0.013928477 -0.018959992 0.019982971 -0.023909297
0.007447715 0.0062677534 -0.03522633 0.041924953 -0.020385537 0.0059653413 -0.032493133 0.015802203
-0.0416801 -0.005180085 0.008357865 0.04109667 0.014088064 0.036466762 0.021872979 0.021877572
-0.015536376 0.042340573 -0.03772806 0.028839028 0.038957395 -0.039646942 -0.021824608 0.0047999164
0.010498218 -0.028774714 -0.007683261 0.0010227488 0.03551712 0.005175601 0.022073632 -0.022042084
-0.0050407145 0.02681634 -0.014451443 0.020596372 0.033124913 0.010674156 0.010508238 0.034519825
-0.019204104 0.018753223 -0.010148536 -0.034574814 0.02083085 -0.012281461 -0.021992382 -0.028452758
0.0135982 -0.03154538 -0.040233172 -0.034112956 0.029649075 -0.010323441 -0.0071306503 -0.0197105
0.034687646 0.0014465275 -0.021638334 0.00982232 0.007922192 0.0388549 -0.032818533 0.0031531209
0.0375222 -0.00047449223 0.038092073 0.040982593 0.0273463 0.014740816 0.016655924 0.02109411
-0.03473147 0.023263844 -0.014258931 0.038169015 0.03192645 0.0006725056 -0.018928269 -0.029586542
00000000: 5d76 88bc ff5a 24bd b654 573c 4e76 3c3d
00000010: bd8f 1a3c 992e 5c3c 185e fcbc 9b82 873c
00000020: 16aa 0dbd 7b41 8fbc f5ce 953c 8ad9 f03c
00000030: 22ba a9bb 0b25 013d b0be 8c3b c17a bf3c
00000040: 0056 a03c 690c 0b3d 974d a7bb 2294 d5bc
00000050: 3ad5 f9bc ad29 ac3c fd8e daba c5af beb9
00000060: 0f47 153c 01ec ac3c b845 153d 5a2e f73c
00000070: d4d9 c03c 8e5b fe3c 50a5 183c 994d 1c3d
00000080: e88c 3fbc a15e 7ab9 66dc 38bc 5daa 28bd
00000090: e623 b43b cef5 9fbb eae7 a43c 412c 12bd
000000a0: 36a9 1a3d 9559 dabc fbf3 283d 25af af3b
000000b0: d34e a1bc 9844 bbbc 8240 923c 1188 b3bc
000000c0: 9bf3 1d3d c9ba b6bc 5d12 253c dbf5 05bd
000000d0: fcdb 0a3d 24c3 cdbc 1302 053d a28e 003d
000000e0: c81c 073d fbc7 dabc 4120 843c 4f3b fbbb
000000f0: ac98 23bd 2690 ed3a 686c 07bd 028f d43c
00000100: eb50 78bc 9904 0a3d bce4 4d3c 4bae 8c3c
00000110: 996c 4bbc 8d00 063d e0ac 2e3d 3f9e 273d
00000120: 26f7 25bb 4f86 003d d940 e63c 72a9 0d3d
00000130: c916 0c3d dd01 3c3d 489a 2c3c 6d63 bebc
00000140: 6811 a23c 2b0a c5bc 80ca 203c 767e 133c
00000150: 63f5 5a3b f933 563c d41b 93bc 3d3b 433c
00000160: 7ce3 1bbc 1e99 16bb 4dc9 a2bc 70ae d73c
00000170: 2bbd 3f3b 20c4 ed3c 3203 ecbc 541f a4bb
00000180: c3c4 3fbc 5ce6 113d 6c0a a03c 274e a23a
00000190: 6741 c13b 606b c03c e097 d43c 72f2 10bc
000001a0: 2cff a43c 11b2 fe38 481e 273d 5ea1 1b3d
000001b0: 8104 afbc feb4 153d fe44 23bd 9336 be3c
000001c0: 47a1 d93b b412 903c 1b12 02bd c6cd 84bc
000001d0: 3db8 c43c 56ee b83c f655 703b c4c7 cfbc
000001e0: 73b1 d1bc ed92 893c 3e7f 3e3d 2a44 aebb
000001f0: 892b 323d 8ec7 023d 5b20 8d3c 2dea 51bb
00000200: c3c0 c23a 0590 92bc adf8 553b 6255 1c3d
00000210: 6cef f8bc f895 ecbc 993a ee3b 5be3 453c
00000220: 89ee c73b 8049 9f3c f725 1cbc 0e76 98bc
00000230: f644 de3c a64f 053d 5661 473b ded8 5d3c
00000240: 6839 ad3c db10 eabc 3ce5 dbbb 37fe 753b
00000250: 8a18 0c3d adc3 2cbd f94b 603c 514e a43c
00000260: 5b02 103d 9b93 993c 3454 553b 7874 243c
00000270: ad6e 22bb 73f9 13bc fed3 0bbd 7eea 89bb
00000280: f11e 16bd d62c 11bd a8c5 d9bc 5a9e 433c
00000290: 300f 3f3d f25f 15bd 610f 07bd f379 a43c
000002a0: 75b5 1fbc 1298 363c 1134 51bc acae 3b3d
000002b0: 4434 64bc fc51 9bbc 54b3 a33c 6edd c3bc
000002c0: f60b f43b ba61 cd3b 7c49 10bd 80b9 2b3d
000002d0: 92ff a6bc e978 c33b 8517 05bd 9f73 813c
000002e0: c1b8 2abd b4bd a9bb 6def 083c fb54 283d
000002f0: a0d1 663c 2c5e 153d f62e b33c 9838 b33c
00000300: 498c 7ebc 4f6d 2d3d bd88 1abd d33f ec3c
00000310: ca91 1f3d d564 22bd 85c9 b2bc 9e48 9d3b
00000320: b800 2c3c f3b8 ebbc ddc3 fbbb c10d 863a
00000330: 667a 113d 1798 a93b c3d3 b43c 9a91 b4bc
00000340: 942c a5bb f1ad db3c bfc5 6cbc b9b9 a83c
00000350: fdad 073d a8e2 2e3c bf2a 2c3c a964 0d3d
00000360: ed51 9dbc 5ca0 993c 0c46 26bc 529e 0dbd
00000370: 75a5 aa3c 2e38 49bc 5e29 b4bc c215 e9bc
00000380: fcca 5e3c ba35 01bd 8acb 24bd 07ba 0bbd
00000390: 9ee2 f23c a623 29bc 3ba8 e9bb ea77 a1bc
000003a0: a214 0e3d 6999 bd3a e042 b1bc cced 203c
000003b0: 15cc 013c 5126 1f3d ba6c 06bd 97a4 4e3b
000003c0: e1b0 193d 45c5 f8b9 6f06 1c3d 5ddd 273d
000003d0: 5905 e03c 7783 713c 0172 883c 8ecd ac3c
000003e0: 9642 0ebd d193 be3c 4b9e 69bc 1d57 1c3d
000003f0: 4fc5 023d 164b 303a 750f 9bbc 7a5f f2bc

linear_1.bias f4 [256]
-0.011770236 -0.0015618149 -0.004899755 -0.008277138 -0.02506766 -0.010791285 0.0102660395 -0.015422581
-0.00944915 -0.0050550513 -0.029460311 0.012929423 -0.006814986 -0.02431648 0.0070299148 0.021344494
0.006922161 0.03618975 -0.034004427 0.0033390494 -0.03836824 -0.03244707 0.042154472 0.050307564
-0.045026235 0.03622311 0.03796057 0.037440784 0.036454838 0.027383596 -0.03549048 -0.01647151
0.04106978 0.0042264042 0.031090857 -0.017323788 0.020805428 0.023986928 -0.035656147 0.004402434
0.012467235 0.02641581 0.02213065 -0.03943483 -0.045262333 -0.03807288 0.00035589153 0.01783364
-0.018424597 0.016615303 0.03401928 0.009496887 0.033916213 0.015416989 -0.01606645 -0.03885461
-0.035370577 -0.03984218 -0.001914083 -0.010085303 0.023987347 0.006139567 -0.026082024 -0.013618953
-0.013368503 0.0061090556 0.05227071 -0.029013088 0.006138334 0.0411569 -0.031022435 -0.03685843
0.0049683196 0.016622726 -0.03768954 0.02942133 0.046831314 0.01731194 0.0037993353 0.0019290807
0.0062498753 -0.046532605 -0.016816132 -0.04158567 -0.0013562271 -0.015591793 -0.037678692 -0.008730028
0.03944263 -0.0137038 -0.03119569 0.017254623 0.007834275 0.0158797 0.049678847 -0.026022194
-0.018870384 0.024201412 -0.007991484 0.004567172 0.035723925 -0.021249523 0.028052837 -0.030586548
0.015174463 -0.029017577 -0.013069901 0.024385469 -0.022211352 -0.023608396 0.033071447 -0.00013331592
0.032717973 -0.034966834 0.03329384 -0.022877924 0.005655731 0.01504379 0.02518984 -0.026593793
0.030553443 0.020797119 0.039759725 -0.0441894 -0.0072050854 -0.01650886 0.0039879554 0.030202927
0.02259137 -0.030208958 -0.0007089387 0.016187837 -0.0010330053 -0.021619443 0.047308788 0.0034696334
-0.017797435 0.047427334 0.03800078 0.0037459936 -0.01664535 0.026525743 0.006085636 0.029543748
0.032272656 0.037789773 0.042728413 -0.028080974 -0.01667505 0.024727823 0.0153101785 -0.011143915
-0.030915903 -0.015131765 -0.027378693 -0.032522865 -0.026888907 0.0117704915 0.005162744 0.0009461661
0.016597377 0.010421995 0.021104952 0.0069509926 0.0114900805 0.017587954 -0.027044855 0.021503065
0.021082453 -0.017781878 0.045122467 -0.017395094 0.04969232 -0.008210331 -0.015956322 0.026571589
-0.0063967817 -0.014183329 -0.00022734236 0.041673567 0.02315326 0.0031949335 -0.030925483 -0.009898262
-0.0137334345 0.00035530212 -0.033213653 0.018621992 -0.0011604598 -0.007520101 0.047685526 -0.022245938
0.025297534 -0.014904319 0.0006336624 -0.019301428 -0.034469593 0.028692104 0.041388016 -0.024901481
-0.025201982 -0.04760763 -0.028795205 0.047176547 -0.030810045 -0.014521253 0.02469567 -0.027335254
-0.038920313 -0.0362223 0.009597708 0.012987027 0.0339246 0.04891261 0.0047043446 0.024393378
-0.030462429 -0.017958693 0.01215791 0.044609126 -0.019738795 -0.017929956 -0.028859822 0.01762623
0.018247569 0.030365584 -0.024750156 0.028350502 -0.024576513 0.0067182737 -0.01980399 -0.018688688
-0.0009692174 0.03635683 0.02067339 -0.012115372 -0.0028943494 0.041240316 -0.038572274 0.023478672
0.02867712 -0.022399448 -0.031108122 -0.013079687 0.007365373 -0.017711157 -0.027264904 -0.021796107
0.019782908 0.03742866 -0.038184237 0.04573486 0.015291718 -0.010852776 -0.029413825 0.008616399
00000000: f3d7 40bc d0b5 ccba 208e a0bb d59c 07bc
00000010: b15a cdbc eecd 30bc e432 283c feae 7cbc
00000020: 9cd0 1abc d8a4 a5bb c056 f1bc eed5 533c
00000030: 3f50 dfbb 5b33 c7bc 335b e63b a6da ae3c
00000040: 4cd3 e23b b43b 143d 3a48 0bbd f4d3 5a3b
00000050: 0428 1dbd 38e7 04bd 2baa 2c3d 4e0f 4e3d
00000060: 6e6d 38bd af5e 143d 8b7c 1b3d 825b 193d
00000070: ab51 153d 9053 e03c 775e 11bd 43ef 86bc
00000080: c938 283d a67d 8a3b 41b2 fe3c 9eea 8dbc
00000090: 2570 aa3c 3c80 c43c 2e0c 12bd 4b42 903b
000000a0: 6043 4c3c f865 d83c 564b b53c 6b86 21bd
000000b0: ff64 39bd 4ff2 1bbd f496 ba39 db17 923c
000000c0: 2eef 96bc d11c 883c cd57 0b3d d598 1b3c
000000d0: baeb 0a3d 8a97 7c3c ca9d 83bc 0326 1fbd
000000e0: bde0 10bd 8e31 23bd f8e1 faba d43c 25bc
000000f0: 1d81 c43c 6c2e c93b f8a9 d5bc 0722 5fbc
00000100: 9107 5bbc 792e c83b d019 563d dbac edbc
00000110: 1424 c93b 2394 283d c322 febc ddf8 16bd
00000120: 49cd a23b 622c 883c 5960 1abd 0005 f13c
00000130: 31d2 3f3d c5d1 8d3c 45fe 783b 35d9 fc3a
00000140: c1cb cc3b f998 3ebd fcc1 89bc bc55 2abd
00000150: 6ec3 b1ba b874 7fbc f954 1abd 6408 0fbc
00000160: 988e 213d e785 60bc 1b8e ffbc 9159 8d3c
00000170: 555b 003c 2516 823c 0c7c 4b3d 7f2c d5bc
00000180: 1096 9abc 0a42 c63c b7ee 02bc 37a8 953b
00000190: 4053 123d 7b13 aebc 10cf e53c a490 fabc
000001a0: 509e 783c 45b6 edbc 2323 56bc 09c4 c73c
000001b0: 95f4 b5bc 6566 c1bc ed75 073d b8ca 0bb9
000001c0: 4803 063d 6239 0fbd 1f5f 083d 7c6a bbbc
000001d0: b653 b93b 3b7a 763c ec5a ce3c 3adb d9bc
000001e0: 374b fa3c b85e aa3c 18db 223d f2ff 34bd
000001f0: a318 ecbb 973d 87bc 65ad 823b 216c f73c
00000200: 8911 b93c c778 f7bc 12d8 39ba 5b9c 843c
00000210: e865 87ba 421b b1bc dcc6 413d ca62 633b
00000220: edcb 91bc 2a43 423d b5a6 1b3d 587f 753b
00000230: d45b 88bc 844c d93c 046a c73b bb05 f23c
00000240: 5530 043d 73c9 1a3d fd03 2f3d 120a e6bc
00000250: 1d9a 88bc 0192 ca3c 8bd7 7a3c f894 36bc
00000260: 5943 fdbc 39eb 77bc 4849 e0bc b236 05bd
00000270: 2046 dcbc 05d9 403c 3c2c a93b 2208 783a
00000280: 39f7 873c 04c1 2a3c 4be4 ac3c 27c5 e33b
00000290: e440 3c3c 9d14 903c 2c8d ddbc 3227 b03c
000002a0: 1cb5 ac3c 4dab 91bc 56d2 383d 2880 8ebc
000002b0: 2d8a 4b3d a084 06bc d5b6 82bc a9ac d93c
000002c0: 189c d1bb 3261 68bc c062 6eb9 e7b1 2a3d
000002d0: e8ab bd3c 1762 513b 7057 fdbc 522c 22bc
000002e0: 3302 61bc d847 ba39 0a0b 08bd 268d 983c
000002f0: 921a 98ba 2e6b f6bb e651 433d 1d3d b6bc
00000300: c63c cf3c 3f31 74bc 5d1c 263a 071e 9ebc
00000310: fd2f 0dbd b40b eb3c 7b86 293d 31fe cbbc
00000320: 6374 cebc 3800 43bd ece3 ebbc 323c 413d
00000330: 5965 fcbc 8dea 6dbc 934e ca3c 2fee dfbc
00000340: e86a 1fbd d65d 14bd b43f 1d3c 8ac7 543c
00000350: 85f4 0a3d 9758 483d e726 9a3b 9fd4 c73c
00000360: 588c f9bc 1c1e 93bc f831 473c 0fb8 363d
00000370: 41b3 a1bc d8e1 92bc 6f6b ecbc e264 903c
00000380: ed7b 953c 3fc1 f83c d7c0 cabc 503f e83c
00000390: af54 c9bc f724 dc3b fa3b a2bc 0519 99bc
000003a0: 1413 7eba e6ea 143d 3e5b a93c 8e7f 46bc
000003b0: 20af 3dbb 9beb 283d f6fd 1dbd 5856 c03c
000003c0: 48ec ea3c 0c7f b7bc 76d6 febc 2f4c 56bc
000003d0: 3a59 f13b fd16 91bc a65a dfbc c08d b2bc
000003e0: c40f a23c cb4e 193d 1367 1cbd 7a54 3b3d
000003f0: 1d8a 7a3c d7cf 31bc 43f5 f0bc cc2b 0d3c

linear_2.weight f4 [64, 256]
0.06391502 -0.023739256 0.0021150196 0.014033652 -0.029143926 -0.03036937 0.0028178617 -0.0112998
0.0527503 0.01499579 -0.03768318 -0.047706544 -0.029616673 -0.0056083654 0.06661007 -0.03704507
0.03229467 0.034374516 -0.013092906 0.008592643 0.017535932 -0.022531735 -0.019123448 0.012038221
-0.0005607101 0.06069736 0.0077563757 -0.018295452 0.06343906 -0.022228068 0.057277057 -0.024860239
-0.016764563 0.022569217 0.057626333 0.04396186 -0.047084216 0.004309204 0.031484287 0.045618754
-0.011408644 0.012158906 0.008873602 -0.05397511 0.031417754 0.022268603 0.04133482 0.0007260406
0.0135837225 0.04719737 0.0015161713 0.0055116466 -0.007862543 -0.05761985 0.0069034696 -0.035496794
0.06342576 0.018477447 -0.053508203 -0.010044199 0.015540307 -0.05023491 -0.036345594 -0.00097606063
0.03736811 -0.011928976 -0.008023376 0.051759027 0.04242398 -0.025487835 0.016598659 -0.049897615
0.051009573 -0.014583382 -0.0053650364 -0.026742503 0.033388205 -0.025830599 0.06318283 0.0583186
0.010376361 0.037298433 0.036091253 -0.012658434 -0.038445354 -0.052263934 0.0074827513 -0.05212698
-0.03322613 -0.005258407 -0.0036873962 0.023014447 -0.016469046 0.045902893 0.039828267 0.029784612
-0.05323905 0.0014742446 0.065530546 0.022345126 -0.024726324 -0.0316661 0.0071141697 0.025014468
0.055968948 0.05854245 0.062179636 -0.007116548 -0.039067682 -0.0006966253 -0.010532703 0.037341468
-0.036345817 -0.003789659 -0.046497636 0.037672598 -0.040430542 -0.021015612 0.054323122 0.008160151
-0.011833262 -0.0073437216 -0.023021594 -0.0015811815 0.045137223 -0.021790314 0.046561934 0.033568427
0.05003149 -0.0018061467 0.03942868 -0.03206359 0.019682888 0.048016503 0.0057409387 0.017642876
0.04672207 0.044366967 0.028460095 -0.04749383 0.012053255 0.021603389 0.027838022 0.05313078
-0.016361462 0.017046772 -0.055349883 -0.058870994 -0.047077246 -0.0074760932 0.0133271525 0.033207975
-0.024854435 -0.029596472 -0.05032734 0.022580937 -0.053855505 0.037946407 -0.039212205 0.03969922
-0.044490766 0.059178364 -0.03140597 0.042135425 -0.06220899 0.045505837 0.042986922 -0.022839008
-0.025745224 0.038472038 -0.011357023 0.04359419 0.0056200544 -0.015940309 0.030262312 0.04052005
0.033998217 -0.022509836 -0.03820724 0.022612328 -0.00014535684 -0.04897126 0.023557438 0.06727451
0.021087408 0.01655784 0.0095241675 -0.0006821053 0.05012781 0.054505806 0.06844017 -0.018032374
-0.0069619063 -0.031661272 0.03768777 -0.03477225 -0.016350906 -0.012835034 -0.0032618267 0.05010103
0.05940461 0.016978452 -0.0072462377 -0.02915234 0.011694907 -0.045721505 0.025298325 -0.001663447
0.012284795 -0.05279636 -0.052568205 -0.028798394 -0.041185733 0.046291236 -0.03174834 -0.020097503
0.06136538 -0.009732395 -0.033267412 0.033892132 -0.022298433 -0.040825095 0.059717815 -0.04573544
-0.009951619 -0.05661815 0.005995048 0.06425614 0.052430443 -0.026122851 0.027745303 0.0007522497
0.054567266 -0.04242391 0.02747809 0.014387728 0.029431587 0.051158372 -0.026526392 0.03858473
0.03482217 0.048090503 0.06560002 0.047870312 0.045748256 0.008004335 -0.055963706 0.05611028
0.054781795 -0.027821453 -0.038249224 0.025716906 -0.032466818 0.07020873 0.061332826 0.018549897
00000000: e1e5 823d d478 c2bc 249c 0a3b 67ed 653c
00000010: 3ebf eebc 2fc9 f8bc e0ab 383b cc22 39bc
00000020: b310 583d e7b0 753c ae59 1abd f067 43bd
00000030: aa9e f2bc 61c6 b7bb dc6a 883d 92bc 17bd
00000040: 6a47 043d 4bcc 0c3d a183 56bc 28c8 0c3c
00000050: 84a7 8f3c 7994 b8bc c7a8 9cbc f53b 453c
00000060: 9efc 12ba cc9d 783d 3229 fe3b 58e0 95bc
00000070: 56ec 813d a317 b6bc 599b 6a3d b3a7 cbbc
00000080: d655 89bc 14e3 b83c 9709 6c3d 5a11 343d
00000090: 61db 40bd 3934 8d3b abf5 003d bbda 3a3d
000000a0: 52eb 3abc 2636 473c 9662 113c 0115 5dbd
000000b0: e7af 003d a56c b63c b34e 293d c353 3e3a
000000c0: 438e 5e3c 0852 413d 44ba c63a 0b9b b43b
000000d0: e5d1 00bc cb02 6cbd 8036 e23b 1665 11bd
000000e0: 5de5 813d 045e 973c 6b2b 5bbd 6d90 24bc
000000f0: c69c 7e3c 1fc3 4dbd 1edf 14bd 52de 7fba
00000100: 4e0f 193d c071 43bc 7a74 03bc 4601 543d
00000110: c4c4 2d3d ddcb d0bc e9f9 873c 7161 4cbd
00000120: 6aef 503d 23ef 6ebc 30cd afbb 1813 dbbc
00000130: 12c2 083d b19a d3bc 0066 813d 7cdf 6e3d
00000140: 9d01 2a3c 3ec6 183d 6cd4 133d 5265 4fbc
00000150: e078 1dbd b512 56bd de31 f53b 1a83 55bd
00000160: 1f18 08bd b74e acbb 3ea8 71bb cb88 bc3c
00000170: 18ea 86bc ac04 3c3d f722 233d dcfe f33c
00000180: 3111 5abd 713b c13a e134 863d 200d b73c
00000190: dc8e cabc 50b4 01bd fb1d e93b 24eb cc3c
000001a0: b23f 653d 35ca 6f3d 13b0 7e3d ee31 e9bb
000001b0: 6f05 20bd bc9d 36ba 5c91 2cbc 5ef3 183d
000001c0: 5adf 14bd ed5b 78bb 4e74 3ebd 954e 1a3d
000001d0: 7f9a 25bd ef28 acbc ec81 5e3d 27b2 053c
000001e0: 4ce0 41bc 9aa3 f0bb c897 bcbc a63f cfba
000001f0: cfe1 383d 9a81 b2bc bab7 3e3d 0c7f 093d
00000200: d2ed 4c3d 3abc ecba f87f 213d 1c55 03bd
00000210: 023e a13c f4ac 443d 7c1e bc3b cb87 903c
00000220: a45f 3f3d 23ba 353d 2525 e93c e488 42bd
00000230: 047b 453c 97f9 b03c 900c e43c a99f 593d
00000240: 7908 86bc aca5 8b3c 8fb6 62bd b622 71bd
00000250: 12d4 40bd 04fa f4bb 215a 5a3c 1605 083d
00000260: 879b cbbc 4d74 f2bc 0a24 4ebd a8fb b83c
00000270: 9797 5cbd b16d 1b3d fa9c 20bd a69b 223d
00000280: f33b 36bd 0365 723d 8ca3 00bd 3296 2c3d
00000290: dbce 7ebd 5464 3a3d 0e13 303d df18 bbbc
000002a0: a6e7 d2bc db94 1d3d cf12 3abc d28f 323d
000002b0: 6f28 b83b 4095 82bc abe8 f73c 5af8 253d
000002c0: b741 0b3d 8c66 b8bc 327f 1cbd 7d3d b93c
000002d0: ee6a 18b9 1796 48bd 87fb c03c 38c7 893d
000002e0: 80bf ac3c 4fa4 873c 410b 1c3c 50cf 32ba
000002f0: d252 4d3d 7b41 5f3d 5c2a 8c3d a1b8 93bc
00000300: b420 e4bb 40af 01bd 7e5e 1a3d 596d 0ebd
00000310: 56f2 85bc 094a 52bc 5fc4 55bb bd36 4d3d
00000320: 4052 733d 6516 8b3c d971 edbb e3d0 eebc
00000330: ff9b 3f3c 7946 3bbd 6f3e cf3c 0508 daba
00000340: 2a46 493c ff40 58bd c251 57bd 9cea ebbc
00000350: 5fb2 28bd e19b 3d3d 8c0a 02bd 85a3 a4bc
00000360: 445a 7b3d a074 1fbc 6943 08bd 7ad2 0a3d
00000370: 34ab b6bc 3738 27bd ab9a 743d 1655 3bbd
00000380: 1e0c 23bc 6fe8 67bd 1c72 c43b b998 833d
00000390: 4ec1 563d 97ff d5bc 1e4a e33c 9f32 453a
000003a0: ed81 5f3d b2c4 2dbd bb19 e13c 81ba 6b3c
000003b0: 831a f13c 718b 513d e04d d9bc 060b 1e3d
000003c0: b1a1 0e3d 8cfa 443d 4e59 863d a913 443d
000003d0: 8662 3b3d 9d24 033c 333a 65bd e5d3 653d
000003e0: e062 603d d1e9 e3bc 38ab 1cbd 43ac d23c
000003f0: edfb 04bd 98c9 8f3d 2138 7b3d f4f5 973c

linear_2.bias f4 [64]
0.05866616 -0.056937322 -0.023656303 0.028955294 -0.022210065 -0.04493773 0.07015484 0.032220166
-0.02619961 -0.04166642 0.059672605 0.053101845 -0.002278836 -0.01944504 0.02239705 0.036810517
-0.011496111 -0.034971654 0.04178851 0.058901183 -0.041304324 -0.010130443 0.02996386 -0.018815743
0.026756933 -0.04461503 0.058688566 -0.008500211 -0.038218413 -0.04541953 0.055512317 -0.022902224
-0.01230828 0.009430621 -0.009157854 -0.055589575 -0.015673522 -0.017431129 -0.028432593 -0.05597768
0.052803386 0.05032365 -0.062374547 -0.02523686 0.010472812 -0.045002803 -0.031078774 0.032266513
-0.044665262 -0.035676003 0.057728387 -0.02455078 -0.038023703 0.07014725 -0.017908506 -0.048185952
0.046895094 0.0648353 -0.042048104 0.01701443 0.040815275 0.03873979 0.0116602555 0.025195947
00000000: ed4b 703d 1c37 69bd ddca c1bc a733 ed3c
00000010: e2f1 b5bc a010 38bd 57ad 8f3d 4bf9 033d
00000020: 91a0 d6bc 68aa 2abd 436b 743d 5281 593d
00000030: 8658 15bb 344b 9fbc 057a b73c a0c6 163d
00000040: 2f5a 3cbc 703e 0fbd 6e2a 2b3d 5e42 713d
00000050: b92e 29bd 28fa 25bc c576 f53c 7923 9abc
00000060: 5b31 db3c 40be 36bd 6c63 703d 7844 0bbc
00000070: e98a 1cbd d409 3abd e260 633d 729d bbbc
00000080: aba8 49bc e482 1a3c d30a 16bc e5b1 63bd
00000090: c265 80bc bacb 8ebc 78eb e8bc da48 65bd
000000a0: 5d48 583d 2c20 4e3d 747c 7fbd 88bd cebc
000000b0: 2896 2b3c dc54 38bd ea98 febc e429 043d
000000c0: ecf2 36bd 0021 12bd 9a74 6c3d b81e c9bc
000000d0: bebe 1bbd 5da9 8f3d dcb4 92bc a25e 45bd
000000e0: 1215 403d 5fc8 843d a23a 2cbd d961 8b3c
000000f0: eb2d 273d 9dad 1e3d a80a 3f3c bb67 ce3c

linear_3.weight f4 [1, 64]
0.11395359 -0.08710727 -0.016528407 -0.0652552 0.058002666 0.067014426 0.11390044 -0.019882875
-0.030118791 0.040089507 0.10074283 0.07027961 -0.030530289 0.03379712 0.031292584 -0.09275846
0.056658197 0.12083657 0.12991135 0.12552589 -0.099529736 -0.07088907 0.0754706 0.1074698
0.03490184 0.014880302 0.05036965 0.08156994 0.065682866 0.077143416 0.109749235 -0.06539358
0.028637096 -0.05323512 0.05591846 -0.056477077 0.091351755 0.043456268 -0.056122 -0.11683242
0.03898258 0.123654135 -0.11087021 0.00988469 0.030661816 0.046050195 -0.101937495 -0.063858435
-0.08802553 0.017066067 0.010241003 -0.025655141 0.11461715 0.0974479 0.0957489 -0.0075708926
-0.036436036 0.012993517 0.08916644 0.12184398 -0.11544943 -0.086117685 -0.08890307 -0.05203412
00000000: 8060 e93d 4c65 b2bd 9566 87bc 85a4 85bd
00000010: 3494 6d3d dc3e 893d a244 e93d 69e1 a2bc
00000020: afbb f6bc e534 243d 4252 ce3d c2ee 8f3d
00000030: a81a fabc d96e 0a3d a72c 003d 26f8 bdbd
00000040: 6d12 683d 2a79 f73d 7b07 053e dc89 003e
00000050: 3fd6 cbbd 4a2e 91bd 5490 9a3d 2019 dc3d
00000060: 3bf5 0e3d 83cc 733c 6850 4e3d 240e a73d
00000070: bd84 863d 5efd 9d3d 35c4 e03d 12ed 85bd
00000080: 5898 ea3c 120d 5abd c10a 653d 8254 67bd
00000090: a116 bb3d 33ff 313d 2fe0 65bd d645 efbd
000000a0: 33ac 1f3d 613e fd3d ec0f e3bd 65f3 213c
000000b0: 7d2e fb3c 219f 3c3d 9bc4 d0bd 36c8 82bd
000000c0: bb46 b4bd 23ce 8b3c e1c9 273c bb2a d2bc
000000d0: 65bc ea3d c492 c73d 0018 c43d 4015 f8bb
000000e0: f43d 15bd c3e2 543c e59c b63d 5689 f93d
000000f0: c070 ecbd 785e b0bd d012 b6bd bb21 55bd
