ndp/weights/finetune-2.pt (torch, 3951 bytes, 5 tensors)

linear_1.weight f4 [16, 8]
0	0x3dd0689d	0.101762034
1	0xbd9f3516	-0.07773797
2	0xbdf55e75	-0.11980907
3	0xbb9230ff	-0.004461407
4	0xbe6877f1	-0.22702004
5	0xbe907bc9	-0.2821944
6	0xbe7dc7ff	-0.24783324
7	0xbe110cc8	-0.14165032
8	0xbe5dbd42	-0.21654227
9	0x3ea8576c	0.32879198
10	0x3e6bd1c1	0.23029234
11	0xbd9c01e6	-0.076175496
12	0x3e4cc3cd	0.19996567
13	0x3ec2d4ac	0.3805288
14	0x3d0ee5b4	0.03488703
15	0x3e279764	0.16366345
16	0xbe505f33	-0.20348816
17	0xbd7a121c	-0.061052427
18	0x3d98cb42	0.07460643
19	0xbdc1a045	-0.09454397
20	0x3e87a4e0	0.26492977
21	0x3e794ced	0.24345751
22	0x3e28ab95	0.16471703
23	0x3cbf1673	0.023326134
24	0x3e35427b	0.17701142
25	0x3e0a420f	0.13501762
26	0xbcfd6682	-0.030932669
27	0x3ca2b13b	0.0198599
28	0xbc34dfae	-0.0110396575
29	0xbe51abeb	-0.20475738
30	0xbe7790fa	-0.24176398
31	0xbe21b338	-0.15791023
32	0x3eb29ed3	0.34886798
33	0xbdcbfd4d	-0.09960423
34	0x3e832a80	0.25618362
35	0xbd453d47	-0.04815414
36	0xbe51a061	-0.20471336
37	0x3d994480	0.074837685
38	0xbd07a665	-0.03311767
39	0xbce46f18	-0.027885005
40	0xbe4423a4	-0.19154221
41	0x3dff6a4e	0.12471448
42	0xbd6fd744	-0.058554903
43	0xbc709117	-0.01468303
44	0xbe81d289	-0.25355938
45	0x3e085d2c	0.13316792
46	0x3edc8329	0.43068817
47	0x3d7ff2ad	0.062487293
48	0xbd260579	-0.040532563
49	0xbd1f0820	-0.038826108
50	0xbe9b2f1b	-0.30309376
51	0x3de13f0b	0.109983526
52	0xbda170c8	-0.078828394
53	0x3eb15ae0	0.34639645
54	0xbe7fa2fa	-0.24964514
55	0xbdbe74e1	-0.09299637
56	0x3e74e85c	0.23916763
57	0x3e4d78b4	0.20065576
58	0xbd2f6d85	-0.042829055
59	0xbd92ac52	-0.07161774
60	0xbe87418f	-0.26417205
61	0x3dcb291d	0.09919951
62	0xbd6bba6b	-0.05755083
63	0x3e8b4213	0.27198848
64	0x3e0c5e5d	0.13707872
65	0x3e252658	0.16127908
66	0x3e415c51	0.18882872
67	0xbd345aec	-0.044032022
68	0xbe8ef8c8	-0.2792418
69	0xbc874439	-0.016512023
70	0xbdba8db8	-0.09109062
71	0xbd1b0be8	-0.03785315
72	0x3e957f1c	0.2919854
73	0x3d5e3a43	0.05425478
74	0xbe058303	-0.13038258
75	0x3e342797	0.17593227
76	0xbcc67f25	-0.02423055
77	0xbd82b967	-0.06383019
78	0xbebcbf8b	-0.36864886
79	0x3dd6ae76	0.104824945
80	0xbdb876ba	-0.0900702
81	0x3e986a96	0.2976882
82	0xbe1055da	-0.1409525
83	0x3eeddfd0	0.46459818
84	0x3eb7dcdd	0.35910693
85	0x3db3aec5	0.08773569
86	0x3d999f8e	0.07501136
87	0x3e87870a	0.26470214
88	0x3e559d6e	0.20860836
89	0x3e9d4c91	0.30722478
90	0xbec74b5d	-0.38924685
91	0xbe2acea4	-0.1668039
92	0x3c78087a	0.01513874
93	0xbe6dc6f8	-0.23220432
94	0x3e363a81	0.17795755
95	0xbeaf7a54	-0.34273016
96	0x3eb483f2	0.35256916
97	0xbd94b387	-0.072608046
98	0x3eadea62	0.33967882
99	0xbce7a4d1	-0.028276833
100	0x3e86a212	0.26295525
101	0xbc7af944	-0.015318219
102	0xbde92b2a	-0.11385186
103	0x3dd5c170	0.10437286
104	0x3e526e66	0.20549926
105	0x3dc37191	0.095431454
106	0x3ebb0341	0.3652592
107	0xbe56fa34	-0.20993882
108	0x3ebaff45	0.3652288
109	0x3ebe183c	0.37127864
110	0xbdddde79	-0.10833449
111	0xbd5fa7e1	-0.05460346
112	0xbe88ed87	-0.2674372
113	0x3e120526	0.14259776
114	0x3e4fec1f	0.20304917
115	0x3ebabd05	0.36472335
116	0x3dbd99a3	0.092578195
117	0xbe888f5e	-0.2667188
118	0x3c168a45	0.009188239
119	0x3eb62cfc	0.35581195
120	0x3e4d4355	0.20045216
121	0x3e227f31	0.15868832
122	0xbe414709	-0.18874754
123	0x3e4a5508	0.19759
124	0xbd6f2453	-0.05838425
125	0xbdc41b44	-0.09575513
126	0x3eb46081	0.35229877
127	0x3d376207	0.04477122

linear_1.bias f4 [16]
0	0x3d9717f6	0.07377617
1	0xbe418888	-0.18899739
2	0x3eb76e49	0.35826328
3	0xbe46864c	-0.19387168
4	0x3e050f2a	0.12994066
5	0xbdc02d39	-0.093836255
6	0xbeab6f65	-0.33483425
7	0xbd99bc53	-0.07506623
8	0xbe992d03	-0.29917154
9	0x3e8b32cf	0.271872
10	0x3ec63bf4	0.38717616
11	0x3e86e4fb	0.26346573
12	0xbdddf5a8	-0.10837871
13	0xbe250245	-0.16114147
14	0x3ed10ba2	0.40829188
15	0x3eaaa218	0.33326793

linear_2.weight f4 [16, 16]
0	0xbdd43cfe	-0.10363196
1	0xbe75edf6	-0.24016556
2	0xbe71ac5b	-0.23600905
3	0x3ca49984	0.020092733
4	0x3c46232e	0.012093348
5	0x3d88bce4	0.06676653
6	0x3dcf99a0	0.101367235
7	0x3d2b5c34	0.04183598
8	0x3e0f829f	0.14014672
9	0xbda9ceba	-0.08291383
10	0xbd6dfa8b	-0.058100265
11	0x3e41bc03	0.18919377
12	0x3df41f96	0.11920087
13	0xbe3cf7a4	-0.18453842
14	0xbba1bd6c	-0.004935911
15	0xbd58c671	-0.052923623
16	0x3dc222b8	0.09479278
17	0xbd820783	-0.06349089
18	0xbb43262c	-0.002977739
19	0x3c573420	0.013134986
20	0xbe991faa	-0.2990697
21	0x3e072f2e	0.13201591
22	0xbe339156	-0.1753591
23	0x3d8b85c7	0.068126254
24	0x3e257d5e	0.16161105
25	0xbdfc368b	-0.12315091
26	0x3cb9fef3	0.022704577
27	0xbde2f7bf	-0.1108241
28	0xbe14dc87	-0.1453725
29	0x3e2c70c9	0.16839899
30	0xbdbd7690	-0.092511296
31	0x3d8ec6cb	0.069715105
32	0x3e10bd1f	0.14134644
33	0xbe24f3b3	-0.16108589
34	0xbd922cde	-0.07137464
35	0xbe251b79	-0.16123761
36	0x3e7512df	0.2393298
37	0x3da8a302	0.08234216
38	0xbe62cc64	-0.22148281
39	0x3ccd64f7	0.025072558
40	0x3bf243d6	0.0073933406
41	0x3de3c4d0	0.111215234
42	0x3e8d37ed	0.2758173
43	0xbe2b88b2	-0.16751364
44	0x3e999fde	0.3000478
45	0xbc241e8a	-0.010017047
46	0x3d10780c	0.035270736
47	0x3ce79321	0.028268399
48	0xbe4c8243	-0.19971566
49	0x3ba2fcfa	0.004974005
50	0x3e1c7fd5	0.15283139
51	0x3c5458ee	0.012960656
52	0x3e629967	0.22128831
53	0x3e898a3f	0.26863286
54	0xbdc5ebf8	-0.09664148
55	0x3e2513b9	0.16120805
56	0xbd0be862	-0.034157164
57	0x3e8b4b33	0.2720581
58	0xbd1a46c4	-0.037665144
59	0xbd7cafa2	-0.061690934
60	0x3e98182e	0.29705948
61	0x3dd328df	0.1031053
62	0xbca1faff	-0.019773005
63	0x3e0f8c2e	0.14018318
64	0x3e03262e	0.12807533
65	0xbd8509d8	-0.06496018
66	0x3de88eb1	0.11355341
67	0x3e25f956	0.16208395
68	0x3d9410d3	0.072297715
69	0x3d98c8b6	0.074601576
70	0xbcb8b670	-0.02254793
71	0x3e24191d	0.16025205
72	0x3cb8dd59	0.022566484
73	0xbdc9d6b2	-0.09855403
74	0xbce3a127	-0.027786804
75	0xbd8c576e	-0.068526134
76	0x3e244a83	0.16044049
77	0x3e1b5f29	0.1517302
78	0xbda77575	-0.081767
79	0x3e63e194	0.2225402
80	0x3e2dbe6d	0.16967173
81	0xbdd42f6f	-0.1036061
82	0x3e9d6711	0.30742696
83	0x3e00db19	0.12583579
84	0x3e80127e	0.25014108
85	0x3ec443a1	0.38332847
86	0xbcac1dd4	-0.021010317
87	0x3c7b3ef4	0.015334833
88	0xbe324ed0	-0.17412877
89	0xbdc969f8	-0.09834665
90	0x3c48ce31	0.012256191
91	0x3e7d9d83	0.24767117
92	0x3c910d12	0.017706428
93	0x3e6688a2	0.22513059
94	0x3e308288	0.17237294
95	0xbd332e1a	-0.043745138
96	0xbc5b2364	-0.013375137
97	0x3e82881d	0.2549447
98	0x3e8e9cb3	0.27853927
99	0xbe33fedf	-0.17577694
100	0xbd8dd957	-0.0692622
101	0xbdad70d4	-0.08468786
102	0x3df72d88	0.12069231
103	0x3e80422b	0.25050482
104	0x3e079c18	0.13243139
105	0x3e083d8d	0.1330473
106	0x3e14f11b	0.145451
107	0x3e144d1d	0.14482541
108	0x3e8f76ab	0.28020224
109	0x3dc3c956	0.09559886
110	0xbd829715	-0.06376473
111	0x3e9e071a	0.30864793
112	0x3da4cc9c	0.08046839
113	0x3e866293	0.2624708
114	0x3e98df07	0.29857656
115	0x3e5ff131	0.21869351
116	0xbdf085c9	-0.117442675
117	0x3ddbeaeb	0.107381664
118	0x3d7a6f4d	0.0611413
119	0xbdb3bbde	-0.08776067
120	0x3e146f5e	0.14495608
121	0xbe0db4b5	-0.13838466
122	0x3e160f95	0.14654382
123	0x3e36cdb7	0.17851911
124	0x3e0ab9ef	0.1354749
125	0x3e838044	0.25683796
126	0x3cf5cd4f	0.030005125
127	0x3e77012f	0.24121545
128	0x3df50bd1	0.119651444
129	0xbd362006	-0.044464134
130	0xbd332afc	-0.043742165
131	0x3cc3fd9d	0.023924643
132	0x3e6801c7	0.22656928
133	0x3ece1f23	0.4025813
134	0x3e091339	0.13386239
135	0x3e48778c	0.19576854
136	0x3d6942d8	0.056948513
137	0xbdf1c40c	-0.11804971
138	0x3e059164	0.13043743
139	0xbce1e0a6	-0.027572941
140	0xbb9c1aa6	-0.004763919
141	0xbd2a0ca3	-0.041515958
142	0x3e236f92	0.1596053
143	0x3dd98a16	0.10622041
144	0xbde6b8e7	-0.11265736
145	0xbe9dfe59	-0.30858114
146	0x3d4fe0f9	0.05075166
147	0x3e155f50	0.1458714
148	0xbe6dce12	-0.23223141
149	0x3dedba41	0.11607791
150	0xbe25f98b	-0.16208474
151	0xbe50b280	-0.20380592
152	0x3e126596	0.14296564
153	0x3e356e3f	0.17717837
154	0x3de8b714	0.113630444
155	0xbcbd15eb	-0.02308174
156	0x3c447768	0.011991359
157	0xbe87ff6a	-0.26562053
158	0xbe6878f3	-0.22702388
159	0xbe23b548	-0.15987122
160	0x3e0b2a4e	0.13590357
161	0x3d795546	0.06087234
162	0xbdbc66d1	-0.09199298
163	0x3da2e4ac	0.07953772
164	0xbd097e6c	-0.03356783
165	0xbddf27b3	-0.10896244
166	0xbe60adc2	-0.21941283
167	0x3e0994b5	0.13435633
168	0xbe7eb459	-0.24873485
169	0xbe3406cc	-0.17580718
170	0x3a16aebe	0.00057480845
171	0x3e542566	0.20717391
172	0x3c36d670	0.011159524
173	0x3e4a2ed6	0.19744429
174	0xbe2fdc80	-0.17173958
175	0xbe459392	-0.19294575
176	0x3e71afe0	0.23602247
177	0xbd808bac	-0.0627664
178	0x3dc93165	0.098238744
179	0xbe0f18a4	-0.13974243
180	0xbd1d63a6	-0.03842511
181	0x3dc1703f	0.09445237
182	0x3d99143d	0.07474563
183	0xbc891dd5	-0.016737858
184	0x3de6f567	0.112772755
185	0x3e932249	0.28737095
186	0x3e602f97	0.21893154
187	0xbd151d79	-0.03640506
188	0x3e307006	0.17230234
189	0xbd8e40c3	-0.06945946
190	0x3e95b99c	0.2924317
191	0x3c0cb967	0.008589125
192	0x3bba67fe	0.0056886664
193	0xbe20c35d	-0.15699525
194	0xbc0f76a9	-0.008756318
195	0x3d29bf5c	0.04144226
196	0x3e26020b	0.16211717
197	0x3e890cb9	0.2676752
198	0xbe554dc5	-0.20830448
199	0xbc6ebf89	-0.014572033
200	0x3e6fa120	0.23401308
201	0xbe15b420	-0.14619493
202	0x3e4d5fbe	0.20056054
203	0x3e03f863	0.12887721
204	0x3de97c5a	0.11400671
205	0x3e8251d3	0.25453052
206	0x3e95e253	0.29274234
207	0x3e047c52	0.1293805
208	0x3da9db4b	0.0829378
209	0x3d143d95	0.03619154
210	0x3d3be8bb	0.045876246
211	0x3e321f61	0.17394783
212	0xbd73f8d3	-0.05956347
213	0x3e849657	0.2589595
214	0x3dbd954c	0.09256992
215	0x3e6c272d	0.2306182
216	0xbdd69d30	-0.104792
217	0x3cc6a474	0.02424834
218	0x3d7862ee	0.06064122
219	0xbc9855b5	-0.018595556
220	0x3dd9d3d2	0.10636105
221	0x3dca4859	0.098770805
222	0x3e573620	0.21016741
223	0x3d9357ed	0.07194505
224	0x3dd4c2b8	0.10388702
225	0xbe56b0ff	-0.20965956
226	0x3e3e1fcc	0.18566817
227	0xbe53e154	-0.20691425
228	0xbdeead34	-0.116541296
229	0x3c82d3a0	0.015970051
230	0x3d10bfc0	0.035339117
231	0x3e5c3354	0.21503955
232	0xbe2636b4	-0.16231805
233	0xbe088795	-0.1333297
234	0xbd80d13f	-0.062899105
235	0xbe537d2b	-0.20653217
236	0xbe662ea1	-0.22478725
237	0xbe16e047	-0.14733993
238	0xbe3f1e5c	-0.18663925
239	0xbe6ff1dc	-0.23432106
240	0x3e3b9502	0.1831856
241	0xbe519920	-0.20468569
242	0x3e191dfd	0.14952846
243	0xbddb6aad	-0.10713706
244	0x3e0c3c12	0.1369479
245	0xbe229d96	-0.15880427
246	0x3d809f60	0.06280398
247	0x3d774dee	0.060377054
248	0x3e75ae23	0.23992209
249	0x3d5ca91d	0.053872216
250	0xbe074076	-0.13208184
251	0x3e2fc342	0.17164329
252	0x3d1c0aff	0.038096424
253	0xbdb7c8d5	-0.089738525
254	0x3d8ee6e8	0.069776356
255	0x3e107612	0.1410754

linear_2.bias f4 [16]
0	0x3de307d9	0.11085481
1	0xbc1dc521	-0.009629519
2	0x3d528c69	0.051403437
3	0x3dd415d7	0.10355728
4	0x3e6dc2e0	0.2321887
5	0x3dc3087e	0.09523104
6	0xbdf1637b	-0.117865525
7	0x3e807fd5	0.25097528
8	0x3dfe29cf	0.12410318
9	0x3e383a73	0.17991047
10	0x3d431070	0.047623098
11	0xbe325745	-0.17416103
12	0xbd610a0d	-0.054941226
13	0x3e50aa39	0.20377435
14	0x3e07d510	0.1326487
15	0xbddbd674	-0.10734263

linear_3.weight f4 [1, 16]
0	0x3b8125ba	0.003941265
1	0xbdc88bbf	-0.097922795
2	0x3e737db7	0.23778425
3	0x3e6caba2	0.23112348
4	0x3df2977a	0.11845298
5	0x3ea57771	0.3231769
6	0x3e982a03	0.29719552
7	0x3e39e145	0.1815234
8	0x3e615635	0.22005542
9	0xbe39751b	-0.18111078
10	0xbe3c9b93	-0.18418722
11	0x3e36ebad	0.1786334
12	0x3e49afb2	0.19695929
13	0x3e1befbe	0.15228173
14	0xbc21a4b6	-0.00986593
15	0xbdbfcee0	-0.0936563
