ndp/weights/finetune-4.pt (torch, 27311 bytes, 5 tensors)

linear_1.weight f4 [64, 64]
0.10754856 -0.053240065 0.14647527 0.1015581 -0.03476106 -0.04557759 -0.0008595867 -0.09138462
0.060765166 0.14540286 0.113624066 -0.059064876 0.11638163 0.12988962 -0.017145177 0.062876455
0.057716854 0.06332959 -0.0756178 0.070017666 -0.011829916 -0.0019434054 -0.010589602 0.14513098
0.0029710894 0.08060457 -0.052555952 0.01011905 0.12414158 0.066814154 -0.06389321 -0.08377003
0.08263415 -0.0052685463 0.12529421 -0.076696314 -0.018185293 0.0053880466 0.07203644 0.014422788
0.05526758 -0.072865605 0.03251756 0.13542016 0.067834534 0.028424228 -0.070163615 -0.083287895
0.08154979 0.0026349155 0.14071263 0.09314556 0.054276135 0.05551641 -0.05253962 0.14739923
0.10946456 0.015191956 -0.016721215 -0.07800728 -0.012709575 -0.03249717 0.06606507 0.07500413
0.057733923 0.00041580488 0.10090154 -0.08335988 -0.075878665 -0.07535721 0.11414083 -0.011323836
0.14377427 0.09382543 0.020796554 0.04225998 -0.04026453 0.08889828 -0.0067754705 0.019997718
-0.08766097 -0.0827233 0.039723013 -0.03314794 0.039123934 -0.09406448 0.12851188 0.10748251
-0.01159549 -0.040713977 -0.019360835 -0.056296248 0.024562582 0.038049653 0.006739404 -0.037387777
-0.03780713 -0.046342686 0.12852795 0.11237122 -0.058261886 0.1582436 -0.060655605 0.101245366
0.08823546 0.10529136 -0.040891685 0.12419569 -0.08728965 0.054694686 0.07425731 -0.076292254
-0.06761239 -0.08958074 -0.034201257 0.045659266 -0.01550459 0.005226686 0.05898856 0.14270516
0.050286926 -0.038083304 -0.04153147 -0.047106918 -0.087434955 0.04559994 0.14666848 0.11617829
-0.06445518 -0.0037190786 0.12129066 -0.01775235 -0.04400286 0.078753814 -0.04515639 0.022415102
0.024624098 -0.011051293 0.046039544 -0.0057551637 -0.05023672 -0.01912113 0.10808633 0.12699193
-0.023783153 -0.093640916 0.08627885 -0.09278148 0.10708892 0.1024011 -0.012913752 -0.10330184
0.06221816 0.13335209 0.054516226 0.013261012 0.13101086 0.038412288 0.15047245 0.10592067
-0.077232815 -0.06917804 -0.06765262 0.0045297905 0.1409639 0.14855973 0.009143053 0.056429576
-0.05183165 -0.0042552324 -0.0889999 -0.020991476 -0.071496494 -0.078642756 -0.08558409 0.075929314
-0.014437951 0.14785747 0.10056358 -0.018504318 0.12667295 0.09683282 0.013455614 0.067827746
0.09003047 -0.049091082 -0.08642035 -0.027018165 0.12426992 0.05898949 0.07465249 0.12934233
0.03653702 0.019553734 0.07703411 -0.037764978 0.14952092 -0.00938424 -0.1033539 0.029220663
0.006384512 0.010808468 -0.07200881 0.07870784 -0.008799773 0.051440742 0.07027833 0.05189364
0.1040361 0.0843608 0.109589204 0.114963695 -0.01742268 -0.073672794 0.12767449 -0.0244736
0.115736514 0.10357482 -0.036630653 0.06585582 -0.086881064 0.09642455 0.112462275 -0.06880975
0.05890308 0.113992736 0.04560923 -0.08883529 0.090892024 -0.08739755 -0.029305456 0.06932733
0.038383033 0.00015990948 -0.0044223024 0.11382208 0.070146225 0.11672784 0.00072307803 0.078759074
-0.022575354 0.1155324 -0.10076973 0.12742314 0.09790511 -0.028269976 0.13088663 0.10803376
-0.039861035 0.103462525 0.10836947 -0.07917888 0.10528162 -0.07346977 -0.08608559 0.034638155
00000000: 6b42 dc3d 4112 5abd 9dfd 153e b1fd cf3d
00000010: 9d61 0ebd 91af 3abd e355 61ba dc27 bbbd
00000020: e5e4 783d 7de4 143e bcb3 e83d 03ee 71bd
00000030: 7e59 ee3d c901 053e 0b74 8cbc 5fc5 803d
00000040: 8268 6c3d f2b2 813d 81dd 9abd 6c65 8f3d
00000050: 44d2 41bc ddb9 feba 0380 2dbc 379d 143e
00000060: 9cb6 423b 0214 a53d e944 57bd 5fca 253c
00000070: f13d fe3d dcd5 883d 71da 82bd 9f8f abbd
00000080: 183c a93d c5a3 acbb 204d 003e f512 9dbd
00000090: 53f9 94bc 368e b03b d787 933d 8f4d 6c3c
000000a0: 4260 623d 903a 95bd 2231 053d 95ab 0a3e
000000b0: d5ec 8a3d edd9 e83c f1b1 8fbd d892 aabd
000000c0: 9403 a73d 8cae 2c3b f916 103e 19c3 be3d
000000d0: a750 5e3d 2d65 633d c933 57bd d3ef 163e
000000e0: f52e e03d afe7 783c eefa 88bc 48c2 9fbd
000000f0: d23b 50bc c11b 05bd 204d 873d c49b 993d
00000100: 687a 6c3d 6300 da39 77a5 ce3d 96b8 aabd
00000110: 4666 9bbd e254 9abd abc2 e93d 9c87 39bc
00000120: 9039 133e 8c27 c03d 895d aa3c cd18 2d3d
00000130: 6bec 24bd 4d10 b63d c404 debb 41d2 a33c
00000140: 9887 b3bd d56a a9bd 99b4 223d 22c6 07bd
00000150: 6b40 203d e1a4 c0bd 9e98 033e ca1f dc3d
00000160: 03fb 3dbc b3c3 26bd 9d9a 9ebc e596 66bd
00000170: 7837 c93c f4d9 1b3d 38d6 dc3b ed23 19bd
00000180: a6db 1abd d4d1 3dbd d59c 033e e222 e63d
00000190: 04a4 6ebd 9c0a 223e 0372 78bd bb59 cf3d
000001a0: cbb4 b43d ffa2 d73d 0a7e 27bd 4f5a fe3d
000001b0: ebc4 b2bd 8907 603d 3714 983d 1d3f 9cbd
000001c0: 5d78 8abd 1b76 b7bd 9e16 0cbd 3605 3b3d
000001d0: f706 7ebc 9f44 ab3b fd9d 713d 4d21 123e
000001e0: aaf9 4d3d 3dfd 1bbd e71c 2abd 2ff3 40bd
000001f0: 1911 b3bd 01c7 3a3d 4330 163e e2ee ed3d
00000200: 1401 84bd c9bb 73bb 3d67 f83d 606d 91bc
00000210: 583c 34bd ae49 a13d e8f5 38bd e09f b73c
00000220: 7ab8 c93c 7c10 35bc f693 3c3d d095 bcbb
00000230: 05c5 4dbd eba3 9cbc 5e5c dd3d 2c0a 023e
00000240: e3d4 c2bc cfc6 bfbd f7b2 b03d 3704 bebd
00000250: 7051 db3d abb7 d13d 3494 53bc ea8f d3bd
00000260: 78d8 7e3d 738d 083e 684c 5f3d b744 593c
00000270: b627 063e 3456 1d3d 7315 1a3e f0ec d83d
00000280: 3d2c 9ebd 37ad 8dbd 758d 8abd a36e 943b
00000290: d758 103e 0b20 183e becc 153c b322 673d
000002a0: 6d4d 54bd 7a6f 8bbb 9445 b6bd 51f6 abbc
000002b0: c16c 92bd 740f a1bd b646 afbd d480 9b3d
000002c0: 288d 6cbc f367 173e 47f4 cd3d 5e96 97bc
000002d0: 8eb6 013e 4950 c63d f074 5c3c 46e9 8a3d
000002e0: e561 b83d bb13 49bd 27fd b0bd 3355 ddbc
000002f0: 3a81 fe3d f79e 713d 68e3 983d 5172 043e
00000300: d8a7 153d 272f a03c 0fc4 9d3d 73af 1abd
00000310: 031c 193e 5bc0 19bc 36ab d3bd 2c60 ef3c
00000320: 2b35 d13b 0016 313c 5b79 93bd 9331 a13d
00000330: ec2c 10bc 87b3 523d 16ee 8f3d 6d8e 543d
00000340: e110 d53d 5bc5 ac3d 4e70 e03d 1672 eb3d
00000350: 02ba 8ebc c3e1 96bd 1abd 023e dc7c c8bc
00000360: 4407 ed3d 091f d43d 060a 16bd 6bdf 863d
00000370: b3ee b1bd 3c7a c53d 9f52 e63d 20ec 8cbd
00000380: 5b44 713d 0675 e93d bed0 3a3d 47ef b5bd
00000390: 9925 ba3d 7dfd b2bd ff11 f0bc 7dfb 8d3d
000003a0: 8737 1d3d 60ad 2739 f6e8 90bb 8d1b e93d
000003b0: d3a8 8f3d 010f ef3d f28c 3d3a 704c a13d
000003c0: f3ef b8bc 409c ec3d 5c60 cebd 367b 023e
000003d0: 7982 c83d 7096 e7bc 2507 063e ce40 dd3d
000003e0: 5345 23bd 29e4 d33d d0f0 dd3d 8928 a2bd
000003f0: e49d d73d 5277 96bd a44d b0bd bde0 0d3d

linear_1.bias f4 [64]
0.13512339 0.0055731074 0.037591107 -0.021782234 0.1317883 0.0905542 -0.033193152 -0.022025807
0.031794455 -0.056086335 0.0093369745 -0.012893541 0.11939948 0.044441413 0.13496727 -0.043542933
-0.001199739 0.11635571 -0.05361059 0.028567657 -0.07710359 -0.03881603 0.05510537 0.13364717
-0.07691708 -0.027865916 0.08527492 0.08666021 0.11547673 -0.030813431 0.034814924 0.0884121
0.055457212 0.010916779 0.016979786 0.1132587 -0.016914263 -0.14051631 0.09362449 0.11734873
-0.013929135 -0.076557025 -0.018591063 -0.06607081 -0.11966045 0.022387939 -0.017200993 0.025720388
0.08234336 -0.022431333 -0.022733111 -0.034206867 0.04429085 0.11253105 0.014115392 0.12566754
0.059056286 0.0075689596 0.09218724 -0.099478394 -0.020864587 0.056038488 -0.034825936 0.092751354
00000000: c95d 0a3e 9d9e b63b 22f9 193d a870 b2bc
00000010: 83f3 063e 7b74 b93d 8bf5 07bd 776f b4bc
00000020: e73a 023d c9ba 65bd 1cfa 183c 6e3f 53bc
00000030: b787 f43d 3308 363d dc34 0a3e 135a 32bd
00000040: 9040 9dba e74b ee3d c796 5bbd b806 ea3c
00000050: 7de8 9dbd 8ffd 1ebd 2bb6 613d ceda 083e
00000060: b486 9dbd 1047 e4bc 9ea4 ae3d e87a b13d
00000070: 107f ec3d 736c fcbc 189a 0e3d 6711 b53d
00000080: 1a27 633d 4adc 323c 3119 8b3c 2df4 e73d
00000090: c88f 8abc 82e3 0fbe 32be bf3d 8854 f03d
000000a0: 0737 64bc eec9 9cbd 494c 98bc 2250 87bd
000000b0: 8a10 f5bd e966 b73c 19e9 8cbc 90b3 d23c
000000c0: a3a3 a83d eac1 b7bc ca3a babc 801c 0cbd
000000d0: 536a 353d ae76 e63d 3f44 673c feae 003e
000000e0: 01e5 713d 0905 f83b aacc bc3d 54bb cbbd
000000f0: 36ec aabc 9d88 653d a4a5 0ebd 6cf4 bd3d

linear_2.weight f4 [32, 64]
0.0250566 -0.07007702 0.036512077 -0.06119542 -0.025262386 -0.018578202 -0.09213877 -0.0751742
-0.04754114 -0.047949314 0.08488448 0.060074687 0.037997007 -0.02267851 0.052337214 0.10968356
0.065026134 -0.12249039 0.10078819 0.11630486 0.021356642 0.029421285 -0.03920415 -0.06172295
0.066807926 0.102927625 0.09188785 0.05138561 -0.0033290535 0.09102087 0.047715425 -0.08731724
-0.035019934 -0.06320535 0.09370154 -0.021244943 -0.07710762 -0.09643239 -0.022313729 -0.09472196
-0.08804946 -0.069987044 -0.047198758 -0.030372143 -0.039292604 -0.004097864 -0.092046365 0.047494292
-0.05572541 0.009852901 -0.115958616 -0.10009378 -0.0005187988 -0.06705806 -0.018802762 -0.035038337
0.00530228 0.06175527 0.017546058 0.036055177 -0.12282497 0.11009243 -0.012869865 -0.08163145
-0.04447801 -0.04969921 -0.119417526 0.003930485 0.043496702 -0.13786164 -0.045009412 0.008153816
-0.124584526 -0.13666266 -0.13610823 0.100456566 0.062371925 0.076672845 -0.060294222 0.10172097
0.09441199 0.06566509 -0.13849007 0.063938126 0.08127173 -0.033411205 -0.13137855 0.023696909
-0.059895955 0.045888945 0.06967912 -0.018544463 0.0008409742 -0.104933664 0.063668 -0.076448426
0.069627896 0.059169725 -0.105773635 0.10173926 -0.013786149 0.0952646 -0.0058738193 -0.060179442
-0.08361232 0.06936183 -0.057297207 0.05666417 0.082173124 -0.040492196 0.03866787 0.045167476
0.09716028 -0.13260995 0.01350184 0.08346888 -0.01879237 -0.03172674 0.032800507 0.086459845
0.050332796 0.05956167 0.086961664 0.108866476 0.062392224 0.012174794 -0.03765058 0.0767143
0.057948776 -0.057138503 0.114808105 0.024086121 -0.06341448 0.108275816 0.041121844 -0.09289059
0.038630575 -0.120890826 -0.12600838 0.08539475 -0.095169134 0.038772084 -0.12827623 0.10835284
-0.031806674 -0.017866418 -0.0683856 0.02407619 -0.0084707085 0.054062948 0.017163964 -0.04851071
0.11813572 -0.119651556 0.028808156 -0.06419832 0.0035259556 -0.08695298 0.018235 -0.0061016553
0.042265266 0.112930395 0.07385455 0.011915981 0.035023414 0.028976418 0.03293132 -0.13050592
0.038251754 0.060880683 0.037875883 0.08662425 -0.07845177 0.032070138 -0.0024909205 -0.04849165
-0.043070547 -0.026033707 0.006323789 0.007302862 0.09452161 -0.015001208 0.1049556 -0.018095566
-0.053757932 -0.013700657 0.09215588 0.09969416 -0.0879894 0.039723493 -0.10860836 0.047008548
-0.009052511 -0.074267514 -0.004486954 0.010618547 -0.10195968 -0.059306275 0.07450983 -0.059977893
-0.05500537 0.067988895 -0.05292379 -0.111137636 -0.11130538 0.012783393 -0.06429272 -0.097591676
-0.024219941 -0.06876974 -0.13232915 0.026010143 0.05121054 0.08954939 -0.060054466 -0.09047734
-0.06496502 -0.014447495 -0.021293258 0.042306036 0.072451785 -0.06869623 -0.117251925 -0.09641657
0.07069974 0.07091006 -0.022826044 -0.023232626 0.012090053 0.064627364 -0.028512428 0.09530843
-0.029506665 0.02457925 0.0873928 0.06789549 -0.034130152 -0.09385465 0.032987118 -0.09827014
0.011191579 0.11260136 0.092410624 -0.08636493 0.059013236 0.00532919 0.11188024 -0.05734643
-0.0376936 0.065469526 0.031727545 -0.06388229 -0.07276147 -0.09424799 0.09409993 -0.09487546
00000000: 8043 cd3c 8a84 8fbd b08d 153d 0ca8 7abd
00000010: 10f3 cebc 5031 98bc 40b3 bcbd eef4 99bd
00000020: 80ba 42bd 8066 44bd ead7 ad3d e010 763d
00000030: c0a2 1b3d 48c8 b9bc 8c5f 563d c6a1 e03d
00000040: 6c2c 853d 3edc fabd 0a6a ce3d 3e31 ee3d
00000050: 20f4 ae3c e804 f13c 8894 20bd 34d1 7cbd
00000060: 98d2 883d b8cb d23d b22f bc3d b879 523d
00000070: 402c 5abb 2669 ba3d 4071 433d 62d3 b2bd
00000080: 1071 0fbd ce71 81bd 98e6 bf3d e009 aebc
00000090: 9aea 9dbd 587e c5bd 48cb b6bc 96fd c1bd
000000a0: 4653 b4bd 5e55 8fbd 7c53 41bd 00cf f8bc
000000b0: 48f1 20bd 6047 86bb ce82 bcbd 6089 423d
000000c0: 5440 64bd 106e 213c b67b edbd f8fd ccbd
000000d0: 0000 08ba bc55 89bd 4008 9abc 5c84 0fbd
000000e0: c0be ad3b 18f3 7c3d c0bc 8f3c 98ae 133d
000000f0: a88b fbbd 2478 e13d 20dc 52bc 642e a7bd
00000100: 932e 36bd 6691 4bbd 2d91 f4bd 4ccb 803b
00000110: 9929 323d 9a2b 0dbe ca5b 38bd 9597 053c
00000120: 2c26 ffbd 4cf1 0bbe f55f 0bbe 2cbc cd3d
00000130: b479 7f3d a706 9d3d 13f7 76bd 1553 d03d
00000140: 135b c13d 6b7b 863d 57d0 0dbe fef1 823d
00000150: cb71 a63d 30da 08bd 1988 06be 0520 c23c
00000160: 7655 75bd 0cf6 3b3d edb3 8e3d 8fea 97bc
00000170: d374 5c3a 76e7 d6bd 5e64 823d fe90 9cbd
00000180: 1299 8e3d f45b 723d d99f d8bd ac5c d03d
00000190: 4ddf 61bc 161a c33d 2b79 c0bb b87e 76bd
000001a0: f03c abbd 930d 8e3d 7ab0 6abd b018 683d
000001b0: 624a a83d 25db 25bd 3362 1e3d 8801 393d
000001c0: f8fb c63d e7ca 07be d236 5d3c bbf1 aa3d
000001d0: 75f2 99bc e6f3 01bd d359 063d dc11 b13d
000001e0: c329 4e3d f0f6 733d f518 b23d 63f5 de3d
000001f0: fd8e 7f3d ca78 473c 7f37 1abd 631c 9d3d
00000200: b25b 6d3d 100a 6abd 8320 eb3d 4250 c53c
00000210: 73df 81bd b6bf dd3d 616f 283d 6c3d bebd
00000220: 183b 1e3d 9c95 f7bd 5708 01be 71e3 ae3d
00000230: 09e8 c2bd 7acf 1e3d d85a 03be 18e8 dd3d
00000240: b747 02bd 985c 92bc c00d 8cbd 6e3b c53c
00000250: bac8 0abc 1c71 5d3d 719b 8c3c 2bb3 46bd
00000260: 24f1 f13d e00b f5bd 15ff eb3c 697a 83bd
00000270: b813 673b 6714 b2bd 9161 953c 65f0 c7bb
00000280: 581e 2d3d 0d48 e73d 0e41 973d 3f3b 433c
00000290: b674 0f3d f45f ed3c fee2 063d 58a3 05be
000002a0: dfad 1c3d 065e 793d be23 1b3d 0e68 b13d
000002b0: 52ab a0bd fa5b 033d b63e 23bb 2e9f 46bd
000002c0: be6a 30bd a444 d5bc c937 cf3b d94c ef3b
000002d0: 8c94 c13d a0c7 75bc f6f2 d63d 273d 94bc
000002e0: 4731 5cbd b878 60bc 39bc bc3d 742c cc3d
000002f0: c933 b4bd 1ab5 223d 0f6e debd 098c 403d
00000300: fc50 14bc 9119 98bd 4c07 93bb 6af9 2d3c
00000310: 3dd0 d0bd 23eb 72bd 9c98 983d 61ab 75bd
00000320: 504d 61bd c33d 8b3d 9ec6 58bd 219c e3bd
00000330: 13f4 e3bd 7071 513c e7ab 83bd 25de c7bd
00000340: e668 c6bc 26d7 8cbd 4b81 07be 3913 d53c
00000350: 25c2 513d ac65 b73d acfb 75bd 2f4c b9bd
00000360: 610c 85bd 30b5 6cbc 336f aebc 1849 2d3d
00000370: 9a61 943d 9cb0 8cbd c721 f0bd 0d76 c5bd
00000380: 06cb 903d 4b39 913d affd babc 5952 bebc
00000390: 5c15 463c 5a5b 843d e592 e9bc 1131 c33d
000003a0: f6b7 f1bc 6c5a c93c fffa b23d ca0c 8b3d
000003b0: 0fcc 0bbd de36 c0bd 801d 073d db41 c9bd
000003c0: e25c 373c 8b9b e63d c841 bd3d 19e0 b0bd
000003d0: ddb7 713d 7ca0 ae3b 7821 e53d 17e4 6abd
000003e0: 9b64 1abd e314 863d bef4 013d b8d4 82bd
000003f0: f703 95bd 1705 c1bd 77b7 c03d 114e c2bd

linear_2.bias f4 [32]
-0.013223574 -0.01217616 -0.041932806 0.0568385 -0.010520421 0.09048029 0.07922088 0.032216705
0.095580466 0.061117887 0.021630557 0.058259796 0.11644687 0.14873374 0.09986684 -0.08573728
0.13813905 0.04980126 0.008915006 -0.074064545 0.006678791 -0.12350872 0.09356067 0.047006745
-0.08745625 0.023644032 0.014807424 -0.08375101 -0.025179667 0.14600761 -0.004305671 -0.12570415
00000000: b0a7 58bc 847e 47bc bcc1 2bbd 7dcf 683d
00000010: d85d 2cbc bb4d b93d 8f3e a23d aaf5 033d
00000020: b1bf c33d c056 7a3d 9132 b13c d3a1 6e3d
00000030: b27b ee3d a84d 183e fc86 cc3d 0797 afbd
00000040: 5374 0d3e 68fc 4b3d 3f10 123c 27af 97bd
00000050: c2d9 da3b 24f2 fcbd bd9c bf3d 258a 403d
00000060: 431c b3bd 21b1 c13c d69a 723c a685 abbd
00000070: 9745 cebc 0583 153e 9616 8dbb 97b8 00be

linear_3.weight f4 [1, 32]
0.1276227 -0.018275788 -0.10844349 -0.14864424 -0.16103394 0.15683787 -0.13887097 -0.0935436
-0.009718541 0.17958415 0.12718208 0.12269907 0.042832237 0.14621973 -0.1660456 -0.115191266
0.13488606 -0.07115008 0.15073566 0.04618967 -0.16212095 -0.10537306 0.12530605 0.18994309
-0.07500487 0.09763249 -0.063008726 -0.016896041 -0.08127752 0.09240783 -0.051158313 -0.15674609
00000000: 86af 023e 1bb7 95bc 9f17 debd 3236 18be
00000010: 15e6 24be 1b9a 203e 3134 0ebe c993 bfbd
00000020: 843a 1fbc e8e4 373e 053c 023e a649 fb3d
00000030: db70 2f3d a0ba 153e dc07 2abe 66e9 ebbd
00000040: 921f 0a3e 22b7 91bd 735a 1a3e 6131 3d3d
00000050: 0903 26be d5cd d7bd 3b50 003e 7180 423e
00000060: 279c 99bd 8bf3 c73d b80a 81bd 9169 8abc
00000070: d474 a6bd 5140 bd3d 618b 51bd 0c82 20be
