ndp/weights/finetune-5.pt (torch, 68847 bytes, 5 tensors)

linear_1.weight f4 [100, 125]
000000 2e af c6 3d e4 99 c9 3d c3 16 84 3d b3 9c 3e bc
       0.097013816 0.098438054 0.06449654 -0.01163404
000010 33 c6 05 bd 14 a3 83 3c 28 a7 41 bd 26 11 4d bd
       -0.03265972 0.016068973 -0.047278553 -0.050065182
000020 98 0f 24 3c fa 5d f9 bc 02 18 d4 3c a8 54 5b 3b
       0.010013483 -0.03044032 0.025890354 0.0033467207
000030 cf 4d 68 3d cc c7 66 bd 0c 77 56 bd 77 c8 95 3c
       0.05671483 -0.056342885 -0.052359626 0.018284066
000040 be 8a 7d 3d ff 09 91 bd 2a ad c1 3d ac 3d 93 3d
       0.061899893 -0.07081985 0.094568565 0.07189497
000050 2f 17 22 3d 09 e8 8e 3d 94 21 c7 3d 38 ca 8e bd
       0.03957289 0.06977851 0.097232014 -0.06972164
000060 63 fe f1 3c 38 7e b3 3d 4d b3 6c 3d d6 7c 4a 3d
       0.029540246 0.08764309 0.057788182 0.04943546
000070 d9 e9 8b 3b 4a 7a e5 3c 67 1e b0 3d 27 3c 19 3c
       0.00426982 0.028012414 0.08599549 0.00935272
000080 bc 7b 5e 3d ef a7 b8 3d 65 c4 b9 3a 62 32 cd 3c
       0.05431722 0.09016406 0.001417291 0.025048438
000090 d6 6d 0c 3c 91 29 82 bc ea ff 2a 3c 0c 96 5d bd
       0.008571109 -0.015888961 0.010436991 -0.054098174
0000a0 4b b5 c0 bc c1 36 38 bd 30 77 7d bd ed 8e 83 bd
       -0.023523947 -0.044974092 -0.061881244 -0.06423745
0000b0 d7 60 d2 3d 30 b6 db bc f5 f2 3f bc 8c a8 c1 3d
       0.10272377 -0.026820272 -0.01171564 0.09455976
0000c0 40 8c 6a 3d f0 af 86 3d 8d 04 06 3d f3 83 11 3d
       0.05726266 0.06576526 0.032719184 0.035526227
0000d0 22 d3 af 3d 5c 39 60 bd ae f3 99 bc 21 ba 76 3d
       0.08585192 -0.054742202 -0.018792953 0.0602361
0000e0 e0 71 14 bd 7a dd f9 bb 9a 15 b4 3c d5 00 03 3a
       -0.036241412 -0.007625279 0.021982957 0.00049973774
0000f0 58 87 b2 3d 28 b8 88 bc e2 4a 17 3d 4c 52 ca bb
       0.08717221 -0.016689375 0.03693665 -0.0061743613
000100 f9 ce 7b bd 3b 68 ab bc bb 5e b7 3d 67 26 27 bd
       -0.06147668 -0.020923724 0.08953615 -0.040808108
000110 59 78 ea 3c 97 15 09 bd bd dd 1b bd c2 6f 90 bc
       0.02862184 -0.033467855 -0.038053263 -0.017631415
000120 96 bd 49 3d 28 11 80 bc e3 9f 13 3d 28 65 5f 3d
       0.04925307 -0.01563318 0.03604115 0.05453983
000130 d9 39 27 bd 51 73 cc 3d 94 84 94 3d 71 eb 83 bd
       -0.040826652 0.09982932 0.0725185 -0.06441391
000140 90 83 14 3c 19 fe fa 3c 91 f7 48 3d d4 e9 26 bd
       0.00906457 0.030638741 0.049064223 -0.04075034
000150 b5 40 94 3d c1 ee 0b 3c e3 03 01 bd 78 43 fa bc
       0.072389044 0.00854081 -0.031497847 -0.03054975
000160 82 ac f8 3c a0 ce b1 3d 5b e9 3e bb 96 d3 2c 3c
       0.030355696 0.08681989 -0.002913079 0.010548493
000170 1a 05 e8 bc 0a eb b3 3c df 83 d5 3d 71 e6 b5 3d
       -0.028322745 0.021962661 0.10425543 0.08881844
000180 d4 3b ad 3d fa 0a 50 bc f5 80 fe 3c 68 b1 8a 3d
       0.08458677 -0.0126979295 0.03106735 0.06772119
000190 db 14 ad bc dd 4a 37 bb 24 47 0b bd 94 24 38 bd
       -0.021128109 -0.0027968206 -0.03400339 -0.04495676
0001a0 9f 0a 2b bd b4 aa 70 3d f5 72 c5 3d 72 48 b3 3d
       -0.041758176 0.058756545 0.09641067 0.08754052
0001b0 f8 92 0b bd 15 87 d2 3d 9e 10 b8 3d cc 80 54 3d
       -0.034075707 0.10279671 0.089875445 0.051880643
0001c0 4f a2 7e 3d 90 37 cf 3d 4f a4 c0 3d ef 6c 97 3b
       0.06216651 0.101180196 0.094063394 0.00462114
0001d0 c4 88 4b 3d f5 9f 9b 3d 73 28 d2 3d 6c 17 d4 3d
       0.049690977 0.07598869 0.10261621 0.1035603
0001e0 1a fb 24 3c 90 c4 c1 3d 5c c5 17 bd 4e 15 33 bd
       0.010069633 0.094613194 -0.03705345 -0.04372149
0001f0 40 02 94 bd fc e6 ce bb f1 aa 35 3d b5 68 fd 3a
       -0.07226992 -0.0063141566 0.044352476 0.0019333573
000200 52 67 98 3d 3f b4 48 3d ac 52 e0 bc 3d 08 b1 3d
       0.07441582 0.04900002 -0.027383171 0.086441495
000210 0d a5 a7 bc 8e f4 90 bd be 92 8e 3d 14 ce ae 3d
       -0.020464445 -0.07077895 0.069615826 0.085354
000220 a0 ab 5c bd 51 b3 d0 3d ae 05 50 3d cf 96 be 3d
       -0.05387461 0.10190452 0.050786667 0.09306108
000230 39 7a 9c 3d 22 8e b8 3c df fb 86 bc cd 3c 58 3d
       0.076404996 0.022528712 -0.016477523 0.05279236
000240 5d 37 c3 bb 9f f2 99 bc 76 3f 98 3d a0 ee 84 3d
       -0.0059575276 -0.018792449 0.07433979 0.064908266
000250 09 1c 68 3d 34 a4 83 bd be 7c 22 3d c1 04 a9 3d
       0.05666736 -0.06427804 0.039669745 0.0825286
000260 e5 4a e0 3b f8 f4 aa 3b 6c 70 7a bd 93 ef cc 3d
       0.0068448656 0.005217191 -0.06114237 0.10006633
000270 1b bf d8 3c a3 2b 2f bc 42 b8 a4 3d 8b 1b 68 3d
       0.026458314 -0.010691556 0.08042957 0.056666892
000280 d5 7c 5a 3d 09 27 43 3d a2 9b 76 3d ea 51 57 bd
       0.053341705 0.04764465 0.060207017 -0.052568354
000290 04 71 5c bd a5 e1 41 3d ef bb 12 bd 98 08 8f 3d
       -0.053818718 0.047334332 -0.03582376 0.06984061
0002a0 a8 27 a4 3d ff 75 79 bd 28 1f 5d 3c 97 a5 a7 3d
       0.08015376 -0.060903545 0.013496198 0.08185881
0002b0 12 86 27 3d 7b 54 4f 3d c6 3a b9 3c f1 9b 20 3d
       0.040899344 0.050617676 0.022611033 0.039211217
0002c0 45 f4 e3 bc 24 e6 bb 3d 84 09 68 3c 7a db a2 3b
       -0.027826438 0.09174755 0.014162425 0.0049700113
0002d0 be 65 16 3d 94 09 c2 3d e5 ea 83 bd 26 bf 0a bd
       0.036718123 0.09474483 -0.06441287 -0.0338737
0002e0 f4 f4 62 3d bc 09 a9 bc 6c 3d fb bc c0 17 3f bc
       0.055409387 -0.020634525 -0.030668937 -0.011663377
0002f0 d0 6f a5 3d 05 c7 07 3d b5 8c 51 bc 91 12 99 bc
       0.08077967 0.033148784 -0.012789895 -0.018685611
000300 03 ec 9c 3c 72 6a cb 3d 4b 0d 1a 3d c9 23 6c bd
       0.019155508 0.09932412 0.037610333 -0.057651315
000310 f2 5a b9 bb 10 a7 da bc 0b f0 dd bb 63 b7 82 bd
       -0.0056565935 -0.02669099 -0.006773 -0.063826345
000320 5e 83 8f bd 61 98 6c bd 09 ab 9a 3d a7 5c 52 bc
       -0.07007478 -0.057762507 0.075521536 -0.012839473
000330 9f cb c5 bb 11 74 22 3d 8a 8d 1b bc e3 d4 61 bd
       -0.0060362364 0.03966147 -0.009494195 -0.055134665
000340 42 45 28 3d b6 83 9c 3d 1a 91 94 3d 27 80 1d 3d
       0.041081674 0.07642309 0.072542384 0.038452294
000350 66 a7 31 bd 68 00 5d bd 55 5f 8f bd e6 62 11 bb
       -0.043372534 -0.053955466 -0.07000605 -0.0022184192
000360 0f 44 c8 3d dc 8f 61 bd c1 a8 eb bc 1c f0 27 bd
       0.09778606 -0.055068836 -0.028766992 -0.04100047
000370 dc c8 91 3d 70 64 91 bd 20 d8 bc 3d d5 a1 0b 3d
       0.07118389 -0.07099235 0.0922091 0.034089882
000380 95 c8 f8 3c 70 ce 78 3d 7d c9 1e 3d 9d bf 95 bd
       0.030369082 0.06074375 0.038766373 -0.07311938
000390 4b 0d d2 3c ff 27 e8 3b 2e 7b 09 3d 6f bf 38 bd
       0.025641104 0.007084846 0.03356474 -0.04510444
0003a0 0c aa 84 3d cb 1d 35 bd ed 97 ee bc 9b 06 63 3d
       0.06477746 -0.044217866 -0.029125178 0.05542622
0003b0 b9 85 37 3d b5 d5 bd 3d 84 e3 10 3c 86 e2 4a bd
       0.044805262 0.09269277 0.008843306 -0.049532436
0003c0 44 40 30 bd c1 3c 49 3c c7 56 82 3a 01 f4 68 3d
       -0.04303004 0.012282551 0.0009944075 0.056873325
0003d0 7d cc 4c bb a6 63 85 3d 9b db 32 3d a6 c6 99 bc
       -0.0031249814 0.06513147 0.043666463 -0.01877148
0003e0 4d a0 3f 3d 72 0d bd 3d 22 b7 7f 3d 10 25 82 3d
       0.046783734 0.0923108 0.06243051 0.06354725
0003f0 3d 5c 06 bd 7f 9e f9 3b 47 f7 97 bd 4f db bf bb
       -0.03280281 0.007617771 -0.07420211 -0.005855001

linear_1.bias f4 [100]
000000 b6 41 c4 3d 09 22 6d bd 02 a5 52 bd da 26 12 3c
       0.09582846 -0.057893787 -0.051426895 0.008920396
000010 2a df 0b 3d f3 bf ef bc 36 88 5f bb 97 c2 f9 3a
       0.034148373 -0.029266333 -0.0034108288 0.0019055185
000020 99 42 79 3c 2b be 51 bd ec ec 4a bd f6 a7 82 3c
       0.015213632 -0.05120675 -0.049542353 0.01594923
000030 a7 11 b6 3d 5c 24 32 3d b8 66 65 3c fc ce b2 3d
       0.08890086 0.043491706 0.014001541 0.087308854
000040 5a fd 7b 3d cc a4 65 bd c2 3b 03 3d fa d5 67 bd
       0.06152091 -0.056065366 0.03203941 -0.05660055
000050 42 fc 56 bd 62 9b ae bd 09 47 a3 bd c5 1a 90 bd
       -0.052486666 -0.08525731 -0.07972533 -0.07036356
000060 98 4a 38 3d bf 52 82 3d 9a 73 5e 3d 2a 05 8f bc
       0.044993013 0.06363439 0.054309465 -0.017458517
000070 4c 28 13 3d 1f af 8e 3d 31 e0 ad 3d 17 9b b5 3d
       0.035927102 0.069669954 0.08490027 0.08867472
000080 7c 5f a0 3d bc 43 cb 3c 8f 6a 70 bd 95 27 5f bd
       0.07830712 0.024812572 -0.058695372 -0.054481108
000090 7b 5f 9f 3d d5 ee 95 bd 0c 21 8d bc 3e aa 60 3d
       0.07781883 -0.07320944 -0.017227672 0.054849856
0000a0 04 f9 e0 3c f7 5d c1 bc 06 fe a7 bd a7 c1 4a bd
       0.02746249 -0.023604376 -0.08202748 -0.049501088
0000b0 ae 7c 7c 3d 84 fb ea bc b9 fa 11 3d 33 f2 91 3d
       0.06164234 -0.028684385 0.0356395 0.07126274
0000c0 b5 d5 01 bd fd f8 a1 bd d6 56 7b bc 06 44 27 bd
       -0.031697948 -0.07908819 -0.0153405275 -0.040836357
0000d0 30 41 0e bd aa 03 6e 3d 73 ef 4b bd 00 77 aa 3d
       -0.034730136 0.058108963 -0.049788903 0.08323479
0000e0 14 24 8a bd 38 a1 33 3d a2 92 85 3d df db 04 bd
       -0.067451626 0.043854922 0.065221086 -0.032436248
0000f0 96 56 5c 3d 3e 95 8f 3d 80 81 87 3d 01 f3 bc bc
       0.053793512 0.070108876 0.06616497 -0.023065092
000100 65 c2 01 bd b2 a1 bf 3b 4a 4c 84 3d df 08 b0 bd
       -0.03167953 0.005848133 0.064598635 -0.08595442
000110 46 61 94 bd b2 e8 af 3b fb c2 25 bd 26 dc 82 bd
       -0.07245116 0.0053683156 -0.04046915 -0.06389646
000120 a4 6f d2 3d ff c2 0c 3d 22 e9 b6 3d 77 55 22 3d
       0.102752 0.03436565 0.08931185 0.039632287
000130 7e e6 3c 3d 92 d7 81 bd 57 19 16 3d cd fc 95 3d
       0.046118252 -0.06339945 0.03664526 0.073236085
000140 6a 44 4f 3d e1 c9 2c 3d 5b fb fe bc 2c 3a 75 3d
       0.050602354 0.042184714 -0.031125715 0.05986993
000150 2c 56 e8 3c d1 ae 36 bd ec af 37 bd 66 fb 87 bd
       0.028361402 -0.04460031 -0.044845507 -0.06639747
000160 f3 1b ab bc 88 14 c6 3d f1 b8 84 3c 39 a6 67 bd
       -0.02088735 0.09671885 0.016201468 -0.056555007
000170 41 38 e3 bc 3c 39 33 3d a4 a4 94 3d dd e0 c1 3d
       -0.027736785 0.043755755 0.07257965 0.094667174
000180 d7 f3 2a ba 5d 0e 5c bd dd 87 2f 3c b1 55 82 bd
       -0.00065213203 -0.053724635 0.010713545 -0.063640006

linear_2.weight f4 [40, 100]
000000 43 d3 9a 3d e8 44 8a 3d 52 90 dd 3d fa ee ba 3d
       0.07559826 0.06751424 0.108185425 0.091276124
000010 98 ea 28 bd f2 03 5b 3d 13 f6 58 bb 7e d6 85 3d
       -0.04123935 0.05347056 -0.0033105656 0.06535052
000020 b4 f2 46 3d da 1a 9a bd 4a 8b 4a bd c9 02 54 bc
       0.048571303 -0.07524653 -0.049449243 -0.012940117
000030 8d a9 5a 3d 11 66 b4 3d 70 67 c1 3d 22 e4 73 3d
       0.053384352 0.0880853 0.09443557 0.059543736
000040 1b c3 a8 3b 08 a1 8e bd ae a9 20 bd 1d c1 cd bc
       0.0051502115 -0.06964308 -0.03922432 -0.025116498
000050 a6 f9 84 bd b9 4c 88 bd 3c 2c 8e 3d cd 81 18 3d
       -0.06492929 -0.06655259 0.06942031 0.037233163
000060 6a e5 79 3d 2e c3 01 3d 3f 64 b3 bc 19 1e 9c 3d
       0.061009802 0.03168028 -0.021898387 0.07622928
000070 3d cc 9b 3c 2e 46 a3 bd 73 74 b8 3c 37 ed cb 3d
       0.019018287 -0.0797237 0.022516465 0.099573545
000080 d2 61 b8 3d e2 33 be 3d 7b 18 bc bb 7e 7b 85 bd
       0.09003033 0.092872396 -0.005740223 -0.06517695
000090 f0 f8 50 bd c4 36 ad 3c 3a 00 e3 ba 36 db bb 3d
       -0.051018655 0.021144278 -0.0017318793 0.091726705
0000a0 69 f8 a9 bb c8 f2 97 bd 59 fd 0f 3d aa bc 0c bd
       -0.0051870835 -0.07419354 0.03515372 -0.03435961
0000b0 0f 75 7c 3d cc 6b 94 bd ce 5c 97 bd 51 b4 e2 3d
       0.061635073 -0.07247123 -0.07390748 0.11069549
0000c0 f4 88 ae 3d bc 61 a6 3d 91 9a a8 3d 8f d4 cd 3d
       0.085222155 0.0812411 0.08232606 0.10050308
0000d0 59 fe 02 3d a4 63 eb 3d c3 6f ae bd a8 b5 9f 3d
       0.031980846 0.11493614 -0.085174106 0.0779832
0000e0 71 ae 3c 3d 1f 82 10 3c 97 c9 ea 3c 03 21 96 bd
       0.046064798 0.008820086 0.028660579 -0.07330515
0000f0 a2 c3 0b bd b8 ef ae 3d 2b a2 99 3c 49 c5 95 bd
       -0.034122117 0.085418165 0.018754086 -0.0731302
000100 57 ce 9e 3d c3 6f 32 bc 9c 3f 88 3d 37 5c 04 bd
       0.077542 -0.010890904 0.066527575 -0.032314505
000110 8a 99 0f 3d 03 9d 7e 3d 6b 46 72 3d 24 30 da 3c
       0.035058536 0.062161457 0.059149187 0.026634283
000120 ab 51 4b 3d a4 d7 88 bd 92 b6 27 bd 03 5e 5e 3d
       0.04963843 -0.06681755 -0.040945597 0.054288875
000130 77 91 19 bd 5b 5f 74 bd 64 a8 3d bd 01 bb 8e bc
       -0.03749224 -0.05966125 -0.046303168 -0.017423155
000140 b2 db d1 3d 50 0b d1 3c 45 1d 7b bc cc 05 3f 3d
       0.10246982 0.02551809 -0.015326803 0.046636388
000150 40 50 d4 3d 43 81 1f 3c fc e5 b2 3d ad 0b 37 3d
       0.10366869 0.009735408 0.08735272 0.04468887
000160 13 5f 16 3d ea 54 aa bd 22 fd a7 3c 30 b5 96 3d
       0.036711764 -0.08316977 0.020506445 0.073587775
000170 ba 25 3e 3c 7d 67 db 3d f1 9c 88 3d 84 e0 b9 3d
       0.011605674 0.10713098 0.06670559 0.09076026
000180 ee 42 86 3c 46 40 b5 3d 37 56 88 3d 4b 16 a8 bd
       0.016389336 0.0885015 0.06657069 -0.08207377
000190 9a ff c2 3c 0d d9 ef bc b5 ca 19 bd 79 60 83 3d
       0.023803521 -0.029278303 -0.037546832 0.06414885
0001a0 66 dd c6 3d 03 a3 c1 3d 0d c2 66 3c f1 cc b3 bd
       0.09710197 0.0945492 0.014084351 -0.08779324
0001b0 74 9a c7 bd d7 90 3a 3d 8c 2b 55 bd 16 36 4e 3d
       -0.097462565 0.045548286 -0.052043483 0.05034455
0001c0 6f d6 73 3d 30 55 8b 3c fb d5 fa 3c d2 9b 66 3d
       0.05953067 0.017008394 0.030619612 0.056300946
0001d0 4e 66 bd 3c 11 4e 26 bd e9 61 a8 bd 41 2e 86 bd
       0.023120072 -0.040601794 -0.082218 -0.06551791
0001e0 3c 7f e4 bb e5 32 d1 3d 63 c8 9a 3d 76 d3 d9 3c
       -0.0069731753 0.102147855 0.07557752 0.02659009
0001f0 e7 9f b0 bd be 4b 46 3d ec 02 29 3d 69 bc fd 3b
       -0.08624249 0.048412077 0.041262552 0.0077434075
000200 21 4c ec bc 63 98 ae 3d 57 e7 95 bd 7d 89 b5 3d
       -0.028844895 0.08525159 -0.07319515 0.088641144
000210 3b 1e 88 3d 16 59 a9 bd 68 86 02 bd 36 63 a2 bc
       0.06646391 -0.08268945 -0.03186646 -0.019822698
000220 f9 22 54 3d cc 97 d7 bc b5 25 c0 3d 69 e1 63 3c
       0.051791165 -0.0263175 0.09382192 0.013908722
000230 44 a5 4e bc 2f b3 5e 3d b4 15 83 3d d7 0c bb 3d
       -0.012612645 0.0543701 0.06400624 0.091333084
000240 c4 0b 0f 3c a1 98 90 bd 5e d0 2b bd 81 7d 13 bd
       0.0087308325 -0.07060362 -0.04194676 -0.03600836
000250 59 01 74 3c a3 e4 83 3d 1c e4 0b bd 12 85 75 3d
       0.014892899 0.06440093 -0.03415309 0.05994136
000260 24 e3 95 bd c7 bb 68 bd dc 29 0e 3c 10 bc fb bc
       -0.07318714 -0.056819703 0.008676972 -0.030729324
000270 13 f6 9a 3c 83 4b 30 3d 6d f1 9f bd 0a f3 82 bd
       0.018916165 0.043040764 -0.0780972 -0.06394012
000280 2e 21 71 bd 60 92 d8 3c 09 84 77 bd 96 45 17 3c
       -0.058869533 0.026436985 -0.060428653 0.009232899
000290 6f a2 9f bd a6 a2 19 bd 83 e5 bc 3d fe 5b 85 bd
       -0.077946536 -0.03750863 0.092234634 -0.06511687
0002a0 69 97 94 bc bd f1 14 3d 0a 86 6b bd 1d 21 71 3d
       -0.018138604 0.036363352 -0.057500876 0.05886947
0002b0 94 ee aa 3d 7f 30 03 bd 76 c4 5c 3d 27 b5 9f 3d
       0.083462864 -0.03202867 0.053898297 0.07798224
0002c0 a2 12 59 3c 9c a8 2c bd 4a bc c3 3d 98 7e b1 3d
       0.013249071 -0.042152986 0.09557398 0.08666724
0002d0 f1 ed dc 3d c7 fb 32 bd 5b 02 82 3d 1e a9 2c bd
       0.10787571 -0.043697145 0.063481055 -0.04215347
0002e0 d9 34 6e bc ad ab af 3d bd 5e 68 3d 47 c0 53 bd
       -0.014538967 0.085776664 0.056730974 -0.05169704
0002f0 b7 23 d9 3c 7c 3e b7 3d d1 01 23 3d 8e f6 90 3d
       0.026506288 0.08947465 0.039796654 0.070782766
000300 f2 13 64 bd 09 15 ac bd c8 a7 dd bc 7d bc 5f 3d
       -0.055683084 -0.0840245 -0.027057543 0.054623116
000310 41 27 a2 bc e7 14 3a 3d 3f e0 63 3d 50 21 d4 3d
       -0.019794108 0.04543009 0.05563378 0.10357916
000320 1c fe 31 3d 76 d0 ea 3d 44 1f cc 3b 4a 81 b0 3d
       0.04345523 0.11465542 0.006229313 0.0861841
000330 b2 4b 52 3d d0 0d 0e bd 90 f7 45 bb 0f 45 cc bc
       0.05134172 -0.03468114 -0.0030207373 -0.024935273
000340 23 dd 11 3d 17 44 48 3c 37 86 2a 3d aa 15 a5 3d
       0.035611283 0.012223265 0.041631903 0.08060773
000350 1a 69 d7 3d 5f 75 91 bd e0 66 93 3d 79 84 35 3d
       0.105180934 -0.07102465 0.07197356 0.04431579
000360 34 23 c5 3d c2 21 37 bd 87 59 63 3d fb 88 44 bd
       0.09625855 -0.04470993 0.0555053 -0.047982197
000370 cc 09 98 3d ca bc 61 bd de 6c 32 bd 37 7f 6a 3d
       0.074237436 -0.055111684 -0.043560855 0.057250228
000380 fc 12 7b bd e1 2b 8c 3d 3d 80 49 bb cf 80 d3 3d
       -0.0612974 0.06844307 -0.0030746602 0.10327303
000390 2b b4 3d bb e6 b1 d4 3d 51 c3 40 3d 8f 5f 2a bc
       -0.00289465 0.10385494 0.04706127 -0.0103987595
0003a0 5d 59 90 3d 7f 69 34 bd 29 b1 1e bd c2 b5 b9 3d
       0.07048295 -0.04404592 -0.03874317 0.09067871
0003b0 8f f7 a4 3d 8b 66 a4 3d 2c 57 92 3d 81 17 66 3d
       0.080550306 0.08027371 0.07145533 0.05617476
0003c0 e1 df 12 bd 17 ff 79 3d 26 d0 61 3d ba e7 be 3d
       -0.03585804 0.06103429 0.055130146 0.09321542
0003d0 0f 5d d9 3d ab ad 93 3d e1 24 45 3d fc 2b b2 bc
       0.10613453 0.07210859 0.048130874 -0.021749489
0003e0 f6 42 da 3d e0 36 b1 bd cd 62 68 bd 8c 4c 4b bc
       0.10657303 -0.08653045 -0.05673485 -0.012408387
0003f0 41 91 56 3d 81 dc 0e bd 2f 80 18 bc a0 be ad 3c
       0.05238462 -0.034878258 -0.009307905 0.021209061

linear_2.bias f4 [40]
000000 be 95 07 bd 9a 90 85 bd c1 0b e2 3c c9 1e 49 bc
       -0.03310179 -0.06521721 0.027593495 -0.012275406
000010 08 74 94 bd 61 e5 e5 3d af a2 f7 3c 02 06 99 bd
       -0.07248694 0.11225391 0.03022894 -0.07471849
000020 2f 67 3e 3d 4b 30 d6 3c 8f 67 97 bd a8 a7 c9 bd
       0.046485122 0.026146075 -0.07392799 -0.09846431
000030 51 d6 80 3c e3 26 5c bd 3e c3 5a 3d ad 22 5f bd
       0.015727194 -0.053748023 0.053408854 -0.05447643
000040 41 44 45 3d 6e 64 ad 3d 19 d2 2d bb c1 3f 0d bd
       0.048160795 0.08466421 -0.0026522933 -0.03448463
000050 19 af 80 3d 6f de a9 3d 2b ee ab bc 12 cb b4 bd
       0.06283397 0.08294379 -0.02098759 -0.08827795
000060 d6 ba 1a 3d f6 e6 76 3d 54 b7 a0 3d 27 8e ae 3d
       0.037775837 0.060278855 0.07847467 0.08523207
000070 ac 71 1e 3d 7f 4a fa 3a c4 33 b8 3d bf 32 c8 3d
       0.038682625 0.0019095688 0.089942485 0.09775304
000080 09 e2 9e 3d 00 41 11 bc 6a d7 88 bd 4a 88 61 bd
       0.077579565 -0.008865595 -0.06681712 -0.055061616
000090 af dc 8b bd ee 4c 66 bd 1d fa a5 3d c3 fa d5 3d
       -0.068292014 -0.05622571 0.08104346 0.104482196

linear_3.weight f4 [1, 40]
000000 fa 79 91 3d b3 44 ec 3c 20 dd 8e 3d 6d b1 df bc
       0.07103343 0.028841352 0.0697577 -0.027306283
000010 c3 3a f3 bd 1b 01 2c 3e 34 70 d8 bc 11 9a 5f bd
       -0.11876442 0.16797297 -0.02642069 -0.05459029
000020 d2 ea f2 3d 75 d7 08 3e f1 17 8f 3c 81 ad 09 be
       0.11861195 0.1336344 0.01746747 -0.13445093
000030 6b 2a fc 3c e0 c6 93 bc 71 58 0d 3e 25 6f fb bd
       0.030781945 -0.018039167 0.13803269 -0.122770585
000040 75 3e 06 3e d0 05 1f 3e d4 b6 21 3e a5 45 18 3d
       0.13109763 0.15529561 0.157924 0.037175793
000050 6d 19 2f 3d af f3 f9 3d c6 10 0a be f0 a1 ee bd
       0.042748857 0.12204682 -0.13482961 -0.11651981
000060 f5 6b e1 3d 66 11 16 be 79 58 2b bd e2 bc 2a 3e
       0.11006919 -0.14655074 -0.04183242 0.16673616
000070 f0 94 05 be fa a2 c8 bd 0f d2 2c 3d 59 6c 1c 3e
       -0.13045096 -0.0979671 0.042192515 0.15275706
000080 b4 a4 29 3e 33 e6 fb 3d 44 f9 fc bd 3e 11 b9 3c
       0.16566736 0.122997664 -0.12352231 0.02259123
000090 29 e7 37 bd c3 3a f1 3d a0 57 c4 3c 73 17 b1 3d
       -0.044898186 0.11778786 0.023967564 0.08647051
