ndp/weights/finetune-4.pt (torch, 27311 bytes, 5 tensors)

linear_1.weight f4 [64, 64]
0	0x3d2f6196	0.042817675
1	0xbd2ec8e1	-0.04267204
2	0x3de780b3	0.11303844
3	0x3b8dbd7e	0.0043255677
4	0xbbb38e68	-0.0054796226
5	0x3d72f0c2	0.059311636
6	0x3d09b075	0.03361555
7	0x3dfe684f	0.12422239
8	0x3dbdc2a7	0.092656426
9	0xbbd8f965	-0.006621527
10	0x3d9aafdf	0.07553076
11	0x3d21a496	0.039463602
12	0x3db2452b	0.08704599
13	0x3dddca70	0.108296275
14	0x3de2abe5	0.110679425
15	0x3e03d730	0.12875056
16	0x3d5ca094	0.053864077
17	0x3dc8d7b5	0.09806768
18	0x3d523bcc	0.051326558
19	0xbc87a768	-0.016559318
20	0x3de10e6b	0.10989078
21	0x3e02db63	0.12779002
22	0x3daf7c9f	0.085686915
23	0xbd9ab87d	-0.075547196
24	0x3dd44ad9	0.103658386
25	0xbd7a44ee	-0.061100893
26	0xbd8b91d5	-0.06814925
27	0x3d015553	0.031575512
28	0xbc9597e1	-0.018260898
29	0xbd80f999	-0.06297607
30	0xbd3458c6	-0.044029973
31	0x3d710bc6	0.05884912
32	0x3d322302	0.043490417
33	0x3ce0626a	0.027390677
34	0x3da441d0	0.08020365
35	0x3e14381c	0.14474529
36	0x3ce1b54c	0.02755227
37	0x3e125231	0.14289166
38	0x3ba85b41	0.0051378314
39	0x3dacf1cf	0.08444559
40	0x3da726a5	0.08161668
41	0x3d5ba95a	0.053628303
42	0x3e145e10	0.14489007
43	0xbd7c0461	-0.061527614
44	0xbd5ab5b0	-0.053395927
45	0x3da98968	0.08278161
46	0x3da08f92	0.07839884
47	0x3de8c8d0	0.11366427
48	0xbd1c9c20	-0.03823483
49	0x3d43ed11	0.047833506
50	0x3da0cd33	0.07851639
51	0xbc2deed4	-0.010616023
52	0x3d2cc29b	0.042177778
53	0x3dd1733b	0.102270566
54	0x3ca49f8a	0.020095605
55	0xbd89ea66	-0.06734161
56	0x3aacf9df	0.0013197026
57	0x3ca248f2	0.019810174
58	0xbbb9ec6a	-0.0056739347
59	0x3e0abfd2	0.13549736
60	0x3cb441c0	0.022004008
61	0x3e0cbfe9	0.13745083
62	0x3d62e0c8	0.05539015
63	0xbd718094	-0.058960512
64	0x3cc8ab00	0.024495602
65	0x3d2a2e83	0.041548263
66	0x3db73ab2	0.08946742
67	0x3dd7770e	0.10520755
68	0xbce39944	-0.027783044
69	0xbde38daf	-0.111110084
70	0x3dd76fd9	0.1051938
71	0x3d4f27d5	0.050575096
72	0xbe05f656	-0.13082251
73	0xbdf0c6d6	-0.11756675
74	0x3ce3222e	0.02772626
75	0x3cfe67d5	0.03105537
76	0xbd8de2c1	-0.069280155
77	0xbbe29d06	-0.0069156913
78	0xbcefd58d	-0.029276634
79	0x3d81cff3	0.06338491
80	0xbdbc77ff	-0.09202575
81	0x3d3ac846	0.045601152
82	0x3c4c9bf9	0.012488359
83	0x3db028d3	0.086015366
84	0x3dd68f63	0.104765676
85	0x3d8b3ea5	0.06799058
86	0xbdee0160	-0.11621356
87	0xbd57fd6e	-0.052731924
88	0x3d82bc1b	0.063835345
89	0x3d8a9059	0.067658134
90	0xbdb45ace	-0.08806382
91	0xbe01c60a	-0.12673202
92	0xbe014cbc	-0.12626928
93	0xbddd9d8d	-0.10821066
94	0xbdd126bc	-0.10212466
95	0x3c35e37e	0.011101602
96	0xbdb8ae2a	-0.09017594
97	0x3d7194c9	0.058979783
98	0x3d76b709	0.06023315
99	0x3dd2f16d	0.102999546
100	0xbda78c4b	-0.08181056
101	0xbdd3178c	-0.103072256
102	0x3d6398cd	0.055565644
103	0x3d6cc2c3	0.057802927
104	0xbdc063a3	-0.09394004
105	0xbd11bd6c	-0.035581037
106	0xbcaab4e5	-0.02083821
107	0x3db3ba46	0.08775763
108	0x3cc94336	0.024568181
109	0x3d3d8caa	0.046276726
110	0x3d786100	0.06063938
111	0xbd33e7c6	-0.04392221
112	0x3d10e5e2	0.035375483
113	0xbd552dab	-0.052045505
114	0x3c85ad42	0.016317967
115	0x3d5f7b18	0.05456075
116	0xbc98b7ef	-0.018642394
117	0xbdc0e064	-0.09417799
118	0xbde5e48c	-0.112252325
119	0x3a6736b3	0.00088201015
120	0x3d90162e	0.070354804
121	0x3cf4f6fa	0.029902924
122	0x3d68b7b4	0.056815818
123	0x3d9fd2ab	0.078038536
124	0xbdb2ef7f	-0.087370865
125	0x3d78d119	0.060746286
126	0x3cf4bdcf	0.029875664
127	0xbc41bf83	-0.011825445
128	0xbb9b81c5	-0.0047456943
129	0xbd068212	-0.03283889
130	0xbd4d4acc	-0.05012016
131	0x3da36057	0.0797736
132	0xbdd1c241	-0.10242129
133	0xbdc787a7	-0.097426705
134	0xbcb5615d	-0.022141153
135	0x3dc9c83d	0.098526455
136	0x3de42674	0.11140147
137	0xbd258d9e	-0.04041826
138	0xbdaad243	-0.083408855
139	0xbd43a9c5	-0.047769327
140	0x3cde9103	0.027168756
141	0x3dcfd1c0	0.101474285
142	0x3d61e41b	0.05514918
143	0xbd8f7582	-0.07004835
144	0xbd0c1b86	-0.034205936
145	0x3d752919	0.059853647
146	0x3e0b014a	0.1357471
147	0x3dcc54b5	0.09977094
148	0x3dd5d4ee	0.10441004
149	0x3dcae4e2	0.09906937
150	0x3d278619	0.04089937
151	0x3dc53b95	0.09630505
152	0x3de966e6	0.113965794
153	0x3d9c4cf9	0.07631869
154	0xbcb5876b	-0.022159299
155	0x3dd1d938	0.10246509
156	0xbbe769de	-0.007062181
157	0x3e0146c2	0.12624648
158	0x3e0c5aa9	0.13706459
159	0x3e07bc36	0.1325539
160	0x3cac310e	0.021019485
161	0xbdce76e7	-0.100812726
162	0xbca88d8d	-0.02057531
163	0x3d45f1c9	0.048326287
164	0xbd2a3927	-0.04155841
165	0x3cc377b0	0.023860782
166	0x3ad0f47d	0.0015942004
167	0xbd587f53	-0.0528558
168	0x3a58b95b	0.0008267366
169	0x3debcb08	0.115133345
170	0x3ded8f6b	0.115996204
171	0xbd756724	-0.059912816
172	0x3dc4cf56	0.09609859
173	0x3e0d7422	0.13813832
174	0xbcd6019a	-0.02612381
175	0xbced1e95	-0.028945247
176	0x3e0e7b9f	0.13914345
177	0xbdc82340	-0.097723484
178	0x3bff6d91	0.0077950438
179	0x3dc8ebee	0.09810625
180	0x3d90a024	0.070617944
181	0xbd9b8ae6	-0.07594852
182	0x3db2acf6	0.08724396
183	0x3d74d50d	0.059773494
184	0x3e0e0d16	0.1387218
185	0x3d1f0805	0.038826007
186	0x3d96a2e8	0.07355291
187	0x3d1bf90c	0.038079306
188	0xbd07bde6	-0.033140086
189	0x3de1f0bc	0.110322446
190	0xbdba1433	-0.09085884
191	0xbcf83eec	-0.030303441
192	0xbc5a0a9b	-0.013308193
193	0xbd3ebc44	-0.046566263
194	0xbd4e95f8	-0.05043599
195	0xbdc45f80	-0.09588528
196	0xbd43bfc7	-0.047790315
197	0x3cd4a737	0.02595864
198	0xbc3df39e	-0.011593727
199	0x3d7b4a07	0.061349895
200	0xbc3e17d9	-0.011602365
201	0xbc462f9a	-0.01209631
202	0x3d8e9d22	0.069635645
203	0x3cc5962d	0.024119461
204	0x3dc047a2	0.09388663
205	0x3d9365eb	0.07197174
206	0x3bbcfffd	0.005767821
207	0x3dc976f0	0.09837139
208	0x3dfea5c2	0.124339595
209	0xbd068f45	-0.032851476
210	0x3d27caba	0.04096482
211	0x3d52acd6	0.05143436
212	0xbce9d600	-0.028544426
213	0x3dff6fe6	0.12472515
214	0x3d53f6b1	0.051748935
215	0x3dd142b1	0.102177985
216	0x3b7480f6	0.0037308312
217	0xbbd23c45	-0.006415876
218	0x3d93ea54	0.07222429
219	0x3d7d5c7e	0.061855786
220	0x3d93c7b0	0.07215822
221	0xbd7c0086	-0.061523937
222	0x3dffa796	0.12483136
223	0xbd2c50ef	-0.04206937
224	0xbc14f490	-0.009091511
225	0xbd811833	-0.06303444
226	0xbcd6254c	-0.026140831
227	0x3c9fd937	0.019512756
228	0x3d8accb4	0.06777325
229	0xbd065a9d	-0.03280126
230	0x3d84cddc	0.06484577
231	0xbda35a53	-0.07976212
232	0xbc66bb79	-0.014082783
233	0x3cbe84dd	0.023256714
234	0xbd80055f	-0.062510245
235	0xbdab22ca	-0.08356245
236	0xbc18e19a	-0.009331131
237	0x3db10210	0.086429715
238	0xbdbf3a03	-0.09337237
239	0xbc5bc47b	-0.013413544
240	0x3d960c65	0.07326583
241	0x3e1cd2c0	0.1531477
242	0xbd302e44	-0.043012872
243	0x3e0eb337	0.13935553
244	0x3d3365dc	0.043798313
245	0xbdbacb88	-0.09120852
246	0x3e1b387f	0.1515827
247	0x3df8a0be	0.12140034
248	0x3e034598	0.12819517
249	0xbd800844	-0.062515765
250	0xbd8b0d5f	-0.0678966
251	0x3e15b3f7	0.14619432
252	0x3dafe5aa	0.08588727
253	0xbd69175b	-0.05690704
254	0x3cd4a842	0.025959138
255	0xbdb2f91b	-0.08738919

linear_1.bias f4 [64]
0	0x3dccb23a	0.099949315
1	0xbdf895de	-0.1213796
2	0x3c8a9d2c	0.016920649
3	0x3d62d7ec	0.0553817
4	0x3d727764	0.05919589
5	0x3d3af9a4	0.045648232
6	0xbcc64c9b	-0.02420645
7	0x3e05b2c3	0.13056473
8	0x3de69976	0.11259739
9	0x3d86c535	0.06580583
10	0xbdfc488e	-0.12318526
11	0xbd7aff97	-0.061278906
12	0xbdec6031	-0.115417846
13	0x3daf09e9	0.08546812
14	0xbd09d9e3	-0.03365506
15	0x3c8d4172	0.01724312
16	0x3dbf84f9	0.093515344
17	0xbd399e9d	-0.04531728
18	0xbd763319	-0.060107324
19	0x3a01fb62	0.00049584184
20	0x3d688e1f	0.056776162
21	0x3dcf2029	0.10113556
22	0xbd198d4f	-0.037488278
23	0x3ddc9ed3	0.10772481
24	0x3d3c4fca	0.04597453
25	0x3dbd6172	0.09247102
26	0x3d00858e	0.031377368
27	0x3d9a1686	0.07523827
28	0x3c9c1b89	0.019056099
29	0xbc0744c5	-0.008256142
30	0xbd9cb400	-0.0765152
31	0xbdc2164f	-0.09476911
32	0x3d43fe7e	0.047850125
33	0x3d7b36aa	0.06133143
34	0xbde6fea6	-0.11279039
35	0xbda13e50	-0.07873213
36	0x3c8be315	0.017076055
37	0xbd97e59c	-0.074168414
38	0xbd6794b2	-0.05653829
39	0x3d855ae6	0.06511478
40	0x3d528441	0.05139566
41	0xbdafa2b5	-0.08575956
42	0xbd6ecef4	-0.058302835
43	0xbdc16ac3	-0.09444191
44	0x3db46032	0.0880741
45	0x3dbe3f5f	0.09289431
46	0x3ce22c63	0.027609056
47	0xbda0bd84	-0.07848647
48	0x3b8fe33e	0.004391103
49	0xbd677613	-0.05650909
50	0xbba40c14	-0.0050063226
51	0x3de5864f	0.11207258
52	0xbe0126e3	-0.1261249
53	0x3d850913	0.064958714
54	0xbbb732a7	-0.005590755
55	0x3d977842	0.07395984
56	0xbc2e508c	-0.010639321
57	0xbda7f2ec	-0.082006305
58	0xbd8f33bc	-0.069922894
59	0xbdac00ce	-0.08398591
60	0xbd01cdbf	-0.031690355
61	0xbd99588c	-0.07487592
62	0xbbb2b818	-0.0054540746
63	0xbd1b882d	-0.037971664

linear_2.weight f4 [32, 64]
0	0x3ddd6394	0.10810009
1	0xbd4f0fdc	-0.050552234
2	0xbd4303da	-0.047611095
3	0x3d817575	0.06321231
4	0xbd502897	-0.05081996
5	0xbd71891e	-0.058968656
6	0xbd93e75e	-0.07221864
7	0x3c2d543a	0.010579163
8	0xbceac26a	-0.028657157
9	0x3d3b494b	0.045724194
10	0x3be7a2b8	0.007068958
11	0xbdbbf3aa	-0.091773346
12	0x3d91aae2	0.071126714
13	0xbdc664e1	-0.0968721
14	0xbd020718	-0.031745046
15	0xbd058641	-0.032598738
16	0xbd74aa1f	-0.059732553
17	0x3daecfd0	0.08535731
18	0xbb4980a4	-0.0030746842
19	0x3dba5256	0.090977356
20	0xbd27bc8e	-0.040951304
21	0x3d9cfc26	0.07665281
22	0x3dafe030	0.08587682
23	0x3d04d06c	0.03242533
24	0x3e19dd75	0.15025885
25	0xbdb309e8	-0.08742124
26	0x3d079318	0.033099264
27	0xbcbec276	-0.023286086
28	0xbca3e7d1	-0.020008
29	0x3d25e983	0.040505897
30	0x3c61174f	0.013738467
31	0x3bca0cf4	0.006166095
32	0xbd8a9721	-0.06767107
33	0x3dc04b6c	0.093893856
34	0x3dcdb577	0.10044377
35	0x3d841f0a	0.06451233
36	0x3dd7865f	0.10523676
37	0x3e15e2a7	0.14637242
38	0xbdc0fb59	-0.09422941
39	0xbd01eed8	-0.03172192
40	0xbd237cae	-0.039913826
41	0x3cbf5a61	0.023358526
42	0x3c04ac49	0.008097717
43	0xbd9eba48	-0.07750374
44	0xbd4c9588	-0.04994729
45	0xbb83e6d1	-0.004025318
46	0x3dfa42a9	0.12219746
47	0xbcbaa0c2	-0.022781733
48	0x3d60148f	0.054707106
49	0x3c4a6687	0.012353546
50	0x3df4615d	0.11932633
51	0x3d3b50ac	0.04573123
52	0xbd9017d2	-0.07035793
53	0x3ddab91f	0.1067984
54	0x3dedde89	0.11614711
55	0x3d8bd625	0.06827954
56	0xbd665201	-0.05623055
57	0x3e1b2219	0.15149726
58	0x3d003d2a	0.03130833
59	0x3ca58cbb	0.020208707
60	0x3d8045d1	0.062633164
61	0x3a8bf300	0.0010677278
62	0x3e141d3a	0.14464274
63	0x3df98269	0.12183077
64	0x3e03b0c4	0.128604
65	0x3db619c1	0.08891631
66	0x3db9ed5a	0.09078474
67	0x3e17fa6f	0.14841627
68	0xbd7f082e	-0.06226366
69	0x3df1c8b2	0.11805858
70	0x3d3813ec	0.044940874
71	0x3e1506bb	0.14553349
72	0x3de0b161	0.10971332
73	0xbd0c5bde	-0.0342673
74	0xbda394c2	-0.07987358
75	0x3db86329	0.09003288
76	0xbdae1243	-0.08499577
77	0x3dc0b39e	0.09409259
78	0x3d8589a8	0.065203965
79	0xbd042d57	-0.032269802
80	0x3d8a5da8	0.06756145
81	0x3d37d885	0.044884223
82	0xbd4fbf8b	-0.05071978
83	0xbd80d677	-0.06290906
84	0x3dc9cae5	0.09853152
85	0x3cfab9d4	0.030606188
86	0x3d4a09a4	0.0493256
87	0x3d62cfa0	0.055373788
88	0x3e0b22b0	0.13587451
89	0x3cfa2de4	0.03053946
90	0xbd9cadf2	-0.07650365
91	0xbd870afc	-0.06593892
92	0x3e16e972	0.1473749
93	0x3e091ee9	0.13390698
94	0xbcf55330	-0.029946893
95	0xbd78be9b	-0.06072865
96	0xbdb8871c	-0.09010145
97	0x3ddfa688	0.10920435
98	0x3d3aef86	0.045638584
99	0x3df8aebd	0.12142704
100	0xbd9f67c3	-0.07783463
101	0x3a6c4c3f	0.0009014047
102	0xbdc046c2	-0.09388496
103	0x3e061438	0.1309365
104	0xbd88e02c	-0.066833824
105	0x3dfcaaac	0.123372406
106	0xbdcfac74	-0.10140315
107	0x3dede664	0.11616209
108	0x3c86fe97	0.01647882
109	0x3e12ba95	0.14328988
110	0x3d1d8557	0.03845724
111	0xbd8e129f	-0.069371454
112	0xbdac32f3	-0.08408155
113	0xbdea9383	-0.11453917
114	0x3d92887b	0.07154938
115	0xbc05655a	-0.00814184
116	0x3db3eb97	0.087851696
117	0xbd0140e5	-0.03155603
118	0x3d8d53a5	0.069007196
119	0xbdc4ba97	-0.09605902
120	0xbd44b36d	-0.048022676
121	0x3e03654d	0.12831612
122	0x3d076bed	0.03306191
123	0xbc0d2058	-0.008613668
124	0x3db27008	0.087127745
125	0x3bfd55e0	0.0077311844
126	0x3d0c6468	0.034275442
127	0xbc2c9e30	-0.010535762
128	0x3d4cd32f	0.050006088
129	0xbbbbb142	-0.005727918
130	0x3d649429	0.05580536
131	0x3dec3a0b	0.11534508
132	0x3da3ce08	0.07998282
133	0xbd3f90f4	-0.046769097
134	0x3c0d78ef	0.00863479
135	0xbdc960e3	-0.09832933
136	0x3d18886a	0.03723947
137	0xbcf4e415	-0.029893914
138	0xbdf37adb	-0.11888667
139	0xbdc61c58	-0.09673375
140	0xbdda09a4	-0.1064637
141	0x3d157476	0.03648802
142	0xbd2a7907	-0.041619327
143	0x3c7756cf	0.01509638
144	0x3d78164a	0.06056813
145	0x3de8e049	0.11370904
146	0xbde01407	-0.1094132
147	0x3d117c75	0.035519082
148	0xbd848bdd	-0.06471989
149	0x3ce41aa0	0.027844727
150	0xbd2ae218	-0.041719526
151	0xbde074cb	-0.109597765
152	0x3de43b15	0.111440815
153	0x3d8652bf	0.06558751
154	0x3e0006a3	0.12502532
155	0x3e031875	0.12802298
156	0x3d3985d1	0.045293633
157	0x3def701e	0.116913065
158	0xbde0cb60	-0.10976291
159	0x3e0876af	0.13326524
160	0xbc6d5f2c	-0.014488023
161	0xbcab964c	-0.02094569
162	0xbd2f64f7	-0.042820897
163	0xbd71c4f1	-0.05902571
164	0xbdbfac7f	-0.09359073
165	0x3da3f132	0.08004989
166	0xbdd9cef2	-0.10635175
167	0x3d9fc78d	0.07801733
168	0x3defa4b6	0.11701338
169	0xbdaa6793	-0.083205365
170	0xbd87e504	-0.06635478
171	0xbd8c0e53	-0.0683867
172	0x3cc79e94	0.024367608
173	0x3d21cd99	0.039502714
174	0x3e0aedab	0.13567226
175	0x3cc3d310	0.023904353
176	0x3df96b1c	0.121786326
177	0x3d1114bb	0.03542016
178	0xbd7fe8af	-0.062477764
179	0x3e09cd87	0.13457309
180	0xbdf1a7e3	-0.117996
181	0x3ddae528	0.10688239
182	0xbd3fdd22	-0.046841748
183	0x3d196b1e	0.03745567
184	0x3da41911	0.080125935
185	0xbc188c62	-0.009310814
186	0xbd70d094	-0.058792666
187	0x3dae0ada	0.084981635
188	0x3e09eb98	0.13468778
189	0x3b856a80	0.0040715337
190	0x3c2cd1b8	0.010548048
191	0xbd028439	-0.03186438
192	0x3d491205	0.04908945
193	0xbd70e340	-0.058810472
194	0x3db2d901	0.087327965
195	0x3db3156a	0.08744319
196	0x3ddc3645	0.107525386
197	0xbd9fde24	-0.07806042
198	0xbdc8088e	-0.09767257
199	0x3d796c61	0.060894374
200	0x3dcc6340	0.09979868
201	0x3d6b4dcc	0.05744724
202	0x3d247902	0.040154465
203	0x3dacf162	0.084444776
204	0x3e01ef7d	0.12689014
205	0xbdb54236	-0.08850519
206	0x3e0eda60	0.13950491
207	0xbd32ce71	-0.04365391
208	0xbd9ae19a	-0.07562561
209	0xbc55d175	-0.013050427
210	0x3d3c7ccf	0.046017464
211	0xbd65379c	-0.055961236
212	0x3dfe329a	0.12411995
213	0x3d83d2a1	0.06436659
214	0xbcec3f44	-0.028838761
215	0xbd7d7651	-0.061880413
216	0xbcc4d7d3	-0.024028694
217	0x3c6c4960	0.014421791
218	0xbd5ccc08	-0.053905517
219	0x3cc9a084	0.024612673
220	0x3d9f4021	0.077759035
221	0x3d9fda40	0.078053
222	0x3c864c16	0.016393702
223	0xbd18002b	-0.037109535
224	0xbd128f5c	-0.03578125
225	0x3af03a0e	0.0018327849
226	0xbdbaa2b8	-0.091130674
227	0x3c63de68	0.013908006
228	0x3e075131	0.13214566
229	0x3dfedd36	0.124445364
230	0xbd843f96	-0.064574406
231	0xbd74b3aa	-0.059741654
232	0x3a828f7a	0.0009960972
233	0x3e10ddc0	0.14147091
234	0xbce26746	-0.027637135
235	0x3dcd3aed	0.10021005
236	0x3db2b4d4	0.087258965
237	0x3dce640b	0.100776754
238	0x3e049bc8	0.12950051
239	0x3d8aae73	0.06771555
240	0xbd8ba0bc	-0.06817767
241	0xbd2fb6f6	-0.042899095
242	0x3e127b07	0.14304744
243	0x3e02715d	0.12738557
244	0xbd83507f	-0.06411838
245	0xbcc3b864	-0.023891635
246	0xbda2bd60	-0.07946277
247	0x3dfcaa12	0.12337126
248	0x3e00e2e7	0.12586556
249	0x3dd186ee	0.10230814
250	0x3d2aa007	0.04165652
251	0xbd57145d	-0.052509654
252	0x3d6cac20	0.05778134
253	0xbd413ab8	-0.04717514
254	0x3de07327	0.109594636
255	0x3cd682fe	0.026185509

linear_2.bias f4 [32]
0	0x3cb74908	0.022373691
1	0x3c36b363	0.011151168
2	0x3c93be53	0.01803509
3	0x3e01ee35	0.12688525
4	0x3df0ca59	0.11757345
5	0x3ce0a667	0.027423097
6	0xbdebc5da	-0.115123466
7	0xbd4608c9	-0.048348222
8	0x3df72586	0.12067704
9	0x3dd6eefb	0.10494801
10	0x3c0cba63	0.00858936
11	0x3df36564	0.11884573
12	0x3c15a151	0.009132699
13	0xbdcad7a0	-0.099044085
14	0x3cafae32	0.021445367
15	0x3e07c22d	0.13257666
16	0xbd3977c7	-0.045280244
17	0x3da89468	0.08231431
18	0x3b3ac61f	0.0028499437
19	0x3b904fab	0.0044040284
20	0x3db6a84c	0.08918819
21	0xbdca80d9	-0.09887857
22	0x3dae9f65	0.08526496
23	0x3a9af300	0.0011821687
24	0xbdc82acc	-0.09773788
25	0x3d516aa3	0.051127087
26	0xbdfeb0bb	-0.124360524
27	0xbd58a5cd	-0.052892495
28	0x3cce1e33	0.025160884
29	0x3dd74fe4	0.10513285
30	0x3d4dc0f9	0.05023286
31	0x3de37186	0.11105637

linear_3.weight f4 [1, 32]
0	0x3da469aa	0.08027966
1	0x3e0d94f0	0.13826346
2	0x3e51187d	0.20419498
3	0x3d974893	0.07386889
4	0x3e12ab43	0.14323144
5	0xbdac2300	-0.08405113
6	0x3cbcceba	0.023047794
7	0x3d4e2e83	0.050337326
8	0x3d6ba9c6	0.057534955
9	0xbd494a86	-0.049143337
10	0xbc477082	-0.01217282
11	0x3e211f6a	0.1573464
12	0x3de2c468	0.11072618
13	0x3e1cf4ca	0.15327755
14	0x3d809e3f	0.06280183
15	0x3e524885	0.20535477
16	0xbd0b84e3	-0.034062278
17	0x3d1d2145	0.038361806
18	0xbc6f7547	-0.014615363
19	0xbdeb9b3c	-0.11504218
20	0xbe11fba8	-0.14256155
21	0xbdef9670	-0.116986156
22	0x3de76447	0.11298423
23	0x3b8a39be	0.004218309
24	0x3d68b794	0.0568157
25	0xbd5c54c8	-0.05379179
26	0xbdb5db10	-0.088796735
27	0xbdd95969	-0.10612757
28	0x3dabf7da	0.08396883
29	0xbdafc268	-0.08582002
30	0xbd0c09ea	-0.034189142
31	0x3e1fb07e	0.1559467
