ndp/weights/finetune-6.pt (torch, 155247 bytes, 5 tensors)

linear_1.weight f4 [144, 216]
0.004657228 0.021276565 -0.013483151 -0.029260155 -0.03772222 -0.018131351 0.041011013 0.07994228
-0.03770778 0.07763414 0.023088815 0.03851998 0.03430188 0.06895292 0.0009616815 0.051173475
-0.024100812 0.005155862 -0.045200307 -0.04345821 0.040107768 0.05927411 0.04573754 -0.044598345
0.06453995 0.03335233 0.06881899 0.07136429 -0.00065864506 0.019184636 -0.044648252 0.021763872
-0.010516426 0.07932932 -8.617464e-05 0.0046832217 -0.04372186 -0.019268578 0.042177375 0.045710564
0.019247878 0.037523977 0.022513095 0.027975902 0.05220765 -0.040534113 0.058255408 0.036437225
-0.027873984 0.0558321 0.019463733 0.043546226 0.04882565 -0.017751781 0.02115386 0.061698858
0.019209385 0.051422305 0.081575945 0.0029401805 -0.007191615 -0.04875458 -0.03262439 0.0014830056
0.016900796 -0.03119643 0.03147048 -0.011749119 0.006636741 0.076918215 -0.030754115 0.039566975
-0.029681865 -0.02571833 0.0042319363 0.044529755 -0.048365396 -0.0122147035 0.07417899 -0.024157982
0.032099348 0.015735874 0.053977333 -0.009422747 0.0047847736 0.05424962 0.0078889765 0.058245584
0.07289217 0.06910588 0.042698357 0.0037018901 0.063394174 -0.020972 0.06812037 0.043551356
-0.018612716 0.04975779 -0.0013685834 -0.0144120045 0.0055012773 0.06582329 -0.026679795 -0.01713702
0.053766225 -0.0029791617 -0.0050888765 -0.0024364572 0.030087639 -0.021670192 0.037082214 0.07413356
-0.006371984 -0.012092519 0.0010870472 -0.008732949 0.019968428 0.0665288 0.07405879 0.066333935
-0.002787491 0.039727338 0.08034406 0.048360582 0.04071106 0.080358915 0.04570897 0.059812877
0.07021322 -0.037133694 -0.025072008 0.03163672 0.061838835 0.010360874 -0.05010919 0.05594583
0.024927104 0.053836003 -0.00065187307 0.05598974 -0.053513646 -0.03569615 0.06726411 -0.052788697
0.003121662 -0.052251093 -0.007902716 -0.013972662 0.0647788 0.033544257 0.033789556 0.07742875
-0.04760252 0.044370037 0.036815714 -0.048971463 0.027826782 -0.0072678896 0.014577499 0.0053039547
-0.034703873 0.0066611366 0.012633127 -0.027257608 0.030007336 0.012617601 0.07856773 0.069150604
-0.033961765 0.054717682 -0.035272196 0.0034665319 0.015294182 -0.002129579 -0.03672489 -0.045737095
0.034576766 0.030971162 -0.007935874 -0.02859188 -0.00247003 -0.031661328 0.07152139 0.044914845
-0.03987155 -0.0537429 -0.011914948 -0.022430785 0.07812688 0.07829113 0.020259252 -0.0011189202
0.06597365 -0.012910572 0.03260314 0.046690647 0.057323627 -0.0013623516 0.072096944 -0.050232906
0.045032132 0.009899401 -0.035377085 -0.008140487 0.06291892 -0.011789999 -0.040746924 0.038043212
0.06811506 -0.04414672 0.01589205 -0.026979186 0.007041179 0.0455876 0.020797795 -0.0033523608
0.06372642 0.062021714 0.07672419 0.024916938 -0.014985517 -0.04126825 0.022070412 0.036019094
0.020777397 0.0019679887 0.01171081 0.017583182 -0.013906763 -0.0138018895 0.078863055 0.06818781
-0.047067367 0.031559076 -0.01911549 -0.05132828 0.014168255 0.053109508 0.00098882 0.024747588
0.06791228 -0.008021266 -0.007274389 0.0013071955 0.07213828 -0.0043641757 -0.04722147 0.03160064
-0.027016992 -0.0064836945 0.008135265 0.08110556 0.070781104 -0.035792153 0.04462348 -0.022285407
00000000: a99b 983b 314c ae3c 6fe8 5cbc feb2 efbc
00000010: 9d82 1abd 3388 94bc 2afb 273d c7b8 a33d
00000020: 7973 1abd a6fe 9e3d c124 bd3c 20c7 1d3d
00000030: 2180 0c3d 3037 8d3d 5a19 7c3a 479b 513d
00000040: 116f c5bc 81f2 a83b f523 39bd 3c01 32bd
00000050: 0b48 243d 69c9 723d 4957 3b3d c1ac 36bd
00000060: 852d 843d 749c 083d f8f0 8c3d 7127 923d
00000070: eca8 2cba 1929 9d3c 16e1 36bd 264a b23c
00000080: 164d 2cbc 6977 a23d a8b8 b4b8 b675 993b
00000090: b115 33bd 23d9 9dbc 2fc2 2c3d 003b 3b3d
000000a0: baad 9d3c beb2 193d 626d b83c b82d e53c
000000b0: b0d7 553d 1907 26bd 399d 6e3d 333f 153d
000000c0: fb57 e4bc 33b0 643d 6872 9f3c 875d 323d
000000d0: 68fd 473d 2f6c 91bc dc4a ad3c f1b7 7c3d
000000e0: 005d 9d3c 32a0 523d 4a11 a73d 0bb0 403b
000000f0: a4a7 ebbb e2b2 47bd 27a1 05bd 6961 c23a
00000100: 8a73 8a3c a88f ffbc 31e7 003d 607f 40bc
00000110: 0579 d93b 4c87 9d3d 0ef0 fbbc fb10 223d
00000120: 6227 f3bc 3faf d2bc 0eac 8a3b d564 363d
00000130: cb1a 46bd 2e20 48bc 28eb 973d f6e6 c5bc
00000140: 9b7a 033d 85e8 803c 5617 5d3d de61 1abc
00000150: 97c9 9c3b d934 5e3d c440 013c ec92 6e3d
00000160: 7d48 953d 6287 8d3d 79e4 2e3d 699b 723b
00000170: ced4 813d 79cd abbc b182 8b3d e862 323d
00000180: b279 98bc d3ce 4b3d 0a62 b3ba 5420 6cbc
00000190: 0f44 b43b 5cce 863d 968f dabc f062 8cbc
000001a0: f939 5c3d 0a3e 43bb 97c0 a6bb f8ac 1fbb
000001b0: 5a7a f63c b085 b1bc 85e3 173d 56d3 973d
000001c0: 13cc d0bb b31f 46bc 407b 8e3a a514 0fbc
000001d0: d494 a33c 4040 883d 23ac 973d 16da 873d
000001e0: 57ae 36bb 22b9 223d 6d8b a43d bf15 463d
000001f0: a4c0 263d 3793 a43d 5439 3b3d 59fe 743d
00000200: f3cb 8f3d 8019 18bd d063 cdbc 8195 013d
00000210: b84a 7d3d a8c0 293c 4b3f 4dbd 7427 653d
00000220: ed33 cc3c 2483 5c3d 76e2 2aba 7f55 653d
00000230: 2031 5bbd 2036 12bd c4c1 893d f638 58bd
00000240: cc94 4c3b 3e05 56bd 657a 01bc 98ed 64bc
00000250: bfaa 843d b465 093d eb66 0a3d f792 9e3d
00000260: dcfa 42bd 5bbd 353d 13cc 163d 4d96 48bd
00000270: fef4 e33c 7a27 eebb 76d6 6e3c cccc ad3b
00000280: a625 0ebd aa45 da3b 2dfb 4e3c 594b dfbc
00000290: f2d1 f53c 0eba 4e3c 1ee8 a03d d59e 8d3d
000002a0: 7e1b 0bbd a61f 603d 9479 10bd c12e 633b
000002b0: 7394 7a3c 6890 0bbb d76c 16bd d256 3bbd
000002c0: 5ea0 0d3d 3cb7 fd3c 7805 02bc 8539 eabc
000002d0: 3ae0 21bb 4faf 01bd ce79 923d a1f8 373d
000002e0: 5a50 23bd 8421 5cbd ea36 43bc c4c0 b7bc
000002f0: fc00 a03d 1a57 a03d bbf6 a53c bba8 92ba
00000300: 311d 873d dd86 53bc df8a 053d b13e 3f3d
00000310: 2ecc 6a3d ef90 b2ba 90a7 933d 05c1 4dbd
00000320: 9d73 383d 1931 223c 90e7 10bd ad5f 05bc
00000330: a2db 803d d72a 41bc 3fe6 26bd 33d3 1b3d
00000340: e97f 8b3d 31d3 34bd 0b30 823c 7403 ddbc
00000350: b1b9 e63b 10ba 3a3d 2360 aa3c 48b3 5bbb
00000360: ff82 823d 7b0a 7e3d 9221 9d3d 9b1e cc3c
00000370: d085 75bc e608 29bd 02cd b43c c288 133d
00000380: 5c35 aa3c 5ff9 003b b2de 3f3c 9b0a 903c
00000390: 31d9 63bc 5221 62bc f482 a13d 0da6 8b3d
000003a0: b6c9 40bd 1744 013d 1798 9cbc 9a3d 52bd
000003b0: f821 683c 5b89 593d 4b9b 813a 74bb ca3c
000003c0: 9815 8b3d a16b 03bc ff5d eebb 3456 ab3a
000003d0: 3cbd 933d 5c01 8fbb 4d6b 41bd ac6f 013d
000003e0: bd52 ddbc 2c75 d4bb c649 053c ac1a a63d
000003f0: aff5 903d cb9a 12bd 1cc7 363d e38f b6bc

linear_1.bias f4 [144]
-0.0054498077 -0.05329544 -0.05484064 0.016800659 0.043765783 -0.03637181 -0.060474493 0.00050940306
-0.024284404 0.042981625 -0.04042735 0.06865385 -0.045036867 0.0006100347 -0.04712731 -0.0086975675
0.0015691328 -0.028014697 0.00873326 -0.0058559855 -0.029922482 0.033562433 0.013655936 -0.0063009267
-0.02458514 -0.04044589 0.00010299473 0.06384899 0.0506832 0.052080043 -0.050487347 0.05340842
-0.03680195 0.07542645 0.0565542 -0.018841723 -0.008586135 0.047937363 0.0018566898 0.05766281
-0.050563727 -0.0013852997 -0.055511806 -0.006919884 0.028106136 0.024288619 -0.020641968 -0.013175411
0.0034202973 -0.04135072 -0.025364127 -0.0032899103 -0.025168007 -0.016881082 -0.05319287 0.07678586
-0.049402226 0.05858046 -0.021738611 0.008099247 -0.05035867 -0.030908722 -0.031536695 -0.039035633
-0.016320052 -0.04601926 -0.037293177 0.002964813 0.056035426 -0.067583345 0.014100578 0.020264167
0.048093617 0.014297045 -0.034921125 -0.05421952 0.06137279 0.042460114 0.041936133 -0.015289038
-0.03783452 -0.0133875515 0.045937367 -0.046126306 -0.0067310003 -0.048634488 0.020943867 -0.01861491
0.048243377 -0.037026297 0.07302098 0.013708594 0.07065958 0.049188066 0.024897765 -0.01299112
0.024993977 -0.0027034467 0.04335758 0.009874228 0.07304965 -0.047455087 -0.05425839 0.0022058187
0.06560945 0.001342162 -0.023583116 0.0661641 -0.015615737 0.054955456 0.041632663 -0.031116573
0.029698472 0.0018746798 0.042996686 0.041380342 0.05559278 -0.026220355 0.06475806 0.025873695
0.03825987 0.029091733 -0.023848455 -0.028483527 0.06902268 0.040698048 0.070987195 0.001577297
0.028708728 0.06027804 -0.06560537 0.046196558 -0.014606757 0.023762483 -0.053587675 0.06256891
-0.014845226 0.04522805 0.07310109 -0.066970564 0.06526177 0.01946313 0.013962263 0.04748694
00000000: 4d94 b2bb 524c 5abd 94a0 60bd 89a1 893c
00000010: c043 333d 9bfa 14bd 1ab4 77bd 7689 053a
00000020: 16f0 c6bc 800d 303d 2697 25bd 649a 8c3d
00000030: 9478 38bd bcea 1f3a 9108 41bd 3e80 0ebc
00000040: 5cab cd3a 147f e5bc f315 0f3c 91e3 bfbb
00000050: fe1f f5bc c378 093d 26bd 5f3c 0178 cebb
00000060: c766 c9bc 97aa 25bd e0fe d738 42c3 823d
00000070: 3099 4f3d e251 553d d2cb 4ebd cac2 5a3d
00000080: a4bd 16bd 2f79 9a3d 60a5 673d f559 9abc
00000090: dcac 0cbc f859 443d 2c5c f33a d72f 6c3d
000000a0: e91b 4fbd f292 b5ba 5960 63bd 32c0 e2bb
000000b0: d73e e63c edf8 c63c 5819 a9bc aedd 57bc
000000c0: 1127 603b 5f5f 29bd 6ec8 cfbc 899b 57bb
000000d0: 232d cebc 324a 8abc c4e0 59bd e841 9d3d
000000e0: fd59 4abd 10f2 6f3d 2c15 b2bc b4b2 043c
000000f0: e544 4ebd 4a34 fdbc 9f2c 01bd d4e3 1fbd
00000100: a1b1 85bc b17e 3cbd bbc0 18bd 4f4d 423b
00000110: 6785 653d 2369 8abd 1c06 673c 0a01 a63c
00000120: d0fd 443d 273e 6a3c 7409 0fbd 4a15 5ebd
00000130: 0962 7b3d a8ea 2d3d 39c5 2b3d e07e 7abc
00000140: 5ff8 1abd 7657 5bbc d228 3c3d f0ee 3cbd
00000150: b98f dcbb f534 47bd 7992 ab3c 4c7e 98bc
00000160: d99a 453d e3a8 17bd 068c 953d 039a 603c
00000170: f8b5 903d 6d79 493d 66f6 cb3c b5d8 54bc
00000180: 2bc0 cc3c 4f2c 31bb b897 313d 84c7 213c
00000190: 0e9b 953d 4460 42bd 0c3e 5ebd 7f8f 103b
000001a0: 3f5e 863d 7ceb af3a 6131 c1bc 0b81 873d
000001b0: 26d9 7fbc f918 613d 0387 2a3d 2fe8 febc
000001c0: 364a f33c d1b7 f53a 4b1d 303d 6f7e 293d
000001d0: 41b5 633d 12cc d6bc e09f 843d 12f5 d33c
000001e0: 62b6 1c3d c951 ee3c d65d c3bc 4956 e9bc
000001f0: c35b 8d3d ffb2 263d bc61 913d 4ebd ce3a
00000200: 912e eb3c 1be6 763d 1c5c 86bd 9a38 3d3d
00000210: 2e51 6fbc 8aa9 c23c c07e 5bbd 2124 803d
00000220: 6439 73bc 0c41 393d 06b6 953d dd27 89bd
00000230: f6a7 853d 2471 9f3c fac1 643c aa81 423d

linear_2.weight f4 [48, 144]
0.08383945 -0.0676854 -0.06766609 0.016852869 0.07034732 -0.023570063 -0.0035832734 0.015403298
0.029384956 -0.033467002 0.079936646 -0.014852082 0.039965566 0.08564864 -0.05876645 0.06765066
0.08890629 0.024172409 0.06345473 0.0656721 0.029540809 0.03181543 -0.049681086 -0.02808044
-0.050012566 0.076103635 -0.009718417 -0.05307724 0.050806005 0.024640197 -0.01459215 0.077390395
0.043300517 0.077892214 0.0570216 -0.03450842 -0.028323766 0.07842343 -0.045360133 -0.013302364
-0.013076994 0.03246536 -0.05705598 0.038414832 0.0443493 -0.0032092289 0.017871572 0.07406151
-0.069876455 -0.032844953 -0.027879683 -0.025044218 0.0761621 -0.042255647 -0.03201715 0.043169245
0.060899064 0.09162235 0.033942174 -0.0075189588 -0.023511425 0.083485775 0.041189536 -0.06489994
0.052049458 -0.06388576 0.083117716 0.06605162 0.06398315 0.02064259 0.023365732 -0.032156248
-0.03562725 -0.023390925 0.022367574 0.020726683 0.071298815 -0.052374594 -0.06983599 -0.039682228
0.005959988 0.017984157 0.020849563 -0.014044609 -0.06537194 0.0042412896 0.03918992 -0.028393101
-0.07543458 0.080945164 -0.0018915038 -0.013349631 0.023483165 0.04710174 -0.014448876 -0.065433174
-0.004034569 0.013986372 0.021387968 -0.07966157 0.063384786 -0.048609562 0.0052388906 0.052471418
-0.013263086 0.034525566 -0.050177857 0.06306369 0.039909482 0.080749854 -0.00017398398 0.04051445
0.027461844 -0.010103653 -0.04505337 0.07802467 0.046446986 0.050657764 0.042382855 0.039667025
0.00902317 -0.031244704 -0.0060013 0.07519362 0.061641235 0.027771112 0.062278178 0.0640837
0.0062647997 -0.022299971 -0.04518677 -0.04105409 -0.04490133 0.012682329 -0.03733448 0.078402765
-0.029834101 0.08696489 -0.028987397 -0.06461155 0.0364086 0.029040528 0.022094958 -0.06939772
0.07341143 0.03158855 0.04127813 -0.014626148 0.0073320526 0.042362723 -0.067237996 -0.082878135
-0.053933598 0.05040884 -0.082580686 -0.08049781 -0.06921726 -0.02214189 -0.040322147 0.057536885
-0.034068987 -0.03045687 0.01732976 0.058554742 -0.048619166 0.07389266 -0.062707365 -0.00011750225
-0.069444776 0.07671578 0.070917204 -0.011784775 -0.014018875 -0.047501225 -0.050431542 0.06910798
0.0053516715 0.051571343 0.007979079 0.061069895 -0.0532535 0.0223798 0.038617592 -0.016932074
0.07280788 0.069916844 0.024894588 -0.018233478 0.015177804 -0.06489175 -0.050416425 -0.05252148
0.030042736 0.041670084 -0.06711 0.03911668 -0.06135032 -0.073422484 -0.07707096 0.07250925
-0.04902629 0.06240411 -0.04003009 0.012528664 0.023746764 0.01854378 -0.071554944 0.022303319
0.0667172 0.019378439 0.0777756 -0.010042176 0.055556796 -0.08003645 -0.07995806 -0.04063917
0.05938659 0.057801794 -0.08349671 -0.08665192 0.05081207 -0.039675333 -0.069389395 -0.07048383
-0.03303193 0.006944734 0.076456666 -0.049858384 -0.06954879 0.06956934 -0.041161098 0.0027195136
-0.00036443668 0.055963486 -0.03602253 -0.04269942 -0.06860688 0.06087458 -0.030495765 0.06653189
0.0025705486 0.027707728 -0.07044164 -0.014367171 0.06206769 0.044673976 -0.020858139 0.050428588
-0.082604095 0.01464317 -0.025470287 -0.06432022 -0.066690445 0.057116225 -0.061091382 -0.049801573
00000000: 04b4 ab3d a59e 8abd 8594 8abd 070f 8a3c
00000010: 4112 903d 0116 c1bc 5ad5 6abb 1d5e 7c3c
00000020: b8b8 f03c b214 09bd d3b5 a33d 2656 73bc
00000030: efb2 233d 8e68 af3d 17b5 70bd 6e8c 8a3d
00000040: 8014 b63d 3705 c63c 8ef4 813d 187f 863d
00000050: 91ff f13c e550 023d 657e 4bbd f308 e6bc
00000060: fad9 4cbd 39dc 9b3d ff39 1fbc 8567 59bd
00000070: f519 503d 3dda c93c ea13 6fbc db7e 9e3d
00000080: e25b 313d f485 9f3d 7b8f 693d b358 0dbd
00000090: 3e07 e8bc 779c a03d 8ccb 39bd 29f2 59bc
000000a0: e340 56bc 66fa 043d 88b3 69bd df58 1d3d
000000b0: 9da7 353d ed51 52bb 6767 923c 90ad 973d
000000c0: 631b 8fbd 6e88 06bd ef63 e4bc 8829 cdbc
000000d0: e0fa 9b3d 4214 2dbd 6a24 03bd 3cd2 303d
000000e0: 4c71 793d 80a4 bb3d f306 0b3d 9961 f6bb
000000f0: 089b c0bc 97fa aa3d 5cb6 283d 42ea 84bd
00000100: d031 553d 8ad6 82bd 9f39 aa3d 1246 873d
00000110: 9909 833d a61a a93c 7e69 bf3c 45b6 03bd
00000120: e1ed 11bd 539e bfbc 343c b73c 01cb a93c
00000130: 1d05 923d be86 56bd 2c06 8fbd d589 22bd
00000140: 014c c33b 8353 933c b4cc aa3c 5c1b 66bc
00000150: b9e1 85bd 84fa 8a3b 9c85 203d a698 e8bc
00000160: 727d 9abd 94c6 a53d 56ec f7ba 69b8 5abc
00000170: c45f c03c c1ed 403d faba 6cbc d401 86bd
00000180: 6b34 84bb 1927 653c d235 af3c 9b25 a3bd
00000190: e2cf 813d d21a 47bd 00ab ab3b 45ec 563d
000001a0: 6a4d 59bc ae6a 0d3d 4c87 4dbd 8927 813d
000001b0: 2078 233d 2e60 a53d 786f 36b9 7bf2 253d
000001c0: a9f7 e03c cb89 25bc e289 38bd 66cb 9f3d
000001d0: 323f 3e3d 847e 4f3d a599 2d3d e479 223d
000001e0: ebd5 133c e5f4 ffbc 8ea6 c4bb 1dff 993d
000001f0: 857b 7c3d 3e80 e33c 6717 7f3d 513e 833d
00000200: f348 cd3b 6eae b6bc c315 39bd 5528 28bd
00000210: 75ea 37bd 8bc9 4f3c 0aec 18bd a191 a03d
00000220: a566 f4bc a61a b23d fa76 edbc 0f53 84bd
00000230: 2f21 153d 67e6 ed3c 7c00 b53c 6420 8ebd
00000240: bb58 963d ff62 013d 4213 293d 83a2 6fbc
00000250: b741 f03b 8984 2d3d 13b4 89bd 03bc a9bd
00000260: 7ae9 5cbd 8079 4e3d 1020 a9bd 09dc a4bd
00000270: c7c1 8dbd e962 b5bc d628 25bd ccab 6b3d
00000280: ec8b 0bbd b080 f9bc 24f7 8d3c 19d7 6f3d
00000290: e424 47bd 0955 973d b86c 80bd 8a6b f6b8
000002a0: 1039 8ebd 2a1d 9d3d 0a3d 913d ee14 41bc
000002b0: 6caf 65bc a590 42bd 4e91 4ebd 7c88 8d3d
000002c0: 135d af3b 793c 533d afba 023c 6d24 7a3d
000002d0: 5820 5abd d855 b73c 7b2d 1e3d 22b5 8abc
000002e0: 4c1c 953d 9030 8f3d bcef cb3c 605e 95bc
000002f0: 53ac 783c f7e5 84bd 7481 4ebd c320 57bd
00000300: 2f1c f63c 40ae 2a3d f870 89bd d038 203d
00000310: 794a 7bbd 875e 96bd 61d7 9dbd bb7f 943d
00000320: cbcf 48bd 749b 7f3d 97f6 23bd 0745 4d3c
00000330: 9388 c23c 20e9 973c 668b 92bd 73b5 b63c
00000340: 07a3 883d 88bf 9e3c d048 9f3d f087 24bc
00000350: 868f 633d 26ea a3bd 0dc1 a3bd 4275 26bd
00000360: 5a3f 733d 93c1 6c3d 5300 abbd 9076 b1bd
00000370: 5120 503d 9a82 22bd 071c 8ebd d459 90bd
00000380: 7d4c 07bd a790 e33b 5095 9c3d 4e38 4cbd
00000390: 996f 8ebd 5f7a 8e3d 8a98 28bd de39 323b
000003a0: dd11 bfb9 f839 653d 5c8c 13bd 96e5 2ebd
000003b0: c481 8cbd a057 793d 41d2 f9bc df41 883d
000003c0: a676 283b 51fb e23c b543 90bd 4864 6bbc
000003d0: b13a 7e3d 0ffc 363d b0de aabc 358e 4e3d
000003e0: 562c a9bd e8e9 6f3c 10a7 d0bc 52ba 83bd
000003f0: 0095 88bd b4f2 693d f53a 7abd bcfc 4bbd

linear_2.bias f4 [48]
0.07663261 -0.0699412 0.037698165 0.09196975 -0.053148065 0.050263077 0.08699743 -0.02179556
-0.039433777 0.060484838 -0.019839054 0.07486093 -0.04313935 -0.06491582 -0.06556454 -0.058470428
0.020951934 -0.026857046 0.04337579 -0.03385326 -0.062241007 -0.010781113 0.0074763265 0.07324077
-0.033767685 0.04256364 0.038327016 -0.072359584 -0.03395694 -0.013949225 -0.043360293 0.065314315
0.04870278 -0.020553552 -0.0682324 0.0007524796 -0.0026653348 -0.08326193 0.027465383 0.05244244
-0.06296405 0.018977853 -0.07399665 0.064091176 -0.05644157 -0.0014328281 -0.03287021 -0.07238608
00000000: 8ff1 9c3d 553d 8fbd 6469 1a3d a35a bc3d
00000010: c9b1 59bd a8e0 4d3d b52b b23d 9a8c b2bc
00000020: 5085 21bd f3be 773d 8385 a2bc b050 993d
00000030: e3b2 30bd 96f2 84bd b446 86bd b07e 6fbd
00000040: 64a3 ab3c 4f03 dcbc d0aa 313d b7a9 0abd
00000050: 6df0 7ebd 44a3 30bc f9fb f43b 42ff 953d
00000060: fc4f 0abd 3657 2e3d cafc 1c3d 4331 94bd
00000070: 6f16 0bbd 4a8b 64bc 909a 31bd 83c3 853d
00000080: 917c 473d ec5f a8bc 6ebd 8bbd 0d42 453a
00000090: e6ac 2ebb 3b85 aabd 15ff e03c e2cd 563d
000000a0: 4cf3 80bd 7177 9b3c 8e8b 97bd 3c42 833d
000000b0: 472f 67bd bccd bbba eaa2 06bd 273f 94bd

linear_3.weight f4 [1, 48]
0.05750719 -0.112120315 -0.08520091 0.14819466 0.13653496 0.087940104 0.049214788 0.11711148
-0.12418601 0.045332417 -0.123073824 0.11683731 -0.14136614 0.12654904 -0.06410007 -0.11018001
0.11076708 -0.09157692 0.036257148 0.13052474 0.13854691 -0.030208997 -0.12690443 -0.040753353
0.026525151 0.08856142 -0.09536851 0.0981336 -0.12787843 0.15307325 0.10783808 -0.09004159
-0.082813665 -0.08940368 -0.12018231 -0.00034630948 0.05624086 0.011057163 -0.09411535 -0.07650503
-0.032918908 -0.09426836 -0.11560038 -0.028221786 0.09524509 0.0630115 0.022607641 -0.017310644
00000000: a98c 6b3d 569f e5bd d17d aebd 57c0 173e
00000010: d2cf 0b3e f119 b43d 7295 493d 25d8 ef3d
00000020: 3c55 febd 7cae 393d 210e fcbd 6648 ef3d
00000030: 49c2 10be 1296 013e e646 83bd 0fa6 e1bd
00000040: dad9 e23d ae8c bbbd 6082 143d 47a8 053e
00000050: 3edf 0d3e dc78 f7bc 3cf3 01be fdec 26bd
00000060: 464b d93c b15f b53d 9150 c3bd 45fa c83d
00000070: 90f2 02be 3cbf 1c3e 36da dc3d ba67 b8bd
00000080: 369a a9bd 4719 b7bd 2522 f6bd df90 b5b9
00000090: d15c 663d 1a29 353c 8cbf c0bd abae 9cbd
000000a0: fad5 06bd c50f c1bd e4bf ecbd 6031 e7bc
000000b0: dc0f c33d 2c0c 813d a933 b93c 0dcf 8dbc
