ndp/weights/finetune-4.pt (torch, 27311 bytes, 5 tensors)

linear_1.weight f4 [64, 64]
000000 f0 07 01 3c a4 61 0c 3e 81 72 b0 3d 16 3d 92 bc
       0.007875428 0.13709122 0.0861559 -0.017851394
000010 b3 48 7d bd 7b 98 4b bd 07 ce ae bc ec 7d 95 bd
       -0.06183691 -0.049705964 -0.021338476 -0.07299408
000020 41 89 e3 39 8a 6d bd 3d 79 dc d1 bb 9d d3 54 3d
       0.00043399076 0.092494085 -0.006404456 0.051959623
000030 e5 ae 47 3d 5c a5 85 3d 27 d4 8a 3d aa 45 bf 3d
       0.048750777 0.065256804 0.06778746 0.09339459
000040 6c 30 69 bc ee 57 89 bd f8 8d f7 bc 6d 35 f9 3b
       -0.014232736 -0.067062244 -0.030219063 0.007605246
000050 1b 35 19 3e 86 73 9f 3b 5c 93 25 3d d0 fc c3 3d
       0.14961664 0.0048660664 0.040423736 0.095697045
000060 37 d0 82 3b af 22 71 3d db a4 b8 bd df 37 f4 3d
       0.0039921063 0.058870967 -0.09015819 0.11924719
000070 bb 78 73 bd 37 1d 44 bd 99 cc 16 3d 5f 10 ee 3d
       -0.05944131 -0.047879424 0.036816213 0.11624216
000080 23 1e f3 3d 79 2d d4 3c 28 bc 45 3d 12 ae 48 3d
       0.118709825 0.02590059 0.048275143 0.04899413
000090 7f 11 1b 3e db d1 8a bd 95 0a 48 bd c0 f4 0a 3e
       0.15143393 -0.06778308 -0.048838217 0.13569927
0000a0 4e f4 87 bc 17 e2 56 bd f5 a4 d5 3d ca 94 a8 bd
       -0.016595986 -0.05246171 0.10431854 -0.08231504
0000b0 4d 55 97 3d 5b b9 20 3c 6b 24 d9 bb 69 85 d9 3d
       0.07389317 0.009809817 -0.006626656 0.10621149
0000c0 de 8e 99 3d 1b fd a0 bc aa e9 0c 3e 96 7e b5 3c
       0.07497953 -0.01965194 0.13761011 0.022155087
0000d0 6b 04 40 3d a6 a0 8c 3d 1f b3 4d bd d5 da 65 3d
       0.046879213 0.06866579 -0.05021965 0.056116898
0000e0 67 67 f5 3d b8 de 6b 3d 73 8d 25 bd bf 2e a3 3d
       0.11982613 0.057585448 -0.0404181 0.079679005
0000f0 bc a1 09 bd e3 e1 86 bd f4 1d 6d 3d 91 f5 b1 3d
       -0.033601508 -0.06586053 0.057889894 0.08689416
000100 52 5d 0f 3e 7d fc 68 bd 80 8a 60 bc 5c 91 45 bd
       0.14000443 -0.056881417 -0.013704896 -0.04823433
000110 10 f7 b5 3d 2f f0 1d 3d c9 d1 0d 3e 72 1e 97 3d
       0.08885014 0.038559135 0.13849558 0.07378854
000120 38 45 a3 3d f5 20 e6 3c ef af 03 3e 02 cc b8 3d
       0.07972187 0.028091887 0.12860082 0.090232864
000130 e3 6f 2e bd 75 5c e9 bc ef 0f 19 3e 7f 7a 98 bd
       -0.042587172 -0.02848647 0.14947484 -0.07445239
000140 fb 5d 77 3d c2 8e 01 3e fa dd 0d 3e 6d 03 05 3d
       0.06039236 0.12652114 0.13854209 0.03247397
000150 f3 bf 2f 3c 7b fc 08 3e ff d4 04 3d 72 86 bb bd
       0.010726917 0.13377564 0.03242969 -0.09156503
000160 e6 cd 0f 3e b6 b6 86 bd 8c c8 01 3e 67 9c 10 3e
       0.14043388 -0.06577818 0.12674159 0.14122163
000170 41 ab b0 3d 6a 76 8d 3d 72 1c ed 3c e9 0e a3 3d
       0.08626414 0.06907351 0.028944228 0.07961828
000180 08 e8 a3 3c a0 25 fe bc d3 bf 8b 3d 53 50 87 3d
       0.020008102 -0.0310238 0.06823697 0.066071175
000190 1e dc da 3c fc 65 93 bd 88 3e bf 3d 2e 78 7f bd
       0.026716288 -0.07197186 0.09338099 -0.06237047
0001a0 06 51 b0 3d 67 39 bd bd 86 d2 aa 3d 19 fa 83 bd
       0.08609204 -0.09239464 0.083409354 -0.06444187
0001b0 f9 07 26 bd 79 aa da 3d 81 f8 f2 bb 86 63 a1 bd
       -0.040534947 0.10677046 -0.007414878 -0.07880311
0001c0 ba 61 6c 3d f9 81 80 3c 69 74 33 bd d4 78 95 bd
       0.057710387 0.015686976 -0.04381219 -0.07298437
0001d0 24 ee 85 bd 4e 70 de 3d 88 b1 91 3d c9 0a a2 bd
       -0.06539562 0.10861264 0.071139395 -0.07912213
0001e0 35 92 8e 3d 7e c0 a2 bc 95 7e 03 bd 08 61 07 3e
       0.069614805 -0.019867178 -0.03210314 0.13220608
0001f0 13 bb c6 bd 6a cc ad bd 97 d5 bc 3d 6c 34 5c 3c
       -0.0970365 -0.084862545 0.092204265 0.013440233
000200 8c 6b 7a bd 2a f8 c8 3d 03 cd 90 3d 3f 80 3a 3d
       -0.06113772 0.098129585 0.07070353 0.04553246
000210 c1 76 a3 3d 1e 6c 68 3d f8 d3 5f 3d 13 3d 08 bd
       0.07981635 0.056743734 0.05464551 -0.03326137
000220 c5 6c a8 bd bb c6 5c 3d 72 41 34 bd 04 5d 77 3d
       -0.08223871 0.05390046 -0.044007726 0.06039144
000230 e4 97 b4 bd 8c 5d 07 3d a2 ed 80 bc 41 99 d7 bd
       -0.08818033 0.033048198 -0.015738312 -0.10527278
000240 6d 0f 8a bd cc b9 e6 bd 75 d8 90 bc 80 9a 9d bd
       -0.067412235 -0.11265907 -0.01768134 -0.07695484
000250 0a 7d aa bd 3d 49 1b 3d 9f 84 d4 bd f0 3f bc bd
       -0.083246306 0.037911642 -0.10376858 -0.091918826
000260 5d 36 ae bc 05 27 0e be 0a 0b e8 bd 61 3b 33 3d
       -0.021266157 -0.13882072 -0.113302305 0.0437578
000270 00 1e a1 3d a4 ab 7a 3b 76 43 88 3d 85 ff 95 bc
       0.0786705 0.0038249278 0.06653492 -0.018310318
000280 2d 6b 0f be 9d 7e 55 3d a2 e0 e7 3c b6 5a d6 3b
       -0.14005728 0.0521227 0.028305355 0.0065415753
000290 50 41 b8 bd a4 c2 11 be a2 b7 9a 3c 87 7c b8 bd
       -0.08996832 -0.14234406 0.018886391 -0.09008127
0002a0 23 00 ea bd f3 17 4b bd 50 19 73 bd 6b 4b 0a 3d
       -0.11425807 -0.049583387 -0.05935031 0.03376333
0002b0 b7 fc 10 bd 75 6c b3 3c 5b 53 a1 3d 06 1d fa bd
       -0.035397258 0.021902302 0.07877227 -0.12212567
0002c0 62 f3 a1 3d ce d6 9b 3d f0 ab 95 bd 72 0e b7 bd
       0.0790775 0.0760933 -0.07308185 -0.08938302
0002d0 63 cd 8a 3d 88 f3 03 be 94 96 ae 3d 32 a8 77 3c
       0.06777456 -0.12885869 0.08524814 0.0151157845
0002e0 ee 1c 0e 3d 89 78 58 bc 2a ac 46 bd 9c fd b2 3c
       0.03469556 -0.013212332 -0.048504032 0.021849446
0002f0 3f 11 24 bc 3a 11 42 bd e9 1e c0 3d 47 1b c6 3d
       -0.010013877 -0.04737971 0.09380896 0.096731715
000300 67 1c da bd 4b b0 1f bd c4 a6 7a bd 87 8b cb bb
       -0.106499486 -0.038986485 -0.061194196 -0.0062117013
000310 ca 11 c2 bd c6 ee d0 bd 04 93 96 bd ff f4 25 bc
       -0.09476049 -0.102017924 -0.0735226 -0.010129212
000320 00 b2 2e bd 27 ac dc bd 2b 13 8a bc b2 80 52 3d
       -0.042650223 -0.10775023 -0.016854843 0.051392265
000330 e2 4a e0 3c b9 cd 98 3d 89 35 0b bd fb f0 8c bd
       0.027379457 0.074611135 -0.033986602 -0.06881901
000340 0b fd f2 bd b6 2f c5 3c 88 2e 39 bd f8 29 ba bd
       -0.1186467 0.024070602 -0.04521039 -0.09090036
000350 55 d8 b1 3d 94 16 0d 3d 82 32 b3 3c 68 08 73 bd
       0.0868384 0.03444536 0.02187467 -0.05933419
000360 cd 20 70 3d 66 25 a7 3c e3 95 a3 bd 92 f7 d0 3d
       0.05862503 0.020403575 -0.07987573 0.1020347
000370 1e 7d e8 bc 4a bc ef bc 21 c3 eb bd 44 f5 30 3d
       -0.028379973 -0.029264588 -0.11511827 0.043202654
000380 ad be b8 bb 06 d3 d1 bd 62 32 de 3c c5 05 07 3d
       -0.0056379647 -0.10245328 0.027123634 0.032964487
000390 a3 5b d6 bd e1 3f 7a 3d 8f e0 8f 3d ec 39 5e 3d
       -0.10466697 0.061096076 0.07025253 0.054254457
0003a0 d0 f9 29 3c 3b eb 2a bd 83 71 32 3d ac 91 11 3d
       0.010374501 -0.04172824 0.043565284 0.035539314
0003b0 6e b1 a5 bd ac b6 ae bd 8e 5b 55 3c 2f e7 20 3d
       -0.08090483 -0.08530936 0.013022317 0.039282974
0003c0 6d 3f e1 3d 44 ae 65 bd f5 e3 01 3d 67 f3 bb bb
       0.10998426 -0.056074396 0.031711537 -0.005735803
0003d0 fc a0 29 3d cc 38 f2 3d 4e a4 29 bd 33 da 0c bc
       0.041413292 0.118272394 -0.04141646 -0.008596945
0003e0 1d 1b f2 bd 36 e5 bf bc 77 5a df bd e5 a5 bd 3c
       -0.11821578 -0.023424726 -0.10905927 0.023150394
0003f0 ac 90 c2 3c 38 37 54 3d 3b 19 a3 3d eb 1f 38 bd
       0.023750626 0.051810473 0.07963797 -0.044952314

linear_1.bias f4 [64]
000000 a0 4b ba 3b 5e 37 1e 3e ef ba 9a 3d 37 6b 11 bd
       0.0056852847 0.15450808 0.07555186 -0.03550264
000010 84 24 f5 3d c8 3c 25 3e 2d 87 d0 bd eb 7e 63 bc
       0.119698554 0.16136467 -0.10182033 -0.01388524
000020 48 85 0e bd 9a c8 7d 3d e2 4d 76 3c 7c e6 f0 3c
       -0.034795076 0.061958887 0.015033217 0.029406779
000030 12 a5 9c bd 3f a6 70 3d ba d4 ab 3d 31 fd 57 3c
       -0.07648672 0.058752295 0.08390184 0.013182924
000040 c9 71 a8 bc b3 f2 90 bc 26 c4 16 3e 67 df 8a bd
       -0.02056207 -0.017693853 0.14723262 -0.06780892
000050 90 3d f0 3d a1 27 96 bc fb 77 0d bc 30 6f 57 bd
       0.11730492 -0.018329443 -0.008634563 -0.05259627
000060 c6 da 9c bd d7 98 4e 3d f7 8a 30 bd 4c 92 65 3c
       -0.07658915 0.05043873 -0.043101277 0.014011931
000070 50 99 a2 bd a7 bd eb 3d c1 88 3b bd e5 5c 04 3e
       -0.07939398 0.11510783 -0.045784716 0.12926061
000080 35 d6 a5 3c 6e 29 e7 bc 53 05 bb bd 76 fb 85 3d
       0.020243743 -0.028217997 -0.09131875 0.06542103
000090 25 39 e3 bb 37 6a 54 bd a4 4a 31 bd d0 c5 28 3d
       -0.0069343024 -0.051859107 -0.043284073 0.041204274
0000a0 1a 28 ab 3d dd 46 06 bd 0b 1e e0 bd eb f8 b7 bb
       0.08357258 -0.032782424 -0.1094323 -0.00561439
0000b0 f9 1c ba 3d c5 b4 9c 3d 69 57 ad 3b cc 55 17 3e
       0.09087557 0.076516666 0.005289961 0.14778823
0000c0 ce 39 85 3d e3 99 4f bc c0 10 49 bd 70 71 b8 bd
       0.06505166 -0.012670967 -0.04908824 -0.090060115
0000d0 85 f6 d4 3d 9c 35 17 3e 51 0a a1 bd db 7d 17 3c
       0.10398582 0.14766544 -0.07863296 0.009246315
0000e0 d3 78 99 3c 56 2c e9 3d b6 63 95 3c a3 b9 f3 bd
       0.018734371 0.113854095 0.018236022 -0.11900642
0000f0 d9 0c 98 bd 3c be 54 3d 14 3b 10 3e e4 98 9e bc
       -0.074243255 0.051939234 0.14085037 -0.019360013

linear_2.weight f4 [32, 64]
000000 bc 6d 4d bc 0b ef 3f 3d 17 71 7a 3d 9f 18 9f bc
       -0.01253837 0.04685883 0.061143007 -0.01942092
000010 96 b7 89 bc 20 2b 5d 3c a3 48 8f 3d af 8c 1e bd
       -0.016811173 0.013499051 0.06996276 -0.038708385
000020 cb 5e e7 3c 59 b2 c9 3d d9 3c c7 bd 74 99 a9 bd
       0.028243443 0.0984847 -0.09728403 -0.08281222
000030 ad 2c bd bd f1 d0 64 3c c0 37 09 3e 66 eb 4d 3d
       -0.09237037 0.013965831 0.13400173 0.05027332
000040 d6 7c 21 3e e3 d2 06 bc c8 08 b9 3d eb d4 14 3d
       0.15770277 -0.00822899 0.09034878 0.036335867
000050 9a 68 a3 3d 95 16 f1 3c fc e7 15 bd e4 6c 2e 3d
       0.079789355 0.029429713 -0.03659819 0.042584315
000060 aa 07 f4 3d 3b 71 1c bd 87 da c0 3d e5 ae ca 3c
       0.11915524 -0.038193922 0.09416681 0.0247416
000070 e2 a3 a6 bc ab 5d b2 3c 12 14 01 3e f4 c9 8a 3d
       -0.020341817 0.02177318 0.12605312 0.06776801
000080 f9 f5 be 3d 09 b6 85 bd 1d b6 8c bd 08 69 d6 bb
       0.09324259 -0.06528861 -0.06870673 -0.0065432824
000090 12 7d 92 3d 15 67 8c 38 f9 62 98 bd 16 01 8d 3d
       0.071527615 6.694921e-05 -0.074407525 0.06884973
0000a0 80 63 6d 3d 45 5d 89 bc e7 96 d6 bc 65 af 94 bd
       0.05795622 -0.016768107 -0.026195003 -0.07260016
0000b0 0d dc e9 3d 5d a4 2a bc b2 8b 6e 3d 39 47 1a 3c
       0.114189245 -0.010415164 0.058238693 0.009416395
0000c0 be 90 28 3e 16 63 ce 3c 73 c6 4d 3b f0 62 34 3c
       0.16461465 0.025193732 0.0031398803 0.011009917
0000d0 5a 25 84 bd ea 88 8a bd 06 d1 e6 3d ad ff 35 3c
       -0.06452437 -0.067643955 0.11270337 0.011108321
0000e0 cd 32 0d 3c e3 74 3b 3d c6 e8 d5 3c 6f f8 5c 3d
       0.008618069 0.04576577 0.026111972 0.053947862
0000f0 dc 82 14 bd 43 35 02 3d 05 0f 84 3d 04 58 02 3d
       -0.03625761 0.031789076 0.06448177 0.03182222
000100 ec 59 1d 3e 1b 6a 38 bd 16 c4 47 3c 8e 64 7d bd
       0.15366334 -0.045023065 0.012192747 -0.061863475
000110 48 a6 cc 3d 8b 39 79 bd 5e fd a4 bd 8c 8f 9a bd
       0.09992653 -0.060845893 -0.080561385 -0.07546911
000120 81 e4 7c bd 93 9d 04 3e 1e 8e ae bd d2 1f 2a bc
       -0.061741356 0.12950735 -0.085232005 -0.010383563
000130 8b d9 14 bd 2e f6 93 3c 73 fd 21 3e 2f 4b 22 3e
       -0.036340278 0.018061724 0.1581934 0.15848993
000140 d6 89 d2 3d 53 b6 49 bd 9f f2 47 3d b9 d7 a9 3d
       0.10280196 -0.049246144 0.048815366 0.08293099
000150 74 d9 91 3d 45 ac b0 bd 41 22 b8 3d 8e e4 15 bd
       0.07121554 -0.08626608 0.089909084 -0.03659492
000160 c0 33 b7 3b b7 42 dd bd ca a3 bf 3d f1 4b 32 bd
       0.005590886 -0.108037405 0.09357412 -0.043529455
000170 e9 39 bb bc 10 cb 14 3e af 27 c2 bd b5 52 0b 3e
       -0.022854762 0.14530587 -0.09480225 0.13605769
000180 e4 37 0a 3e 7c 7a b1 bd bb 0a 9d bd 37 2a 40 3d
       0.13497883 -0.0866594 -0.07668062 0.04691526
000190 f7 a0 08 3d 30 b4 09 3d 2f 1d c5 bc f0 1a 89 bd
       0.033356633 0.033619106 -0.024061767 -0.06694591
0001a0 79 73 a2 3d b0 f4 21 3d ed 4d 27 3d 61 13 c5 3c
       0.07932181 0.039539993 0.0408458 0.024057092
0001b0 4b 05 d2 bc c9 6d 1d 3e 71 2b 84 bb 21 19 81 bd
       -0.02563729 0.15373911 -0.004033499 -0.06303621
0001c0 b1 3b ce bd 73 18 c1 3d b5 cb 1b 3e 2f e0 01 3d
       -0.10069979 0.094284914 0.15214427 0.03170794
0001d0 04 6f 1b bc 88 3a e1 3d a5 32 9e 3b b5 6a 15 3e
       -0.009486917 0.10997492 0.0048278146 0.14591487
0001e0 16 ab 09 3e b2 5d 5a bc 65 f5 93 bd 46 58 d6 bd
       0.1344417 -0.013328003 -0.0722454 -0.104660556
0001f0 e3 ac 18 3e 9f 8d 04 3d f7 b6 c4 3d 48 c3 ab bd
       0.14909701 0.032361623 0.0960521 -0.08386856
000200 99 c6 db 3b 1f f9 b7 3d e4 0e 12 bd 4e 89 f5 bd
       0.0067070243 0.08983063 -0.035658732 -0.119890794
000210 3a 5f ef bc 38 4f c4 3d 25 2c 3d bd 27 35 07 3e
       -0.029220212 0.09585422 -0.046184678 0.1320387
000220 0e 8d 12 3e ad ec ca 3c 16 7d b8 bd 10 6c ed 3c
       0.1431162 0.024771059 -0.09008233 0.028982192
000230 19 e1 f9 3d 13 ae f0 3d d2 13 92 3d 54 fe 1f 3e
       0.12201137 0.11751952 0.07132687 0.15624362
000240 f5 ad 61 3d 3c 77 9c bd a6 87 7b bd bc 64 ce 3d
       0.05509754 -0.0763993 -0.06140866 0.10077807
000250 ca a3 08 3d 04 36 03 bd e7 d3 05 3e 33 d5 bb 3d
       0.033359326 -0.032033935 0.13069116 0.09171524
000260 2b 6e bf 3d 26 0c dd 3d 98 d3 1e 3e 24 9e fc 3c
       0.09347185 0.10793333 0.15510404 0.030837126
000270 d5 36 3b 3d c0 f2 27 3d 57 dd 08 3d 37 a7 a0 3d
       0.04570659 0.04100299 0.03341421 0.07844394
000280 db 78 52 bc 63 24 69 3d 64 df cc bd 8a ac 65 bc
       -0.012846197 0.056919467 -0.10003546 -0.014018187
000290 15 f2 86 bb 81 c9 01 bd 16 2e 6d bd 86 ea bf 3d
       -0.004118214 -0.03168631 -0.05790528 0.09370904
0002a0 02 3b 44 bd 77 1c cd 3d 7e 86 8b 3d 3d b9 16 bd
       -0.047907837 0.10015195 0.06812762 -0.03679775
0002b0 cf 79 e1 3c e2 43 b3 3d 40 6b 62 bb ed 01 98 bd
       0.027523903 0.08753182 -0.003454879 -0.07422242
0002c0 6c 56 62 3c ec 3b 96 3d fc c2 18 3d 69 e1 88 3d
       0.01381455 0.07335648 0.037295327 0.066836186
0002d0 47 ad 80 3d ce eb 47 3d 3b 5a 0d 3e 8f f9 b1 3d
       0.0628305 0.048808865 0.13803951 0.08690178
0002e0 d2 a2 23 3e 4e 1c 4a bd 70 58 04 3e b3 10 7b 3c
       0.1598008 -0.0493434 0.12924361 0.015323806
0002f0 a6 79 8b 3d c0 ab 43 bd 6d 53 07 3e 9c 84 3e bd
       0.06810312 -0.047771215 0.13215418 -0.046513185
000300 45 a1 76 bc 34 ec 5f 3c f3 c6 d2 3a b2 ca 88 3d
       -0.015053098 0.013667155 0.001608102 0.06679286
000310 ed cb 7a bd 5b 07 b0 bd a9 61 c8 bd 54 24 c4 bd
       -0.061229635 -0.08595153 -0.09784252 -0.095772415
000320 3f e6 a7 3d 9f f5 8d 3d a8 ca a3 bc 8a 79 8c 3a
       0.08198213 0.06931614 -0.019994095 0.0010717374
000330 86 b4 c3 3d a6 f4 0a bb 59 df ca bd b0 fe 0e 3d
       0.095559165 -0.002120295 -0.099058814 0.034910858
000340 b2 f8 5e bd 93 68 da bd 16 5b bc 3c 7c 48 a4 3d
       -0.054436393 -0.10664477 0.022992652 0.08021638
000350 a4 14 d6 3d ec 2c 92 3d c4 a3 5d 3d 89 a1 d0 bd
       0.10453156 0.071374744 0.054111257 -0.101870604
000360 15 e6 22 3d d9 eb 58 3c c6 00 f8 bc 68 99 d6 bd
       0.039770205 0.013239824 -0.030273806 -0.10478479
000370 85 5c db 3c 8a 44 72 bd da 5e 96 bd 23 98 f3 bd
       0.026777515 -0.059147395 -0.0734231 -0.11894252
000380 12 c5 0a bc 1b 91 50 3d 60 40 a0 bd 22 11 21 bd
       -0.008469837 0.050919633 -0.078247786 -0.03932298
000390 4a 81 d1 bd 87 d4 91 bd e0 c0 bc 3c 48 b7 75 bc
       -0.10229738 -0.071206145 0.023041189 -0.014997311
0003a0 08 6b e2 bd fa 53 77 bd 31 a7 b0 3c 55 38 89 bd
       -0.11055571 -0.06038282 0.021564098 -0.067001976
0003b0 d3 d4 23 3d a1 8f e8 3d bd 29 95 bd 7c e0 a8 bd
       0.039997887 0.1135552 -0.072833516 -0.08245942
0003c0 47 b5 6d 3d dc 3f 83 bd 11 a0 46 ba d8 a2 9e 3a
       0.058034208 -0.064086646 -0.00075769523 0.0012102975
0003d0 f7 03 fc bd cb 4d b1 bd aa 7f c6 3d 62 ad fc 3c
       -0.12305444 -0.08657416 0.09692319 0.030844394
0003e0 e2 dd ab bd 85 d2 c7 bd c7 cc 74 3c 9f d7 ed bd
       -0.0839193 -0.0975695 0.014941401 -0.11613392
0003f0 96 09 fd bc a3 4f 30 bd cd 0f 4c bc 88 85 e8 bd
       -0.03088836 -0.043044697 -0.012454939 -0.11353594

linear_2.bias f4 [32]
000000 c9 7a bc 3c ea f5 b2 3d 01 28 11 3e d2 3f bb 3d
       0.023007767 0.08738311 0.14175417 0.09143032
000010 1e 7f 06 3e 7a 8a 14 3e bf 2b e4 bd f4 1f a1 3d
       0.13134429 0.1450595 -0.111411564 0.07867423
000020 4e e5 e4 bc 60 f2 07 3e 14 cd a7 3d c8 b1 81 bd
       -0.027941372 0.13276052 0.081934124 -0.06332737
000030 8a 49 d5 bd 5a a9 c6 3d 5a 4d 0e 3d 19 c2 ba 3d
       -0.10414417 0.0970027 0.034741737 0.091190524
000040 15 cf c8 3a 92 e0 84 3d 73 1c 01 3e 66 79 06 3d
       0.0015320504 0.06488146 0.12608509 0.03283062
000050 a5 71 a4 bd 77 62 29 bd 49 b0 9c 3d 9d 48 e1 3d
       -0.080294885 -0.04135367 0.07650811 0.11000178
000060 69 69 b4 bd 6d b8 48 3b c3 ac 71 bc ab 45 a4 3d
       -0.08809168 0.0030627504 -0.014750662 0.080211006
000070 90 aa 83 3d 75 cd 01 3e 5e 94 ce 3d 9f cb 0b 3d
       0.064290166 0.12676032 0.100868925 0.034129735

linear_3.weight f4 [1, 32]
000000 57 6a 0f 3d 55 ef 1c 3e 3a 16 c2 3d d7 e3 ec bd
       0.035013523 0.15325673 0.09476896 -0.115668945
000010 b8 58 56 3d 30 e4 fc 3d 6d f4 8a bd 73 95 fe bd
       0.052330703 0.12348211 -0.06784902 -0.12430849
000020 e2 b2 09 3e bf e9 b4 3d 46 53 ee 3c 87 3d f8 bd
       0.13447145 0.08833646 0.029092442 -0.121211104
000030 da 8e 2e be 70 57 25 3e c1 e6 53 3e 8d 27 20 3e
       -0.17046681 0.16146636 0.20693494 0.15640087
000040 6b 3f 90 bd 4c 80 33 3e 28 e0 a9 3d 72 38 01 be
       -0.07043346 0.1752941 0.082947075 -0.12619188
000050 5f 2c 1b bc c1 ae d9 bd b7 84 e7 3d 2b 7f 19 bd
       -0.009471028 -0.10629035 0.1130461 -0.037474792
000060 14 4d 51 bd 6b 03 bb 3d c4 17 07 bd b2 e6 12 3d
       -0.051098898 0.09131511 -0.03298165 0.03586454
000070 b3 ed 88 bd 3f 0e 21 3e 8c cc 30 3e 63 f1 28 be
       -0.066859625 0.1572809 0.17265528 -0.16498332
