ndp/weights/finetune-8.pt (torch, 593583 bytes, 5 tensors)

linear_1.weight f4 [256, 512]
0.008701056 0.010575207 -0.017147847 0.0075359815 0.042336028 -0.025941007 0.036461126 0.042347264
-0.025832748 0.020239249 0.0065483064 0.03481117 0.03596142 -0.03177049 0.030576665 -0.0041353106
0.03760782 -0.004281481 0.032598235 0.03963776 -0.007537117 -0.026630381 0.013345503 0.049232963
-0.027922546 -0.01038624 -0.0006773924 -0.0072981087 -0.03247138 -0.03350945 -0.014591947 0.04618825
-0.025998881 -0.016724233 -0.017253913 -0.032735784 -0.01734488 0.024562212 0.04310831 0.043180514
-0.011164797 0.016767979 -0.029336743 -0.02021706 -0.022488043 0.04106456 -0.024252288 0.022792809
0.028646076 0.03717785 -0.005587502 -0.0008384085 -0.027942112 -0.023859834 0.024094328 0.044919223
0.0054963953 0.009759228 0.0043533444 -0.032824498 0.036206033 -0.0189907 0.007601523 0.012588617
-0.031822104 0.02251878 -0.009980546 0.024124905 0.05000435 -0.013090766 0.045991577 0.045321107
-0.011281856 -0.020377768 -0.019493626 -0.013835039 0.03828642 -0.03597648 0.012766125 -0.0032665401
0.0017774783 -0.023980599 -0.002709431 -0.012397083 0.034793686 0.035985406 -0.0294267 -0.017202087
0.004366492 0.018243244 -0.02104341 0.030169373 0.047760088 0.045710023 0.048607316 -0.020101342
-0.02651774 0.0174961 0.025187327 0.04676476 -0.03315266 0.028205872 -0.022567408 -0.03055566
-0.029215762 0.0011079023 -0.023751345 -0.015673675 0.0051911366 0.030636894 0.038906127 -0.019620124
-0.009555443 -0.009613464 0.021352928 0.03930221 0.013535358 0.030894779 -0.0038180111 0.0007041765
-0.029230142 0.042226102 -0.0070492644 0.03956491 -0.020078031 -0.015673772 -0.030843938 -0.020698996
-0.028164677 0.022702629 -0.022524886 -0.007376493 -0.016699264 -0.004349015 -0.007638659 0.007843477
-0.0005303549 -0.009721429 -0.014155452 0.027500616 -0.021206185 0.0007496968 -0.021177221 -0.009319983
-0.0035841956 -0.0021522976 -0.031729165 0.017493542 -0.027464505 0.026490008 0.020228686 0.028753987
-0.015602979 -0.022455234 0.008409771 0.030977363 0.044118665 -0.030749751 -0.011260045 0.0020869959
0.032767206 -0.005050174 -0.023498511 -0.032635085 0.021707539 -0.023309667 -0.00078960246 0.04989025
-0.00706528 -0.026440656 -0.0196839 0.016987724 -0.015925886 -0.014164572 -0.013030294 0.051406182
0.042169034 0.048707668 -0.021793555 -0.012003515 0.035308857 -0.03547408 -0.028433189 0.044915717
-0.010082233 0.040783376 0.027753728 -0.025936853 0.02759394 0.011655729 0.0052984715 0.037951138
-0.0343067 0.0014333952 -0.021339038 -0.021924872 -0.022181595 0.046834547 0.009875107 0.04174527
0.047963336 -0.02253679 -0.004215139 0.03219661 0.012211762 0.04778601 0.017999448 -0.0021705849
-0.027663544 0.024695447 0.001767268 0.019710243 0.02878765 -7.324578e-05 0.013458504 0.011640416
0.048365805 0.03371121 -0.03609919 0.029537925 0.017756889 0.03733601 -0.02769006 0.012049271
0.050598502 0.049714733 0.02138392 0.051356845 0.0021646917 0.05081201 -0.029558863 0.019882973
-0.024909241 0.0053789825 -0.0032065678 -0.012445032 0.046248823 -0.014571148 -0.027085543 0.041641608
0.012133423 0.0028514604 -0.028090667 0.017661152 0.0055983854 0.018740218 0.045374636 0.029732158
-0.010334122 0.05002234 -0.003087266 -0.001437178 0.0346576 -0.030661983 0.030234972 0.042199668
00000000: e08e 0e3c a243 2d3c a479 8cbc 65f0 f63b
00000010: 8b68 2d3d 3c82 d4bc 4358 153d 5374 2d3d
00000020: 339f d3bc c8cc a53c 2d93 d63b 2896 0e3d
00000030: 484c 133d c621 02bd ea7b fa3c 8081 87bb
00000040: a80a 1a3d aa4b 8cbb ba85 053d 345b 223d
00000050: ecf9 f6bb f527 dabc 19a7 5a3c 81a8 493d
00000060: d3bd e4bc 0c2b 2abc 0993 31ba f924 efbb
00000070: b600 05bd 3441 09bd 1013 6fbc e42f 3d3d
00000080: 9bfb d4bc 4201 89bc 1458 8dbc f515 06bd
00000090: da16 8ebc b136 c93c 5792 303d 0dde 303d
000000a0: 8dec 36bc 005d 893c 9c53 f0bc 3f9e a5bc
000000b0: d838 b8bc 5033 283d bcac c6bc fcb7 ba3c
000000c0: 2dab ea3c cd47 183d 5d17 b7bb a4c8 5bba
000000d0: dbe6 e4bc b375 c3bc 7861 c53c 38fd 373d
000000e0: 1b1b b43b 2be5 1f3c 80a6 8e3b fb72 06bd
000000f0: c74c 143d 6292 9bbc 3216 f93b 7d40 4e3c
00000100: e557 02bd 4e79 b83c 7285 23bc 98a1 c53c
00000110: 5cd1 4c3d a77a 56bc aa61 3c3d a0a2 393d
00000120: 89d7 38bc 47ef a6bc 19b1 9fbc 5cac 62bc
00000130: 39d2 1c3d 135c 13bd 0229 513c 7313 56bb
00000140: 46fa e83a f672 c4bc b690 31bb 231d 4bbc
00000150: d383 0e3d 6f65 133d 4310 f1bc 64eb 8cbc
00000160: ca14 8f3b db72 953c 3b63 acbc c325 f73c
00000170: 15a0 433d 6f3a 3b3d 7718 473d 92ab a4bc
00000180: bb3b d9bc fb53 8f3c a755 ce3c 688c 3f3d
00000190: 15cb 07bd 0010 e73c 49df b8bc dd4f fabc
000001a0: e555 efbc 0837 913a 2e92 c2bc 1466 80bc
000001b0: 691a aa3b 39fa fa3c 085c 1f3d 62ba a0bc
000001c0: 6f8e 1cbc ca81 1dbc 56ec ae3c 5bfb 203d
000001d0: 68c3 5d3c 0c17 fd3c 9937 7abb 7c98 383a
000001e0: 0d74 efbc 47f5 2c3d 84fd e6bb d10e 223d
000001f0: af7a a4bc 4866 80bc 6dac fcbc f190 a9bc
00000200: 9cb9 e6bc ddfa b93c 1c86 b8bc 82b6 f1bb
00000210: e5cc 88bc 2f82 8ebb b74d fabb ed81 003c
00000220: 8407 0bba a146 1fbc 45ec 67bc f948 e13c
00000230: 98b8 adbc 4d87 443a da7b adbc d8b2 18bc
00000240: d3e4 6abb 900d 0dbb 71f6 01bd 9e4e 8f3c
00000250: 3efd e0bc 9301 d93c a1b6 a53c 7b8d eb3c
00000260: a3a3 7fbc 0af4 b7bc 23c9 093c 3dc4 fd3c
00000270: c6b5 343d e7e6 fbbc 0d7c 38bc fbc5 083b
00000280: e836 063d ee7b a5bb f37f c0bc 5eac 05bd
00000290: 02d4 b13c eaf3 bebc 53fd 4eba b859 4c3d
000002a0: dd83 e7bb 139a d8bc 2140 a1bc d729 8b3c
000002b0: 0177 82bc 8512 68bc 047d 55bc 4a8f 523d
000002c0: 70b9 2c3d b181 473d 6688 b2bc 64aa 44bc
000002d0: 05a0 103d 454d 11bd b8ec e8bc 8bf9 373d
000002e0: f32f 25bc 780c 273d c95b e33c 8679 d4bc
000002f0: b00c e23c acf7 3e3c cd9e ad3b a772 1b3d
00000300: 2f85 0cbd c3e0 bb3a 35cf aebc ca9b b3bc
00000310: 2db6 b5bc 95d5 3f3d 33cb 213c 17fd 2a3d
00000320: 3475 443d 139f b8bc 261f 8abb 98e0 033d
00000330: d813 483c 43bb 433d 9473 933c 5f40 0ebb
00000340: a89e e2bc 1b4e ca3c ada3 e73a 6077 a13c
00000350: 14d4 eb3c 879b 99b8 0f81 5c3c 72b7 3e3c
00000360: 391b 463d c414 0a3d bfdc 13bd 85f9 f13c
00000370: e576 913c a5ed 183d 44d6 e2bc 4e6a 453c
00000380: 6040 4f3d ada1 4b3d 552d af3c 8e5b 523d
00000390: 80dd 0d3b 4120 503d 6e25 f2bc 9ee1 a23c
000003a0: 770e ccbc 2d42 b03b 4825 52bb 3fe6 4bbc
000003b0: 686f 3d3d d3bb 6ebc 80e2 ddbc 6490 2a3d
000003c0: 44cb 463c 91df 3a3b 661e e6bc 1fae 903c
000003d0: a972 b73b 1685 993c c1da 393d db90 f33c
000003e0: 7350 29bc 3ae4 4c3d bb53 4abb b15f bcba
000003f0: 21f5 0d3d d72e fbbc 55af f73c 8fd9 2c3d

linear_1.bias f4 [256]
-0.00052812486 -0.040794734 -0.016987229 0.016794309 -0.005183546 0.04979572 0.019152593 0.018423581
-0.04435452 0.034885924 0.028178131 -0.013511103 -0.008551016 0.031533387 0.007993037 0.04780966
0.024945607 0.027142165 0.013696054 -0.022249786 0.0011623026 0.04219767 0.0306563 -0.034460787
-0.0029601261 0.011052398 -0.029261673 -0.040956713 0.00299017 -0.02744422 -0.034146987 -0.020221429
0.0018724425 -0.005876135 -0.024038313 -0.03128999 0.030855391 -0.04010964 -0.040591758 0.040383108
0.03223724 -0.024634806 0.016410736 0.0015254857 0.037035707 0.021424878 -0.035613537 0.011254179
-0.0042241607 -0.014358108 -0.039148655 -0.0428473 0.052067723 0.0015831564 0.024913296 0.009176362
0.021569405 -0.030202413 -0.044141673 -0.0071397354 0.019088171 -0.028258 0.025410602 -0.015798528
0.0484003 0.0032679255 -0.011819876 -0.022083508 -0.041186415 0.03890419 -0.00084255234 -0.029461
-0.012873176 -0.035458636 -0.038401652 0.007032501 -0.002316105 0.051391114 0.010609421 -0.012223394
-0.0068300883 0.002590566 0.03446407 -0.0045318287 -0.021747727 -0.0038265116 -0.048250567 0.022004575
0.0054040123 0.024275988 -0.0115451645 -0.014136615 0.0019114336 -0.04349913 0.00017820994 0.047070704
-0.013468617 -0.027659323 0.024980523 -0.014100153 -0.028620448 -0.026714528 -0.0067177042 -0.0028622753
-0.0043392037 0.011477378 -0.025761975 0.006483953 -0.042082924 -0.021878472 -0.03213363 0.014110217
0.023011249 0.015815975 0.05120346 -0.016247582 -0.028409094 0.017915126 0.019604746 0.039617978
-0.013273077 -0.03417679 0.046342324 -0.0013263085 0.0056434497 -0.016036514 -0.0029803477 -0.014006756
-0.026406739 -0.034171283 -0.032857638 0.025168248 -0.005940606 -0.03298004 0.029351914 -0.03764684
0.022277007 -0.0035767974 0.03638783 -0.0076787304 -0.018039964 -0.035536338 -0.0074185575 0.017139236
0.0065309154 -0.016106889 0.034657054 0.013865455 -0.012906905 -0.011113811 0.038903918 -0.013640954
0.028101321 -0.031173056 -0.0066733314 0.013969195 -0.027837232 0.027281024 0.0052769925 -0.012819482
-0.02786401 -0.016555313 0.027563069 0.033965115 -0.028160742 0.03345392 0.04721337 -0.025443442
-0.03490555 0.023317797 -0.024909623 -0.029888509 0.014350885 -0.012562234 0.030965883 -0.018702172
0.024814181 -0.0073546274 0.013627215 0.02395224 -0.04790592 0.028682806 0.024415184 -0.003676333
0.038280156 -0.011428976 0.02302125 0.042217635 0.024141392 -0.015263308 -0.009489906 0.024180429
0.034520287 0.02211188 0.005537878 -0.039588667 0.0387198 -0.015780032 -0.027408307 -0.040773492
-0.028806182 0.007087105 -0.0016812658 0.024879547 0.03878448 -0.021222739 -0.01811119 0.039009135
0.02718181 -0.0047804867 -0.00011674483 -0.0128455665 0.028329397 -0.040283713 0.0074803443 0.0064162095
0.021896029 -0.001739008 -0.03535683 0.038411696 0.029903285 -0.029811528 0.035025995 0.003610718
-0.019557897 -0.011862984 -0.013505002 -0.01402889 0.02644775 0.0013335661 -0.012169986 0.012380829
0.021197049 0.02323829 0.0020686486 -0.026930045 -0.0011448364 -0.028419066 0.04605705 0.0011855153
-0.004821022 0.04298319 0.009091976 0.03903874 -0.03435377 -0.036250226 0.03292783 0.040776517
-0.04590363 0.018937038 -0.014053547 -0.013050034 0.007832306 -0.025036829 0.0034265756 0.0125763435
00000000: dc71 0aba 6118 27bd cd28 8bbc 3894 893c
00000010: bcda a9bb 99f6 4b3d e6e5 9c3c 0ded 963c
00000020: 16ad 35bd 8be4 0e3d d3d5 e63c ac5d 5dbc
00000030: 9019 0cbc 2729 013d 3af5 023c 10d4 433d
00000040: bb5a cc3c 3f59 de3c 6a65 603c 2f45 b6bc
00000050: 6758 983a 77d7 2c3d ec22 fb3c c126 0dbd
00000060: adfe 41bb 1e15 353c 2db6 efbc 3ac2 27bd
00000070: baf6 433b b3d2 e0bc b6dd 0bbd 69a7 a5bc
00000080: bf6c f53a 988c c0bb ffeb c4bc ef29 00bd
00000090: 72c4 fc3c 024a 24bd 8b43 26bd c268 253d
000000a0: 320b 043d efce c9bc cf6f 863c cef2 c73a
000000b0: c1b2 173d 3a83 af3c 80df 11bd 7363 383c
000000c0: d46a 8abb 453e 6bbc 575a 20bd a780 2fbd
000000d0: f744 553d ea81 cf3a f816 cc3c 7458 163c
000000e0: 52b2 b03c 0d6b f7bc e6cd 34bd 71f4 e9bb
000000f0: cc5e 9c3c 527d e7bc e529 d03c ea6b 81bc
00000100: 653f 463d b12a 563b 27a8 41bc 79e8 b4bc
00000110: 16b3 28bd 005a 1f3d bbde 5cba 3258 f1bc
00000120: 03ea 52bc 133d 11bd 0d4b 1dbd e570 e63b
00000130: cbc9 17bb 7d7f 523d 23d3 2d3c a144 48bc
00000140: efce dfbb 7cc6 293b 322a 0d3d bc7f 94bb
00000150: 4a28 b2bc 36c6 7abb 63a2 45bd f042 b43c
00000160: 2414 b13b 70de c63c ee27 3dbc 439d 67bc
00000170: 1289 fa3a 252c 32bd dedd 3a39 36cd 403d
00000180: 79ab 5cbc ce95 e2bc f4a3 cc3c 5404 67bc
00000190: 6e75 eabc 6dd8 dabc 3020 dcbb 0395 3bbb
000001a0: e12f 8ebb 9d0b 3c3c c70a d3bc 5777 d43b
000001b0: 255f 2cbd 7b3a b3bc 8e9e 03bd 8a2e 673c
000001c0: 1682 bc3c 8190 813c b8ba 513d a619 85bc
000001d0: 30ba e8bc bec2 923c 229a a03c 7646 223d
000001e0: 5277 59bc f6fc 0bbd 73d1 3d3d 87d7 adba
000001f0: b0ec b83b 025f 83bc f051 43bb 987c 65bc
00000200: f252 d8bc 30f7 0bbd bb95 06bd a42d ce3c
00000210: 6aa9 c2bb 1416 07bd 6d73 f03c 9333 1abd
00000220: 457e b63c b468 6abb 680b 153d dc9d fbbb
00000230: 8cc8 93bc 8d8e 11bd 5f17 f3bb 9567 8c3c
00000240: 4a01 d63b 98f2 83bc 8ef4 0d3d ef2b 633c
00000250: 7c77 53bc b416 36bc b759 1f3d 4f7e 5fbc
00000260: be34 e63c a35e ffbc f6ab dabb 0ddf 643c
00000270: e80a e4bc 747c df3c 9fea ac3b ce08 52bc
00000280: 1043 e4bc 029f 87bc f2cb e13c 011f 0b3d
00000290: 5bb1 e6bc fa06 093d cf62 413d c46e d0bc
000002a0: 1ff9 0ebd f704 bf3c 440f ccbc bfd8 f4bc
000002b0: f91f 6b3c d4d1 4dbc 2aac fd3c 4c35 99bc
000002c0: 1c47 cb3c 16ff f0bb af44 5f3c 7d37 c43c
000002d0: ff38 44bd 34f8 ea3c 5a02 c83c a2ee 70bb
000002e0: a7cb 1c3d 9a40 3bbc 0f97 bc3c 66ec 2c3d
000002f0: 2bc4 c53c f412 7abc 8d7b 1bbc 0916 c63c
00000300: 2565 0d3d f923 b53c 1677 b53b ba27 22bd
00000310: a798 1e3d 2045 81bc 6387 e0bc 1b02 27bd
00000320: f1fa ebbc f23a e83b eb5d dcba 31d0 cb3c
00000330: 7adc 1e3d 4fdb adbc eb5d 94bc 0bc8 1f3d
00000340: 63ac de3c a1a5 9cbb e7d4 f4b8 3676 52bc
00000350: 0d13 e83c 8900 25bd ad1d f53b 113f d23b
00000360: 4d5f b33c 6def e3ba 53d2 10bd 9555 1d3d
00000370: bcf7 f43c 4e37 f4bc 6b77 0f3d cca1 6c3b
00000380: e237 a0bc f65c 42bc 1544 5dbc 6ed9 65bc
00000390: f4a8 d83c 0ecb ae3a 9f64 47bc f6d8 4a3c
000003a0: 6fa5 ad3c 3a5e be3c 2a92 073b 669c dcbc
000003b0: 560e 96ba 1acf e8bc 51a6 3c3d 4b63 9b3a
000003c0: aaf9 9dbb 240f 303d 83f6 143c 16e7 1f3d
000003d0: 8ab6 0cbd 1e7b 14bd 55df 063d 4705 273d
000003e0: 7205 3cbd d921 9b3c d940 66bc cfcf 55bc
000003f0: 1353 003c 091a cdbc 6690 603b 020d 4e3c

linear_2.weight f4 [64, 256]
0.029517472 0.045484155 0.06444489 0.021632122 -0.040343113 -0.053028855 -0.031503428 0.0074373856
-0.0014789671 -0.004094058 0.041871402 0.012161434 -0.057470035 0.029290996 0.033526886 0.06518489
0.0035174391 0.05843606 0.049516633 0.03632289 -0.016615732 0.018067805 0.03599198 0.016740851
-0.021228252 -0.048300873 0.060566936 0.027878871 0.04649923 -0.005936119 -0.0022503661 0.04345574
-0.03232281 0.02457484 -0.033645242 0.064566225 -0.015521979 0.01990054 -0.05052454 0.03621131
0.05168405 0.0037383628 -0.010571594 0.027903864 -0.057864513 -0.0009702466 0.045196652 -0.010505448
0.025475651 -0.043615982 0.048941776 0.060044758 0.01584329 -0.0062903343 -0.009962026 -0.03841444
-0.03691384 -0.018263709 -0.034184508 -0.00522563 -0.03362739 0.015971387 0.005229178 0.049081143
0.004555684 -0.024976775 -0.024257971 -0.037930474 0.034525454 0.014543175 0.05277115 0.044099834
-0.052542534 0.03698665 0.011593382 -0.048797853 0.02492421 0.056232627 0.005524991 -0.025603905
-0.011705927 -0.012808151 -0.0049073976 -0.028865438 0.017261103 0.04528692 -0.04004847 0.019201547
0.03400925 0.02538181 0.030620461 0.052823894 -0.022436231 -0.058290396 -0.005187591 0.031045377
-0.017846894 -0.044050448 -0.033166617 -0.00063296576 0.03520028 -0.0018785462 0.041813027 -0.0136486
0.052889176 0.045581006 -0.00061502174 0.06790402 0.007739606 -0.006690242 -0.0096423365 -0.012056932
0.020694964 0.033464424 0.039232127 0.05460258 -0.052030917 0.046657145 0.004190929 -0.018926058
0.06342341 -0.05153662 0.06758022 0.011547983 0.028632386 0.024426164 -0.032649558 -0.04503134
0.0057351664 0.029380478 0.02982774 -0.01678727 -0.00046286732 0.049216002 0.0163965 -0.013224285
-0.019400576 -0.008181567 0.03445428 -0.020411806 0.039201304 0.037742157 0.0070024803 -0.046536505
0.06576527 0.06756549 0.051806398 0.062744126 0.045796543 0.0423042 0.030132214 0.03397372
-0.035452843 0.032825187 0.0016596364 -0.052948914 0.0055814357 -0.056611698 -0.031578697 0.04888907
-0.021388924 -0.022056542 0.011690316 0.055751596 0.04121295 0.043413386 -0.055157345 -0.0015710555
-0.000254958 -0.025721949 0.032730397 0.04697028 0.039279696 0.032686546 -0.05441569 -0.056897923
0.03506113 -0.048623092 0.017427767 -0.053587858 -0.053089604 -0.004363472 -0.054755818 0.013722419
0.009883116 -0.02569179 0.013414074 0.01644387 0.0303743 -0.044796124 0.060709607 0.010767629
-0.0053387717 0.064321384 0.028478056 0.0073559317 -0.012686844 0.009302351 0.013390013 -0.040895406
0.044857476 0.0061864587 -0.026222108 0.020893157 -0.050674476 0.015791703 0.03454787 0.012236232
-0.0041458025 -0.024160815 0.061695695 0.05895733 -0.013148278 0.021763759 0.04854526 -0.03609671
-0.04521946 0.009656252 0.04556623 0.060852002 0.0036131109 -0.057227716 0.06694314 0.00339641
0.020587921 -0.016463825 -0.0366017 0.041160986 -0.034144044 0.019590048 0.048127018 0.061409608
0.04622758 -0.0062684896 0.026111824 -0.05032962 -0.025807546 -0.045609046 0.043196555 0.0009979423
-0.0033164837 0.05712994 0.0476779 -0.018414948 -0.047988836 -0.0118441535 -0.013407908 -0.038583577
-0.036639273 -0.013086845 -0.025497887 -0.028108679 -0.0060611363 0.06227931 -0.015203604 -0.038226444
00000000: a0ce f13c 984d 3a3d affb 833d d935 b13c
00000010: d23e 25bd c934 59bd bd09 01bd 50b5 f33b
00000020: e7d9 c1ba 7327 86bb 5981 2b3d c040 473c
00000030: b365 6bbd acf3 ef3c 7d53 093d a87f 853d
00000040: d684 663b a65a 6f3d f4d1 4a3d 50c7 143d
00000050: b71d 88bc ef02 943c 546c 133d 1c24 893c
00000060: dfe6 adbc 23d7 45bd 0915 783d 3b62 e43c
00000070: fa75 3e3d c683 c2bb e17a 13bb a5fe 313d
00000080: ec64 04bd 2d51 c93c 98cf 09bd 4c3b 843d
00000090: e64f 7ebc 7506 a33c d2f2 4ebd 5052 143d
000000a0: a8b2 533d 52ff 743b 7b34 2dbc a596 e43c
000000b0: 5703 6dbd 2658 7eba 2020 393d 0b1f 2cbc
000000c0: 50b2 d03c aca6 32bd 2c77 483d 7ef1 753d
000000d0: cac9 813c 261f cebb c437 23bc 7658 1dbd
000000e0: f732 17bd c69d 95bc 0e05 0cbd c33b abbb
000000f0: e0bc 09bd 6dd6 823c 8659 ab3b 4f09 493d
00000100: d947 953b 189c ccbc a7b8 c6bc fc5c 1bbd
00000110: 906a 0d3d 7f46 6e3c 9026 583d 07a2 343d
00000120: d736 57bd 507f 173d 2bf2 3d3c 42e0 47bd
00000130: db2d cc3c 2f54 663d fc0a b53b 48bf d1bc
00000140: 37ca 3fbc 47d9 51bc 3cce a0bb 3677 ecbc
00000150: 2867 8d3c c77e 393d dd09 24bd 904c 9d3c
00000160: 494d 0b3d 83ed cf3c c3d7 fa3c de5d 583d
00000170: 30cc b7bc e9c1 6ebd abfc a9bb e052 fe3c
00000180: a633 92bc 3e6e 34bd b8d9 07bd 9ded 25ba
00000190: 2b2e 103d 8d39 f6ba 2344 2b3d 619e 5fbc
000001a0: 52a2 583d 26b3 3a3d 6939 21ba 4311 8b3d
000001b0: 859c fd3b d139 dbbb e4fa 1dbc 708a 45bc
000001c0: 7c88 a93c fe11 093d deb1 203d f4a6 5f3d
000001d0: 5f1e 55bd 901b 3f3d 0f54 893b d20a 9bbc
000001e0: 22e4 813d 1018 53bd 8067 8a3d c033 3d3c
000001f0: 778e ea3c 6119 c83c 8bbb 05bd c872 38bd
00000200: 10ee bb3b 54af f03c 4e59 f43c 7585 89bc
00000210: 00ad f2b9 b896 493d f451 863c acaa 58bc
00000220: f5ed 9ebc fb0b 06bc ee1f 0d3d a936 a7bc
00000230: 8c91 203d 8597 1a3d 1075 e53b 109d 3ebd
00000240: f1af 863d c75f 8a3d f232 543d fe7f 803d
00000250: 2895 3b3d 2b47 2d3d d5d7 f63c 0728 0b3d
00000260: 0037 11bd b473 063d 2888 d93a f6e0 58bd
00000270: 7ae4 b63b abe1 67bd aa58 01bd e83f 483d
00000280: d337 afbc ecaf b4bc bd88 3f3c c95b 643d
00000290: e9ce 283d 3cd2 313d abec 61bd e0eb cdba
000002a0: e2ab 85b9 d6b6 d2bc 4f10 063d e963 403d
000002b0: bfe3 203d 54e2 053d fde2 5ebd cc0d 69bd
000002c0: 429c 0f3d 0229 47bd adc4 8e3c f17e 5bbd
000002d0: 7c74 59bd 75fb 8ebb a347 60bd ffd3 603c
000002e0: cbec 213c 9777 d2bc b4c6 5b3c 4bb5 863c
000002f0: 86d3 f83c 247c 37bd a3aa 783d b66a 303c
00000300: ddf0 aebb eeba 833d d04a e93c 070a f13b
00000310: 7bdc 4fbc e368 183c c961 5b3c f181 27bd
00000320: 79bc 373d c7b7 ca3b bfcf d6bc 2028 ab3c
00000330: 0a90 4fbd 9a5d 813c 1182 0d3d 7a7a 483c
00000340: 83d9 87bb e7ec c5bc a0b4 7c3d 3e7d 713d
00000350: e06b 57bc e949 b23c 65d7 463d 25da 13bd
00000360: 0a38 39bd 4235 1e3c a8a3 3a3d f33f 793d
00000370: f1c9 6c3b 9c67 6abd 7c19 893d 4e96 5e3b
00000380: 00a8 a83c 25df 86bc aaeb 15bd 6c98 283d
00000390: a0da 0bbd 4f7b a03c d620 453d a488 7b3d
000003a0: 2259 3d3d e767 cdbb 77e8 d53c 6e26 4ebd
000003b0: 596a d3bc 8dd0 3abd dfee 303d 63cd 823a
000003c0: 5d59 59bb 1501 6a3d e749 433d f2da 96bc
000003d0: f18f 44bd fb0d 42bc d8ac 5bbc d009 1ebd
000003e0: 1013 16bd 356a 56bc f2e0 d0bc 2c44 e6bc
000003f0: 7f9c c6bb 9718 7f3d 8918 79bc 5593 1cbd

linear_2.bias f4 [64]
-0.029160114 -0.04018891 -0.030814743 0.039915696 -0.042151436 0.012430087 0.04667676 0.014765496
0.020327337 0.045150116 0.0056229965 -0.015662644 0.035575964 -0.050000284 -0.026555011 -0.009007955
-0.0023906592 0.04815175 -0.014304704 -0.02592455 0.015828853 0.002657623 -0.05357613 0.037234712
0.003719376 -0.026928928 -0.023864653 -0.04478454 0.0036293757 0.044895664 0.0525957 0.027036585
-0.028025722 -0.008085641 -0.019257804 -0.046169814 0.05727126 -0.046280243 -0.020831153 0.037374914
-0.043656737 -0.04507669 0.024702575 -0.049876932 -0.04095804 0.014493691 -0.03015477 0.017160635
0.03702023 -0.0010077587 -0.014314323 -0.05465307 0.040068805 0.004899919 -0.029027054 0.035674766
-0.051229566 -0.0076791556 0.039471116 -0.015058465 -0.006904926 0.034703743 -0.026630621 0.067678474
00000000: 31e1 eebc 209d 24bd 336f fcbc a47e 233d
00000010: fca6 2cbd 90a7 4b3c 2130 3f3d fbea 713c
00000020: 8485 a63c 54ef 383d 1d41 b83b f24e 80bc
00000030: 1ab8 113d 19cd 4cbd e589 d9bc 1a96 13bc
00000040: 9bac 1cbb c53a 453d 475e 6abc b95f d4bc
00000050: 83ab 813c 842b 2e3b a572 5bbd 6d83 183d
00000060: c6c0 733b 0e9a dcbc ce7f c3bc fe6f 37bd
00000070: d2da 6d3b 84e4 373d 976e 573d d47b dd3c
00000080: 3396 e5bc a379 04bc 8bc2 9dbc 8f1c 3dbd
00000090: 4595 6a3d 5a90 3dbd 18a6 aabc 7016 193d
000000a0: 68d1 32bd 56a2 38bd 0e5d ca3c c14b 4cbd
000000b0: 9ec3 27bd f276 6d3c 2307 f7bc 7694 8c3c
000000c0: 86a2 173d c516 84ba 9f86 6abc e6db 5fbd
000000d0: 301f 243d 808f a03b 25ca edbc b41f 123d
000000e0: 18d6 51bd 6da1 fbbb 77ac 213d c8b7 76bc
000000f0: b842 e2bb 8325 0e3d 7628 dabc 039b 8a3d

linear_3.weight f4 [1, 64]
0.09435947 -0.086164944 0.080983326 0.10633037 0.09587873 -0.10164739 -0.076895036 0.08416873
0.016390685 0.08062418 0.04927048 -0.017499814 -0.058992445 0.042736404 0.0052924575 0.10379247
0.09556927 -0.07091252 -0.099130504 0.06957866 0.043469377 -0.11270725 0.0947333 0.12450923
-0.0105997035 0.014554802 0.04951719 -0.10626562 0.11131289 -0.09746034 0.061217338 -0.09416215
-0.02643667 -0.057573088 -0.11100328 -0.0016511099 -0.06843687 -0.106591165 0.037438493 0.050418474
0.12301914 -0.04106319 -0.022056986 -0.0040078633 -0.036675774 -0.004680773 0.05010343 -0.10187294
0.05482929 -0.10842647 -0.026428092 -0.089416414 0.08453665 0.00971669 0.093307704 0.023206653
0.10522737 -0.051107842 0.10164909 -0.08987501 0.09718502 -0.093972266 -0.09908204 0.032743838
00000000: 8a3f c13d 3f77 b0bd 96da a53d bdc3 d93d
00000010: 115c c43d 822c d0bd 257b 9dbd a860 ac3d
00000020: c245 863c 4a1e a53d d8cf 493d c55b 8fbc
00000030: 10a2 71bd 5e0c 2f3d 5a6c ad3b 2691 d43d
00000040: d2b9 c33d 953a 91bd ef04 cbbd 427f 8e3d
00000050: f20c 323d 0fd3 e6bd 8803 c23d b2fe fe3d
00000060: 61aa 2dbc 4477 6e3c 89d2 4a3d caa1 d9bd
00000070: 03f8 e33d 4999 c7bd 08bf 7a3d 16d8 c0bd
00000080: b791 d8bc c2d1 6bbd b055 e3bd 0e6a d8ba
00000090: a128 8cbd 784c dabd 1b59 193d 9a83 4e3d
000000a0: 75f1 fb3d e031 28bd dab0 b4bc 6554 83bb
000000b0: 5639 16bd 2b61 99bb 4139 4d3d c3a2 d0bd
000000c0: ad94 603d b20e debd ba7f d8bc f41f b7bd
000000d0: 8d21 ad3d c032 1f3c 1c18 bf3d e11b be3c
000000e0: 7381 d73d 7556 51bd 662d d03d 6410 b8bd
000000f0: f108 c73d 8874 c0bd 86eb cabd 671e 063d
