ndp/weights/finetune-3.pt (torch, 9775 bytes, 5 tensors)

linear_1.weight f4 [36, 27]
000000 a7 73 46 3e a7 b1 8f bc 87 cc 1e be 1f d8 81 3d
       0.19380055 -0.017540766 -0.15507708 0.0634005
000010 5f 62 c2 bd c9 86 b3 bd cf 4a ec 3d 74 8a 06 3d
       -0.09491419 -0.087659426 0.11537706 0.032846883
000020 9e 2c 19 3e 64 20 f8 3d 55 8b 40 be 1f 1f 44 be
       0.14958426 0.12115553 -0.18803151 -0.19152497
000030 7d 6a 2b 3d 41 0d 5b 3c 56 ef d9 bd a6 8c 56 3d
       0.041849602 0.013369859 -0.10641353 0.052380227
000040 80 84 66 bd 02 91 bd 3d 77 40 09 3e e8 87 46 be
       -0.056278706 0.09256174 0.13403498 -0.19387782
000050 d4 c3 4a be 9e 54 71 3d 62 1e 84 3d 65 f1 10 3e
       -0.19801265 0.058918588 0.064511076 0.14154585
000060 15 4d fd 3c e8 53 1f be 30 99 8c 3d 62 cf 3e bd
       0.030920545 -0.15559351 0.06865156 -0.046584494
000070 df 1f 48 3e 77 73 8b bd c2 bd ce 3d 30 ff f9 bd
       0.19543408 -0.068091325 0.10094787 -0.12206876
000080 4c 84 97 bd d8 93 d0 3d 62 7a 98 3d 3a 26 c9 bd
       -0.073982805 0.10184449 0.07445218 -0.09821744
000090 d2 3e 06 bd c2 fa ce bd 3b 2e 5c 3c cc 91 60 3e
       -0.032774754 -0.10106422 0.013438757 0.21930617
0000a0 d6 2c 79 bd bb 35 1f 3e b9 35 32 3e 22 30 87 3d
       -0.060833775 0.1554784 0.17403306 0.066009775
0000b0 b2 e5 4f bd ac 2a 14 3e c3 a0 99 3d ce d7 61 3e
       -0.050756164 0.14469403 0.07501366 0.22054979
0000c0 7f 68 2b 3e 12 f3 45 bd 0a 8c a4 3c a3 2c 54 bd
       0.16739081 -0.048327513 0.020086307 -0.05180038
0000d0 bb 82 8e 3d 4d 42 06 3e 11 e3 b1 bd 62 75 28 3e
       0.069585286 0.13111229 -0.086858876 0.16451028
0000e0 d2 8d 26 3e ef 1c ee bc f9 27 0d 3e 9a b2 ac bd
       0.16265038 -0.029066531 0.1378478 -0.08432503
0000f0 bf 88 0a 3e 4e 86 35 be 00 7e 90 bd 3a 99 7a 3d
       0.13528727 -0.17727014 -0.070552826 0.061181284
000100 14 dd 56 bd 33 f4 9d 3d db 51 54 3d e4 85 91 bd
       -0.05245693 0.07712593 0.051835876 -0.07105616
000110 ca ff 69 3d 3f fd f2 bd 26 37 36 be 2d 8a e5 bd
       0.057128705 -0.11864709 -0.17794475 -0.112079956
000120 04 ce 0a be 2c 64 2c 3e b4 9b 42 bd 4c 30 78 3c
       -0.13555151 0.16835088 -0.04751177 0.015148234
000130 9c 28 51 bd 62 73 15 be 41 5d 69 bd 16 a2 d8 3d
       -0.05106412 -0.14594796 -0.0569737 0.105777904
000140 2a f4 94 3d 15 2c ba bd d3 80 fe 3d 6b 2a 87 bd
       0.07273133 -0.09090439 0.12426915 -0.065998875
000150 02 83 a3 3d 5b a2 05 3e 55 17 87 bd 97 95 46 3d
       0.07983972 0.13050215 -0.06596247 0.048482504
000160 c2 9b 08 be 9b 21 a3 3d 1f fd 41 3e 90 7a c2 bd
       -0.13340667 0.07965394 0.18944214 -0.09496033
000170 4a b4 b3 bc b1 8a 64 3e 6d 8e 7d bd 26 0e d6 bd
       -0.021936554 0.22318532 -0.061903406 -0.10451917
000180 5b c2 2e 3c 94 85 52 3e 1a 20 c4 bc b1 92 99 bd
       0.010666455 0.20558769 -0.023941088 -0.07498682
000190 da a0 7c bc 13 de be bd ab 51 c8 bc 8d dd 52 3d
       -0.015419209 -0.09319701 -0.024453005 0.05148082
0001a0 3d 25 ab bd 55 f5 2c 3e ab ae 52 3e 17 2d 54 3d
       -0.08356712 0.16890462 0.20574443 0.051800814
0001b0 b5 b5 4f bc 78 7b 26 3e 84 a8 20 bd 65 ae 68 3e
       -0.0126776 0.16258037 -0.03922321 0.22722776
0001c0 72 75 69 3e 93 b8 db bd b7 78 d2 3d ae aa b2 3d
       0.22798708 -0.10728564 0.10276931 0.08723961
0001d0 06 05 41 3e de 84 61 bd 3d 27 f6 bd 89 2f 0e 3e
       0.18849573 -0.055058353 -0.12019203 0.1388532
0001e0 d5 f0 17 bd 11 51 2e 3e c2 15 55 3d 72 da f1 bd
       -0.03709491 0.17023112 0.052022703 -0.11809243
0001f0 f8 3f 05 3d a0 b5 3c 3c dd 2e d3 3d 83 34 da 3d
       0.03253171 0.011517912 0.10311673 0.10654547
000200 bd e8 e3 3d 00 83 21 bd 63 cd ff bd 1a 85 43 bd
       0.11128376 -0.039431572 -0.12490346 -0.047734357
000210 4c 7f 8a 3d 2c 41 c7 3d 09 82 0c be e1 4d 24 3e
       0.06762561 0.097292274 -0.1372148 0.16045333
000220 90 b6 d3 bd 76 f8 bf bd c6 22 0b 3e 3d f1 22 3e
       -0.103375554 -0.09373562 0.13587484 0.15912338
000230 bf a5 84 3d 20 7e 14 3d d7 03 02 3e e0 14 87 3d
       0.06476926 0.036253095 0.12696777 0.065957785
000240 6e 7c 0a be 6e af 26 3d e6 cc f3 3d 22 fb 31 be
       -0.13524029 0.040694647 0.11904316 -0.17380956
000250 3e 89 db 3d 53 11 39 bc b5 8b ee 3d 69 81 b2 bd
       0.10719536 -0.011295634 0.11647741 -0.08716089
000260 39 4b 07 bd 3e 40 bf bd 6f d4 f9 3d 29 03 a9 bd
       -0.033030722 -0.09338425 0.121987216 -0.08252556
000270 2b 66 9c 3d 15 24 b2 3d 99 3f 1d 3e 89 48 2d be
       0.076366745 0.08698288 0.15356292 -0.16922201
000280 65 ae 0c be f4 1e 7a bd c6 d7 0c bd 55 3b 18 be
       -0.13738401 -0.061064675 -0.034385465 -0.14866383
000290 4e 49 ef 3d 1b 1c 08 3e e6 5b 0c 3e 7c 49 0b 3e
       0.11683904 0.13291971 0.13706931 0.13602251
0002a0 9b ec 3c 3e 99 d7 39 bc 51 00 b9 bc fa e8 cc bc
       0.18449633 -0.011342906 -0.022583159 -0.025013436
0002b0 2b a5 42 bd 24 0e 20 be ff 3a 59 bd f0 2f da bc
       -0.047520798 -0.15630394 -0.05303478 -0.026634187
0002c0 2b a6 b0 3d 4f b0 4c 3d a3 62 72 3c ee 4e e9 3d
       0.08625444 0.04997283 0.014794025 0.11392008
0002d0 62 d7 00 3e e2 00 30 3e 7e ed 15 be 0c 91 f5 bd
       0.12582162 0.17187837 -0.14641377 -0.11990556
0002e0 8f 94 fb bc a2 71 3a be 03 9d 07 be 0a 98 13 be
       -0.030710487 -0.1820741 -0.13243489 -0.14413467
0002f0 a6 83 52 bd ad 71 07 be b4 ff 01 3e 48 f9 09 3e
       -0.05139508 -0.13226958 0.12695199 0.13474
000300 5c e3 fa bd f7 18 4b bd c7 84 10 3e f4 62 32 be
       -0.122503966 -0.049584355 0.1411315 -0.1742056
000310 8c 74 fa bd da 43 09 bc 02 10 c5 3d fb cd 09 be
       -0.12229261 -0.0083779935 0.09622194 -0.13457482
000320 10 a7 0f be 87 9d de bc 0c e2 4c be 57 85 8f bc
       -0.14028573 -0.027174724 -0.20008105 -0.017519636
000330 15 4c 60 bc ce be d0 3c 93 e8 2e bc 8e bb eb 3d
       -0.013690014 0.025481608 -0.010675567 0.115103826
000340 ca 05 e7 bc 35 e3 25 3e d7 39 21 be b9 3d e7 bc
       -0.028201003 0.16199954 -0.1574472 -0.028227674
000350 62 d2 28 3d 57 16 48 3d c0 95 1e 3c 7d 89 ef 3d
       0.04121626 0.04884943 0.009679258 0.11696146
000360 52 09 62 3d d9 15 73 bb 10 02 be 3b 88 52 10 bc
       0.05518467 -0.003709188 0.0057985857 -0.0088087395
000370 10 5a e8 3d 1c e7 a7 bd 31 85 66 bd 76 07 4b 3d
       0.11345303 -0.081983775 -0.056279365 0.049567662
000380 cd 63 0b 3e 76 c1 43 3e 3e b1 1c 3e c8 30 6c 3e
       0.1361229 0.19116768 0.15301988 0.23065484
000390 41 e5 2f bd 9e 7f 08 3e 84 fe 0c be 78 54 82 3c
       -0.042943243 0.13329932 -0.13768965 0.015909418
0003a0 ce 9c 51 3e cc 9b 9f bc 9a 35 c2 bd 95 a4 b6 bd
       0.20469972 -0.01948347 -0.0948288 -0.0891811
0003b0 a7 e9 50 3e 00 fc 47 3d 23 b0 45 3e 05 23 52 bd
       0.20401631 0.04882431 0.19305472 -0.05130293
0003c0 44 e5 10 3e d3 6b 1a bd 35 36 41 3e 77 3d 03 3e
       0.14149958 -0.037700485 0.18868335 0.12816416
0003d0 b6 6c 1f be 9d b3 0c be 87 a8 8e 3d ac a9 8e 3d
       -0.15568814 -0.13740392 0.06965738 0.06965956
0003e0 06 6a 0c be 81 bd 8a 3d 32 81 99 bd e6 f9 d0 bd
       -0.1371232 0.06774426 -0.07495345 -0.10203914
0003f0 04 93 c0 3c 83 8d 27 3e dc f6 35 3e b9 54 49 be
       0.023507603 0.16362576 0.1776995 -0.19661225

linear_1.bias f4 [36]
000000 61 0a fd bd 25 80 a2 3d 63 45 1c 3b 87 d7 1c 3e
       -0.12355495 0.07934598 0.0023845069 0.15316592
000010 2c c2 90 bd c2 75 1e 3d ea 36 ff 3d 6d e0 21 be
       -0.07068285 0.03868652 0.12461646 -0.15808268
000020 8a 78 3f 3c 4d 7c 2e 3e ef e6 91 3c a3 62 a5 3d
       0.011686454 0.17039604 0.017810313 0.08075454
000030 c2 e5 6d 3e 9e dc 10 3d 9b 32 ae 3d cc 4d 4a 3e
       0.23232177 0.035366647 0.08505746 0.1975624
000040 57 7f 6e 3d 40 9e 2a 3d 07 c1 1e bc 4a 15 48 be
       0.05822691 0.041654825 -0.009689576 -0.19539371
000050 eb 80 59 3e da 25 2f 3e 7b 5b 89 3d 02 9f 77 3e
       0.21240585 0.17104283 0.06706902 0.2418175
000060 1a b5 43 3e 90 99 09 be cb db 91 bd a0 e9 10 bd
       0.19112054 -0.13437486 -0.07122 -0.035379052
000070 ac f2 dd bd 4c 21 46 3e 3d d0 1d 3d 5d f2 bb 3d
       -0.108373016 0.19348639 0.03852867 0.091770865
000080 aa ab 96 3d fe b9 37 3e db b8 37 3e 19 b4 3a be
       0.07356961 0.17942044 0.1794161 -0.18232764

linear_2.weight f4 [24, 36]
000000 e6 60 db 3c 0b 95 d3 3d 29 52 93 3d 60 6e 29 3d
       0.026779603 0.10331162 0.07193405 0.041365027
000010 44 29 ad 3d 3f f4 13 bc bd 6a c3 bd db 05 48 bd
       0.084551364 -0.009030401 -0.09541843 -0.04883371
000020 18 3a d8 bc eb 0f 02 bd 8d d1 c3 bc 83 a1 92 3d
       -0.026394889 -0.03175346 -0.023903633 0.07159712
000030 b6 3a 51 3e df 3a 50 3d 96 c5 3a 3e 42 ba 07 3c
       0.20432553 0.050837394 0.18239436 0.008284153
000040 9c 01 3b bc 0a 90 fb bd ec 52 84 3d d9 a1 9f 3d
       -0.011413958 -0.12283333 0.064611286 0.07794542
000050 60 af 46 3e bd 9e 75 3a bc b0 cf bc f9 0f ca 3d
       0.19402838 0.0009369662 -0.025352828 0.09866328
000060 33 55 ad bd 42 5f b0 bd 8f 13 07 be 66 88 23 3e
       -0.08463516 -0.08611919 -0.13191055 0.1597
000070 57 b0 c5 3d 5f 95 c9 3c 07 98 39 3d c6 77 b3 bd
       0.09652775 0.024607359 0.045311 -0.08763079
000080 46 e1 dc 3d e9 88 41 3e 9c 51 7d 3d 96 f3 5d bc
       0.10785155 0.18899883 0.061845407 -0.013546845
000090 b7 e7 41 bd 1d 87 66 3d 46 b0 05 be 0e 3c 01 3e
       -0.04734012 0.056281198 -0.13055524 0.12620565
0000a0 58 e3 90 3d ff dd e3 bc 87 39 f2 3d 7e b9 8c 3d
       0.070746124 -0.027815817 0.11827379 0.06871317
0000b0 f4 0b d8 3d f9 2a 0a 3e cb 52 09 bd 48 66 6e bd
       0.10549155 0.13492955 -0.033526223 -0.05820301
0000c0 be 60 92 bd a1 01 2e 3e 33 51 d7 3d 26 92 33 3d
       -0.07147358 0.16992809 0.105135344 0.04384055
0000d0 86 bb e1 bd 19 98 85 bd 7a 85 93 bd 8c 96 a9 3d
       -0.110220954 -0.06523151 -0.07203193 0.08280668
0000e0 81 26 1e 3e b9 a9 46 bd 51 6a 76 3d 22 55 a7 bb
       0.15444376 -0.048501704 0.060159985 -0.005106584
0000f0 81 0b 36 3c f5 d5 1d 3e 46 29 0e bd 2c c9 f5 3d
       0.011111141 0.1541365 -0.03470733 0.12001261
000100 e6 4a f2 3c 44 4d 2e 3d fb b3 32 3e f2 78 2b bd
       0.02957673 0.042554155 0.1745147 -0.04186339
000110 58 6e a4 3d fc d3 cd 3d 1e db 49 3d e6 94 85 bd
       0.08028859 0.100501984 0.049281232 -0.06522541
000120 88 c6 01 be fe cb 97 3d e5 1e 9c 3d 13 fa c9 3d
       -0.1267339 0.07411955 0.0762308 0.09862151
000130 f2 b5 1c be 26 30 5f bd bf 95 0e 3e 3b 80 88 3d
       -0.15303782 -0.054489277 0.13924311 0.06665083
000140 f3 41 a3 bd 11 7e 5d bc c0 44 d2 bc fa 6b 52 3d
       -0.07971563 -0.013518826 -0.025667548 0.051372506
000150 79 49 16 be 46 39 65 3d 43 59 cc bc f6 44 06 3d
       -0.14676465 0.055962823 -0.024944907 0.03278061
000160 90 18 52 bd 14 aa 27 be 16 7e be 3d 36 11 fa 3c
       -0.051292956 -0.16373473 0.09301393 0.030525785
000170 c6 56 1f be 98 fb f1 bd e6 d7 9a 3d 22 5f 4a 3d
       -0.15560445 -0.11815566 0.075607106 0.049407132
000180 bb 69 24 be fb 5b e4 bd d6 95 de 3d 31 b3 3c 3c
       -0.16055958 -0.111503564 0.10868423 0.011517332
000190 8e 5f 26 be 4e 11 bf 3b 66 23 11 3d 51 82 72 3d
       -0.16247389 0.0058309203 0.03543415 0.05920631
0001a0 d2 69 a6 bd 51 c5 99 bd c2 b3 0a be 46 9f 16 3d
       -0.081256524 -0.07508338 -0.13545135 0.03677299
0001b0 10 28 5d 3b 96 eb 86 3d ca c3 3d 3e 21 b5 70 3d
       0.0033745803 0.06587903 0.18531719 0.058766488
0001c0 85 79 01 3e 3f 92 87 bd 4c d3 59 3e 48 91 3c 3c
       0.12644012 -0.06619691 0.2127201 0.011509247
0001d0 3c 92 26 3e 6d d9 76 3d 47 40 e9 bd 81 05 6f bd
       0.16266721 0.060265947 -0.11389213 -0.05835486
0001e0 cd 4f 41 3e 1a 47 a7 bd d6 10 60 3d ee c7 a2 3d
       0.18878098 -0.081678584 0.054703556 0.0794829
0001f0 93 54 9b bc 21 13 56 3e 58 39 f1 3d 87 a5 2a 3d
       -0.018961227 0.20905735 0.117785156 0.041661765
000200 2a 05 24 3d 43 34 fa 3d 1a 2f cc bd da e2 c6 3d
       0.040043987 0.122169994 -0.099699214 0.09711237
000210 30 f7 aa 3d d5 f3 5f 3c 06 8d 9d 3c 45 a7 e2 bc
       0.083479285 0.013668974 0.019232284 -0.027667651
000220 d9 bb 5f bd 7f 48 22 3e 1c 00 27 3c 55 0b df 3d
       -0.054622505 0.15847968 0.010192897 0.10890833
000230 99 33 f2 bb d4 bb 4c 3c 10 d0 3a 3e 2b 41 96 bc
       -0.007391405 0.012495954 0.18243432 -0.018341621
000240 4b 3a f9 3d b1 d8 44 be 74 ca 01 3e 07 6f e2 bd
       0.121693216 -0.19223286 0.12674886 -0.11056333
000250 68 ab 81 3d 81 4f d2 3d 03 79 45 3c 55 77 6a bc
       0.06331521 0.102690704 0.012052777 -0.014310678
000260 4f f4 6d 3d ab 3c 86 bd c0 cd ee 3c 6b ff 93 3d
       0.05809432 -0.0655454 0.029150844 0.072264515
000270 79 3b b1 3d 0b 74 ec bd ab 96 ad 3d 83 04 aa 3d
       0.08653922 -0.11545571 0.08476003 0.08301642
000280 5a 7d 26 bc fd 0c 1c be 38 e1 07 be 7e f4 1d bd
       -0.010161722 -0.1523933 -0.13269508 -0.038563244
000290 ce 99 b6 3d 1d 86 5e bd 7d 29 94 bd 5c 66 41 bd
       0.08916055 -0.05432712 -0.07234476 -0.047216758
0002a0 89 59 b1 bd dc 83 d2 3b b1 28 cc bd 04 10 37 be
       -0.086596556 0.0064244103 -0.09968699 -0.17877203
0002b0 90 bd 34 be bd bb 0a 3e 16 b9 d2 bb 61 f3 18 be
       -0.17650437 0.13548179 -0.0064307554 -0.14936592
0002c0 8e 2a 2f be c3 10 6a 3d 71 e1 8a bd 73 95 0a be
       -0.17106077 0.05714489 -0.06781281 -0.13533573
0002d0 a8 5e 35 3e 49 57 2e bc 5f 2d a7 bd 6b ed 05 bb
       0.1771189 -0.010640928 -0.08162951 -0.0020435702
0002e0 41 d3 c6 3d 40 50 74 3d 0d fa 5c bd 9d 7d 0b be
       0.09708262 0.059646845 -0.053949405 -0.13622136
0002f0 f4 9b b2 bd 68 85 2a bd 05 4d 47 bd 9b 8d d5 3d
       -0.08721152 -0.041631132 -0.048657436 0.104274
000300 a7 76 03 3e 9e bb 11 3e 85 96 02 3e f3 c4 e3 ba
       0.12838231 0.14231727 0.12752731 -0.0017377421
000310 f4 2e 9e 3d 7b e0 37 3e 50 f8 b3 bd 55 c7 03 be
       0.07723799 0.17956726 -0.08787596 -0.12869008
000320 c8 23 f4 bd 4c 38 fc 3d 71 cb 15 3e cc 75 6e bc
       -0.11920887 0.12315425 0.14628388 -0.014554452
000330 98 6e 81 bc 30 60 a2 3d c5 ff f7 3b 6f b6 ab 3d
       -0.015799806 0.079285026 0.007568332 0.08384406
000340 a7 06 2e 3e e4 b5 3b 3e ad de 1a bd 17 be a4 3d
       0.16994725 0.18331105 -0.037810016 0.08044069
000350 97 9d 7b bd 9a 3a 84 3d a8 62 52 3d 33 71 d6 bd
       -0.061429586 0.0645649 0.051363617 -0.1047081
000360 1e b9 52 3e 0c 8f 2c 3d 7d 50 b8 bd 3e 65 81 3d
       0.20578429 0.042128608 -0.08999727 0.063181385
000370 a0 27 3d 3e 36 20 0a 3d 1b f5 87 3d 88 56 d1 bc
       0.18472147 0.033722125 0.06638547 -0.025553957
000380 78 8c 16 3e d9 da 5b 3d bc 6c d7 bd 3d bd d5 bd
       0.14702022 0.053675506 -0.10518786 -0.10436485
000390 86 a2 0c 3d 6f 1f cb 3d be fd ce 3d 38 2b 5a 3e
       0.034334682 0.09918105 0.10106991 0.21305549
0003a0 37 80 17 3e 78 b4 79 3d b5 b2 a4 3b b1 9c 9f bc
       0.14795004 0.060963124 0.0050261864 -0.019483896
0003b0 a5 06 ab 3d d2 dd 11 3e 81 f5 1e 3d 31 64 7f bc
       0.08350877 0.14244774 0.03880835 -0.015587852
0003c0 9c 26 28 bc ab 6d 22 bc 04 f9 11 3e 55 04 1d 3e
       -0.010263111 -0.009913842 0.14255148 0.15333684
0003d0 25 e1 63 bd 65 30 43 bc c0 fd ae 3d 85 cf 7d 3d
       -0.055634636 -0.011913394 0.08544493 0.061965484
0003e0 63 29 13 3e 01 d6 03 3e db 6c 56 bd c7 e0 17 3e
       0.14371257 0.12874605 -0.052349906 0.1483184
0003f0 0e 9b 81 bd ab 2e 6a 3c 3b 87 01 3e a6 a1 3c bd
       -0.063284025 0.014293353 0.12649243 -0.046052597

linear_2.bias f4 [24]
000000 96 ac 20 3e d0 7f d8 3d a4 de 5f 3c 88 93 f5 bc
       0.15690836 0.10571253 0.0136639215 -0.029977575
000010 a2 b0 35 3d 75 cb 0a 3e 77 da ef bc 48 80 84 bc
       0.044357903 0.13554175 -0.029278977 -0.01617445
000020 a7 cc 8e bc 27 51 de 3d 3d 4d 8d bc c7 14 f5 bb
       -0.01743157 0.10855322 -0.017248744 -0.0074792835
000030 db ea 9d 3c 65 7a e8 3d 0f 9b 4a 3e 65 b8 38 bd
       0.019277027 0.1135147 0.19785713 -0.045097727
000040 b4 18 94 bc 90 ae d4 bd be 78 af bd 58 9d e4 3d
       -0.018078186 -0.10384858 -0.085679516 0.111628234
000050 25 c2 7b 3d a6 44 bf 3d d3 05 c1 bb d8 ad 09 3c
       0.061464448 0.093392655 -0.005890587 0.008403264

linear_3.weight f4 [1, 24]
000000 32 10 7a 3e 18 a2 23 3e e3 2b de 3d 36 4e 72 3e
       0.2442024 0.15979803 0.108482145 0.23662648
000010 32 a4 33 be 59 78 65 3e 5a 64 5d 3e e7 de f0 bc
       -0.17543104 0.2240919 0.21620312 -0.029403163
000020 ad d2 81 3d 40 c5 39 be 6b bf 9a bc e8 99 4f 3d
       0.06339011 -0.18141651 -0.018890103 0.050683886
000030 5c 6b 33 be a9 6a c5 bd 53 8b 92 3d 89 b6 fe bd
       -0.17521423 -0.096394844 0.0715548 -0.124371596
000040 5a 83 3c bc 61 09 45 bd d5 40 28 3e a1 d9 5f 3c
       -0.011505926 -0.048104648 0.16430981 0.013662727
000050 21 f1 69 3e 24 33 d1 3d 6d 80 6a 3e 56 72 57 3e
       0.2284589 0.102148324 0.22900553 0.2103971
