ndp/weights/finetune-7.pt (torch, 316143 bytes, 5 tensors)

linear_1.weight f4 [196, 343]
0	0x3cdab8ee	0.02669951
1	0xbd25d3c9	-0.040485177
2	0x3d35a81e	0.044349782
3	0x3d0c3b52	0.03423626
4	0x3d177778	0.03697917
5	0x3d543fb3	0.05181856
6	0x3d6167e2	0.05503071
7	0x3d1b4dd3	0.037916016
8	0x3d6c8a8a	0.05774931
9	0xbcbcee9e	-0.023063
10	0x3ae6af92	0.0017599931
11	0x3cbbf6dd	0.022944862
12	0x3d479a2c	0.048731014
13	0xbc438c88	-0.011935361
14	0xbc1d5b50	-0.00960429
15	0x3c5e500e	0.013568891
16	0xbc8ece9c	-0.017432503
17	0x3ccc7ac6	0.024960887
18	0x3d13a509	0.03604606
19	0xbcf0a422	-0.02937514
20	0x3d34c526	0.044133328
21	0xbcbfd728	-0.023418024
22	0x3d64dfd6	0.05587753
23	0x3d11a28c	0.035555407
24	0x3d1b0a24	0.037851468
25	0xbc90a61c	-0.017657332
26	0x3c449a92	0.011999743
27	0x3d579d1e	0.052640073
28	0x3d519fff	0.051177975
29	0x3d4ab475	0.049488503
30	0x3cba2573	0.022722935
31	0x3d66b576	0.0563254
32	0x3d342146	0.043977045
33	0x3ce85d78	0.028364882
34	0xbd0f4e35	-0.034986693
35	0xbc27a10b	-0.010231267
36	0x3b396604	0.0028289566
37	0xbcb8df0a	-0.02256729
38	0x3d199b8a	0.03750185
39	0xbd24a221	-0.04019368
40	0x3d65a2ad	0.056063343
41	0xbbb8630b	-0.005627041
42	0x3bad4774	0.005288059
43	0x3d7e9d7d	0.06216191
44	0xbc91eab4	-0.01781211
45	0xbcd5d0aa	-0.026100475
46	0x3d00bd93	0.031430792
47	0xbd09be43	-0.033628713
48	0x3d447943	0.047967207
49	0xbbe070a4	-0.0068493653
50	0xbce6e738	-0.028186426
51	0x3b0cd160	0.0021487102
52	0x3d26fc76	0.04076811
53	0xbb07a7d0	-0.002069939
54	0xbc51d8ff	-0.012808084
55	0xbc2530f3	-0.010082471
56	0x3d3a525c	0.0454887
57	0x3c7909df	0.015200107
58	0x3d0dfc26	0.034664296
59	0x3d0ca5d9	0.034337852
60	0x3b29b711	0.002589647
61	0x3d32069a	0.043463327
62	0x3a4441b9	0.00074866
63	0x3c66f057	0.014095387
64	0xbd1c4bda	-0.038158275
65	0xbc23fffd	-0.010009763
66	0x3ce7c0cf	0.02829018
67	0xbcbb6a75	-0.022877911
68	0x3d5303d6	0.05151733
69	0x3cb4d875	0.022075871
70	0x3ca514bf	0.020151494
71	0xbd282975	-0.04105516
72	0x3d611fb9	0.054961894
73	0x3d58b0ea	0.052903093
74	0xbc8966a2	-0.016772572
75	0xbc826fc5	-0.015922436
76	0x3d61b023	0.055099618
77	0x3cb0e37a	0.021592844
78	0xbaa12f53	-0.0012297429
79	0xbc442a27	-0.0119729405
80	0x3d73ec49	0.05955151
81	0xbd2c1bd4	-0.042018726
82	0xbae465ad	-0.0017425321
83	0xbcac5fe9	-0.021041827
84	0x3cc40d04	0.023931988
85	0x3d088c7a	0.033337094
86	0x3c7ebd21	0.0155480215
87	0x3d5afaf4	0.053461984
88	0xbbb3e271	-0.0054896404
89	0xbcb01896	-0.021496098
90	0xbd1db794	-0.038505152
91	0xbc036340	-0.0080192685
92	0xbce23a3a	-0.027615655
93	0x3d2d3e51	0.042295758
94	0xbcce69f0	-0.025197
95	0xbc1fb52f	-0.009747787
96	0xbcbc24e5	-0.022966811
97	0xbc24d2a3	-0.010059985
98	0xbbdc45b9	-0.006722179
99	0xbcb54480	-0.02212739
100	0x3b7be754	0.0038437443
101	0xbc4b2761	-0.012399525
102	0xbd1a1bc0	-0.03762412
103	0x3d4ff480	0.050770283
104	0x3d56cfbc	0.052444205
105	0x3c32de70	0.010917291
106	0x3d6388fd	0.055550564
107	0x3c708ab4	0.014681507
108	0x3c1fff4f	0.00976546
109	0xbd0cabf4	-0.034343675
110	0x3ccf7323	0.025323456
111	0x3d5f4d55	0.05451711
112	0x3d1aae85	0.03776409
113	0x3cecf5d5	0.028925816
114	0xbc98f8e7	-0.018673373
115	0x3c744405	0.014908795
116	0xbd0247f8	-0.031806916
117	0x3d0ffc92	0.03515298
118	0x3d24bf4c	0.040221497
119	0xbd2b3330	-0.041796863
120	0xbd2f2101	-0.042756084
121	0x3cbeb8fe	0.02328157
122	0x3cc3b605	0.023890505
123	0xbd042831	-0.032264892
124	0xbc93d6ab	-0.018046698
125	0xbc083c09	-0.008315095
126	0x3d5f5c90	0.054531634
127	0x3d1c8189	0.03820947
128	0x3cec1bf7	0.028821928
129	0xbc8f7871	-0.017513486
130	0x3d19f6f8	0.037589043
131	0x3b85ab39	0.004079249
132	0xbcb33045	-0.021873603
133	0x3d69275c	0.0569223
134	0x3ccbabea	0.024862248
135	0xbc816e4d	-0.015799666
136	0xbd2e60ec	-0.0425729
137	0xbcbd0a8a	-0.023076314
138	0x3cd06331	0.025437923
139	0xbd1489f4	-0.036264375
140	0xbd32e01f	-0.04367077
141	0xbd2c1e9f	-0.04202139
142	0xbc970bdc	-0.018438272
143	0x3cd0755f	0.025446592
144	0x3a874ea6	0.0010323122
145	0x3c222093	0.009895462
146	0x3d29af86	0.041427158
147	0xbb16fc00	-0.0023038387
148	0x3d371a25	0.044702668
149	0xba523438	-0.00080186455
150	0xbc1ee665	-0.009698485
151	0x3c7159bb	0.014730866
152	0xbd1fd3ce	-0.039020352
153	0xbcfd356c	-0.030909263
154	0x3d67ec8a	0.056622066
155	0x3d5c0fba	0.053725936
156	0xbcdab698	-0.026698396
157	0x3c691f24	0.014228616
158	0xbcad8990	-0.021183759
159	0x3d0160ac	0.031586334
160	0xbc7b9e4c	-0.015357565
161	0x3cf5d1f7	0.030007346
162	0x3ba09c71	0.004901462
163	0xbd30e7c7	-0.04318979
164	0x3d412cea	0.047161974
165	0x3ca6a667	0.020343019
166	0x3c729bdf	0.01480767
167	0xbbcb30f3	-0.0062009036
168	0x3ce28878	0.027652964
169	0x3d579f00	0.05264187
170	0xbd1e4c46	-0.03864696
171	0xbd2776e6	-0.040884875
172	0x3d3333d8	0.043750614
173	0x3d2fe64f	0.04294425
174	0x3cc6d2c7	0.024270428
175	0x3d2f93a8	0.042865425
176	0x3d17ed03	0.037091266
177	0xbc08215b	-0.008308734
178	0xbd214480	-0.039371967
179	0x3c17a896	0.009256503
180	0x3d497de8	0.04919234
181	0x3cd44818	0.025913283
182	0x3d5c7e3d	0.053831328
183	0x3d23b4a7	0.039967205
184	0x3c54eb10	0.012995496
185	0x3c947937	0.018124206
186	0xbc50c2bb	-0.01274174
187	0xbac0c80b	-0.0014708055
188	0xbad37e40	-0.0016135648
189	0xbc96d3c2	-0.01841152
190	0xbca266c9	-0.019824402
191	0x3d446f2b	0.04795758
192	0x3cb1e269	0.021714406
193	0x3d377dc3	0.04479767
194	0xbd2ded78	-0.042462796
195	0x3d24a941	0.040200476
196	0xbb607bbe	-0.0034253444
197	0xbcf0b910	-0.02938512
198	0xbce3dafe	-0.027814385
199	0x3c958d56	0.01825587
200	0xbb0a722d	-0.0021125183
201	0xba76f97d	-0.0009421332
202	0x3b925930	0.0044661984
203	0x3d5373c6	0.051624082
204	0xbc21b2c5	-0.009869282
205	0xbb961afd	-0.004580854
206	0xbb9a0d52	-0.004701295
207	0xbd1d9851	-0.03847534
208	0xbcce40c3	-0.025177365
209	0x3cffe978	0.031239256
210	0x3ce9a8cd	0.028522873
211	0x3cc814aa	0.024423916
212	0xbb069fdc	-0.002054206
213	0xbb7ec246	-0.003887312
214	0x3d7bd411	0.06148154
215	0x3d11f7eb	0.035636824
216	0x3d02f800	0.031974792
217	0x3d3bec4d	0.04587965
218	0x3c59a25e	0.01328334
219	0x3ce2036c	0.027589522
220	0xbd353e26	-0.044248722
221	0x3bbf98d2	0.005847075
222	0x3d4bcbc7	0.049754884
223	0x3c9faf9f	0.019492922
224	0x3d3f69d7	0.046731796
225	0xbb8c041b	-0.0042729503
226	0x3d281408	0.04103473
227	0x3ae0f0c2	0.0017161595
228	0xbbcb4510	-0.0062033013
229	0xbc24c99b	-0.010057832
230	0x3d439660	0.04775083
231	0xbcd9d9a9	-0.026593046
232	0xbb923088	-0.004461352
233	0xbcb92362	-0.02259988
234	0xbc9c2e68	-0.019065097
235	0x3d457d4b	0.04821519
236	0xbcbaee9b	-0.022818854
237	0xbb9b1007	-0.004732135
238	0x3d481031	0.048843566
239	0x3cc8dcfc	0.024519436
240	0x3d365e60	0.044523597
241	0x3c297c1f	0.010344534
242	0x3d6f6827	0.058448937
243	0x3d05bdd9	0.032651756
244	0x3d368b6a	0.04456655
245	0xbbbe5999	-0.0058090207
246	0x3d732e0f	0.059370097
247	0xbc661aa3	-0.014044437
248	0x3ceb333e	0.028710958
249	0x3be021db	0.0068399734
250	0x3d464512	0.048405714
251	0xbd2e2305	-0.042513866
252	0x3bce3126	0.00629248
253	0x3d1afd23	0.037839066
254	0xbc8a2a2d	-0.016865814
255	0x3d3b3783	0.045707237

linear_1.bias f4 [196]
0	0x3d66350c	0.056202933
1	0x3c4746bf	0.012162863
2	0x3d1e0ebe	0.038588278
3	0x3c84689c	0.016163163
4	0x3d35f5ef	0.044423994
5	0xbbba0096	-0.0056763394
6	0xbd687526	-0.056752346
7	0x3a8db221	0.0010810533
8	0x3d67cc66	0.056591414
9	0x3d2f7e07	0.0428448
10	0x3d204254	0.039125755
11	0x3d7164c0	0.058933973
12	0xbc0d1bee	-0.008612616
13	0xbbf49572	-0.0074641043
14	0xbbf1774a	-0.0073689567
15	0xbc33d6e3	-0.010976526
16	0x3cf4e823	0.029895848
17	0x3d71e7a2	0.059058793
18	0x3d8808de	0.06642316
19	0xbb0d8787	-0.0021595673
20	0xbc845247	-0.016152514
21	0x3d18801f	0.03723156
22	0xbbaf1314	-0.0053428505
23	0xba6ea6f9	-0.00091038604
24	0xbc80ff6f	-0.0157468
25	0x3d21955e	0.03944909
26	0x3d4eb626	0.05046668
27	0x3d05aabb	0.032633524
28	0x3d6b8520	0.057500005
29	0x3d678e3f	0.05653214
30	0x3d421a62	0.04738844
31	0xbd34c1ea	-0.044130243
32	0x3d6dea54	0.0580848
33	0x3ba6297f	0.0050708647
34	0x3c8133d1	0.015771778
35	0xbce19a99	-0.027539538
36	0x3d833e02	0.064083114
37	0xbd11d51d	-0.03560363
38	0x3cd64a1f	0.02615839
39	0x3be9c539	0.0071341065
40	0xbd0e7002	-0.034774788
41	0x3d7f05b1	0.062261287
42	0x3d4b8ca9	0.04969469
43	0x3d846e18	0.06466311
44	0xbcb6874d	-0.022281313
45	0x3d3c39c1	0.045953516
46	0x3cfb93d7	0.030710144
47	0x3ca01c69	0.019544797
48	0x3d63b26e	0.055590086
49	0x3c00fbca	0.007872531
50	0x3cbeadd8	0.023276255
51	0xbd1d1529	-0.038350258
52	0xbbf87034	-0.007581735
53	0x3d35e494	0.044407442
54	0xbcf720ac	-0.030166946
55	0x3d7f46b3	0.062323283
56	0x3d7cc99f	0.06171572
57	0x3d790670	0.060797155
58	0x3c7ea105	0.01554132
59	0xbc1ffbe1	-0.009764642
60	0xbd37cf58	-0.044875473
61	0x3d262e59	0.040571544
62	0xbc57a750	-0.013162449
63	0xbd001b05	-0.031275768
64	0x3cf76455	0.03019921
65	0x3c8194dd	0.015818054
66	0x3bf2b3fa	0.007406709
67	0xbcacfa81	-0.021115543
68	0xbd684cc3	-0.05671383
69	0xbce40bbf	-0.027837632
70	0xbd148724	-0.036261693
71	0xbd0b9f6c	-0.034087583
72	0xbd3d6c1c	-0.04624568
73	0xbce318d5	-0.027721802
74	0xbd59af9b	-0.053145986
75	0x3ca3d760	0.02000016
76	0xbc34bc09	-0.011031159
77	0x3ca9998d	0.020703102
78	0xbbe2ffd2	-0.006927469
79	0xbc0112eb	-0.007878046
80	0x3d394621	0.045232896
81	0xbbeaeaca	-0.0071691023
82	0x3d04487f	0.0322957
83	0x3d53a9f6	0.05167576
84	0xbd4ce2df	-0.05002105
85	0xbd5d5513	-0.05403621
86	0xbc68f264	-0.014217947
87	0x3ce3e301	0.027818205
88	0xbd2015e0	-0.03908336
89	0x3cdd28fb	0.02699708
90	0xbb2a9b4c	-0.0026032506
91	0xbd09f2db	-0.03367887
92	0xbd33249c	-0.043736085
93	0x3cecf87c	0.02892708
94	0x3b06af1f	0.0020551158
95	0x3c4e68ea	0.012598256
96	0x3cab12b6	0.020882946
97	0xbc9992c9	-0.01874675
98	0x3c50d2aa	0.012745539
99	0x3cb3c4df	0.021944461
100	0x3c81c2a0	0.015839875
101	0x3d058acc	0.03260307
102	0xbd3b2499	-0.0456892
103	0xbcdf9a47	-0.027295245
104	0x3d654b81	0.05598021
105	0xbd47f467	-0.048817065
106	0x3d0ee485	0.034885902
107	0x3d85f578	0.0654096
108	0xbd0911fa	-0.03346441
109	0x3d2837ee	0.041068964
110	0x3cdc4112	0.026886497
111	0x3d862047	0.06549125
112	0x3be265d2	0.0069091106
113	0x3c9387f9	0.018009173
114	0x3d4d51bc	0.050126776
115	0x3bd9b6e3	0.0066441162
116	0xbc828100	-0.015930653
117	0x3cab5f0f	0.02091935
118	0xbb8b99bb	-0.0042602695
119	0x3c730e3d	0.014834938
120	0xbb01f57d	-0.001983016
121	0xbcc118df	-0.02357143
122	0xbcdd68db	-0.027027538
123	0x3d445afa	0.047938325
124	0x3d0a1ec9	0.033720765
125	0x3d1ba5a9	0.037999783
126	0xbd541ba2	-0.051784165
127	0xbc194d8a	-0.009356866
128	0x3d2616bc	0.040549025
129	0xbcf1fd1b	-0.029539635
130	0xbd4bb701	-0.049735073
131	0x3cd3cd62	0.02585477
132	0x3cc2846c	0.023744784
133	0xbd26db1a	-0.040736295
134	0x3d542cce	0.05180054
135	0x3c8dbdfe	0.01730251
136	0x3d30414a	0.043031015
137	0xba9eebb0	-0.0012124684
138	0x3d2132d4	0.039355114
139	0x3d546e04	0.05186273
140	0x3d177d00	0.036984444
141	0xbce4d878	-0.027935252
142	0x3d0f4f4d	0.034987736
143	0xbccd7749	-0.025081294
144	0x3d3fe013	0.046844553
145	0x3c115cd6	0.0088722315
146	0x3b537c5f	0.0032270176
147	0x3cb358c2	0.021892909
148	0xbcacb613	-0.021082914
149	0x3d2ac102	0.041687973
150	0xbc9700d0	-0.018433005
151	0x3d81add2	0.06331982
152	0xbd24baea	-0.040217318
153	0x3c160d4b	0.009158443
154	0xbc39247c	-0.011300202
155	0x3d072966	0.032998465
156	0x3d3dca24	0.046335354
157	0x3cc090d4	0.02350656
158	0xbd0a03ab	-0.033694904
159	0xbb9431ef	-0.004522554
160	0x3d38b7e1	0.045097236
161	0x3d0728d3	0.032997917
162	0x3c8d14ca	0.017221827
163	0x3c786cb7	0.015162638
164	0x3d24e28f	0.040255126
165	0xbd1a29f8	-0.03763768
166	0x3cc1235f	0.023576437
167	0xbcd719f0	-0.026257485
168	0x3d4188f4	0.04724975
169	0xbd07c6ff	-0.03314876
170	0x3cc36077	0.023849709
171	0x3d4a5586	0.049397968
172	0x3d3f58a3	0.04671539
173	0x3d311f8c	0.043242976
174	0x3ce182d4	0.027528204
175	0xbcfb416e	-0.030670848
176	0x3d431dfc	0.047636017
177	0x3c992552	0.018694554
178	0x3d8078c8	0.06273037
179	0x3c9a7ede	0.018859323
180	0x3bf62f3e	0.007512956
181	0x3d08d875	0.033409555
182	0xbae1f029	-0.0017237711
183	0xbd5c1244	-0.053728357
184	0x3b3c831e	0.0028764675
185	0x3d1f1e7f	0.038847443
186	0x3c8c1a1f	0.0171023
187	0x3c4193be	0.01181501
188	0x3d18d7ac	0.037315056
189	0x3cc122c6	0.023576152
190	0xbd19ea3d	-0.037576903
191	0x3d3c2b5a	0.04593978
192	0xbd00c524	-0.031438008
193	0x3d2894a3	0.041157376
194	0x3d1e437f	0.038638588
195	0x3c1adff2	0.009452807

linear_2.weight f4 [56, 196]
0	0xbd3814db	-0.044941764
1	0x3b9d92dc	0.004808767
2	0xbc9a509f	-0.018837271
3	0xbd607278	-0.054796666
4	0x3d1ce2f5	0.03830238
5	0xbc93a8a8	-0.018024758
6	0xbc433db3	-0.011916566
7	0xbd7e8fe6	-0.06214895
8	0x3b68a9e5	0.0035501656
9	0xbd45df89	-0.048308883
10	0x3d6fd910	0.058556616
11	0xbb8e5612	-0.0043437565
12	0x3cb37ca8	0.021910027
13	0x3d49a41c	0.049228773
14	0x3d256819	0.04038248
15	0xbc30c2ff	-0.010788678
16	0xbcce4e2f	-0.025183765
17	0xbbcbd025	-0.006219881
18	0x3be21a38	0.006900098
19	0xbd7b5960	-0.06136453
20	0xbc221e95	-0.009894987
21	0xbcaa7d41	-0.020811679
22	0xbba2afee	-0.00496482
23	0x3d2a4edc	0.041579112
24	0x3c9cb189	0.019127624
25	0x3d804923	0.0626395
26	0x3d4b0067	0.04956093
27	0x3cebe9dd	0.028798038
28	0x3d52c5d7	0.051458206
29	0x3d5075cc	0.05089359
30	0x3d4d2971	0.05008835
31	0x3cd4764d	0.025935316
32	0xbd27faa8	-0.04101053
33	0xbc2e7a66	-0.010649299
34	0x3d665175	0.056230027
35	0xbcbb7673	-0.02288363
36	0xbd9e5424	-0.07730892
37	0xbd35abee	-0.044353418
38	0x3ba28e2e	0.004960797
39	0xbc9b55e0	-0.018961847
40	0xbc50184e	-0.012701107
41	0xbccfca62	-0.025365058
42	0xbd6481c2	-0.05578781
43	0x3c410c67	0.011782742
44	0x3caba2b2	0.020951603
45	0x3d3e40ea	0.046448626
46	0x3d2bcb73	0.04194207
47	0xbc39ba65	-0.011335944
48	0x3c90b488	0.017664209
49	0xbd5b3e41	-0.053526167
50	0xbcfc3d43	-0.03079093
51	0x3d10a05a	0.035309173
52	0x3d531919	0.051537607
53	0xbb1a8cab	-0.002358238
54	0x3d5e907f	0.05433702
55	0x3c40bb8f	0.011763467
56	0x3c35c338	0.011093907
57	0x3d5337f5	0.051567037
58	0x3d79da99	0.060999487
59	0x3cdf9d8e	0.027296808
60	0xbd3702c3	-0.04468037
61	0xbd3194b5	-0.04335471
62	0x3d145224	0.036211148
63	0xbc80fea8	-0.01574643
64	0x3d3cbcc8	0.046078473
65	0xbd1e2a52	-0.03861458
66	0xbd82f82e	-0.06394993
67	0x3c82cdd4	0.015967287
68	0x3cded925	0.027203152
69	0x3d0919ff	0.033472057
70	0x3d7e39b5	0.062066752
71	0xbacf5129	-0.0015817034
72	0x3d31abd0	0.043376744
73	0x3ccf0fe0	0.025276124
74	0x3ca9312e	0.020653334
75	0xbcadcfa3	-0.021217173
76	0x3aaf10cf	0.001335645
77	0x3bf93ccb	0.007606124
78	0xbd86cda8	-0.065821946
79	0xbc2a6c04	-0.0104017295
80	0xbd96e4d1	-0.07367862
81	0xbd993b01	-0.07481957
82	0xbbdaebdb	-0.006680948
83	0xbd274e3b	-0.04084609
84	0x3d0165af	0.031591114
85	0x3cce2820	0.025165617
86	0x3cbd232a	0.023088057
87	0xbd496d63	-0.049176585
88	0x3d8b3e0e	0.06798945
89	0xbd13518f	-0.035966452
90	0xbd3ee7d1	-0.046607796
91	0x3d5af401	0.053455357
92	0x3c529bd8	0.012854539
93	0x3c7e0b30	0.015505597
94	0x3c6618aa	0.014043966
95	0x3c7a2dc4	0.0152697
96	0x3d7acf80	0.061233044
97	0x3d18c14f	0.03729373
98	0xbd613e63	-0.054991137
99	0x3d1d67de	0.038429134
100	0xbcde0395	-0.027101317
101	0xbca2e0ff	-0.019882677
102	0xbc6974a3	-0.014249
103	0x3d5517eb	0.052024763
104	0xbc95326f	-0.018212525
105	0x3d1bba37	0.038019385
106	0x3d8eddd0	0.06975901
107	0x3b1587ca	0.0022816532
108	0xbd991f07	-0.07476621
109	0x3b1b649a	0.0023711086
110	0x3c0c1c76	0.0085517075
111	0x3d37ccd8	0.04487309
112	0xbd927d2e	-0.071527824
113	0xbd1cc38b	-0.03827242
114	0xbd9b3a45	-0.075794734
115	0x3d0ae36f	0.033908304
116	0x3b9e8043	0.0048370673
117	0xbd467460	-0.048450828
118	0xbc02e280	-0.007988572
119	0x3c809705	0.015697012
120	0x3d4701ca	0.04858569
121	0xbcdeb5e3	-0.02718634
122	0xbca8ff34	-0.020629503
123	0xbd9bd324	-0.07608631
124	0xbd104abf	-0.035227533
125	0xbd6ef221	-0.05833638
126	0xbd27f769	-0.041007433
127	0xbc80d322	-0.015725676
128	0xbd7a577f	-0.0611186
129	0x3c7b03bf	0.015320717
130	0x3b93755a	0.0045000734
131	0x3d412244	0.04715182
132	0xbcb50e7c	-0.022101633
133	0xbcade617	-0.02122788
134	0x3d197c54	0.037472084
135	0xbc50f978	-0.0127547905
136	0x3cb438f3	0.021999812
137	0xbce5132d	-0.027963245
138	0xbd1a0cf9	-0.037610028
139	0xbd3b4f15	-0.045729715
140	0xbd883a1b	-0.06651708
141	0xbcdc1b0d	-0.026868368
142	0xbd949a1e	-0.07255958
143	0xbd6b6a5e	-0.057474487
144	0xbd81ba8c	-0.06334409
145	0x3a7896fb	0.0009482947
146	0xbd6a097f	-0.057137962
147	0xbccbbdf9	-0.02487086
148	0x3c54b484	0.012982491
149	0xbd553dc8	-0.052060872
150	0x3c053814	0.008131046
151	0x3d39c906	0.045357727
152	0xbc628f47	-0.013828105
153	0x3c8edf98	0.017440602
154	0xbd4d1f68	-0.05007878
155	0xbbef8c18	-0.0073104016
156	0xbd195c12	-0.03744132
157	0xbb5a4647	-0.0033306049
158	0x3b9cc7da	0.0047845664
159	0x3b610224	0.0034333551
160	0x3cbdc9b1	0.023167463
161	0xbb9d6f2f	-0.004804514
162	0xbd0c42eb	-0.034243505
163	0x3ceb9be1	0.028760852
164	0xbc7d6e86	-0.015468245
165	0xbcb8e692	-0.022570882
166	0xbd9e95ad	-0.07743392
167	0x3d4d55eb	0.050130766
168	0x3b0e636e	0.0021726745
169	0x3c411c99	0.011786603
170	0xbcaddfbe	-0.021224853
171	0x3d1d8c2a	0.03846375
172	0xbd34808c	-0.044067904
173	0x3d6feeac	0.058577225
174	0x3c687b4d	0.014189553
175	0x3d4e3079	0.050339196
176	0xbcaa0c6d	-0.020757878
177	0x3c734433	0.014847803
178	0x3d826b4c	0.063681215
179	0x3d75fdbe	0.06005644
180	0xbd880dee	-0.06643282
181	0x3d131974	0.035912946
182	0x3d494ad9	0.049143646
183	0xbd86d4ee	-0.06583582
184	0x3d58d278	0.052935094
185	0x3cc2dade	0.023786005
186	0xbd5a5a08	-0.053308517
187	0x3d90d2bb	0.07071444
188	0xbd471aee	-0.048609667
189	0xbd1f66b6	-0.038916312
190	0xbd2abb89	-0.041682754
191	0xbc732e60	-0.0148426
192	0xbb4e8a03	-0.0031515367
193	0x3d226318	0.039645284
194	0xbd90fbee	-0.07079302
195	0x3d6a334c	0.057177827
196	0x3b63e4ac	0.003477375
197	0xbbb7304b	-0.005590474
198	0xbbdb4c08	-0.0066924132
199	0xbd1015a3	-0.035176884
200	0x3d9136d6	0.07090537
201	0xbc6a0c5a	-0.014285171
202	0xbd47da9e	-0.048792474
203	0x3b7291db	0.0037013206
204	0x3d8682b8	0.065679014
205	0xbd5183ba	-0.051151015
206	0x3d297de4	0.041379824
207	0xbc812cba	-0.015768398
208	0x3c386405	0.011254315
209	0x3d13581d	0.035972703
210	0xbc105b39	-0.008810812
211	0x3c18e8b8	0.009332828
212	0xbbb0248a	-0.0053754495
213	0x3cae7081	0.02129388
214	0xbc3cfd47	-0.011534995
215	0x3c8b00ab	0.016968092
216	0x3cedbbae	0.029020157
217	0x3d2b0372	0.041751333
218	0x3c667807	0.014066703
219	0xbc72109d	-0.014774469
220	0x3d9a8023	0.075439714
221	0xba31e19a	-0.00067856314
222	0x3d84e5e3	0.0648916
223	0x3ca387c5	0.0199622
224	0x3d96bd5b	0.073603354
225	0x3cac72a5	0.02105076
226	0x3d70816e	0.058717184
227	0x3cd68f8f	0.026191501
228	0xbc995da7	-0.018721415
229	0xbc8c56f7	-0.017131312
230	0xbd15e2c6	-0.03659322
231	0xbc5e5181	-0.013569237
232	0xbd5268af	-0.051369365
233	0xbd3f27f1	-0.04666895
234	0xbca76b63	-0.020436948
235	0x3da84bc5	0.08217577
236	0x3d510ac8	0.051035672
237	0x3c3fb203	0.011700156
238	0x3da20838	0.07911724
239	0x3d9452a2	0.072423235
240	0x3d951626	0.07279615
241	0xbd43982b	-0.04775254
242	0xbc0e9c60	-0.008704275
243	0xbc951938	-0.018200502
244	0x3c5ea781	0.013589741
245	0xbb858b72	-0.004075461
246	0xbbe02a34	-0.0068409685
247	0x3d3b406c	0.045715734
248	0x3c289c78	0.010291211
249	0x3d9be447	0.076119
250	0xbc4bce64	-0.012439344
251	0x3d79e34f	0.061007794
252	0xbabdb9da	-0.0014474944
253	0xbceaef2f	-0.028678505
254	0x3d868db8	0.065699995
255	0xbd06cd69	-0.03291074

linear_2.bias f4 [56]
0	0xbd727a0f	-0.059198435
1	0x3d6c4809	0.057685886
2	0xbd25249e	-0.040318124
3	0x3d628c78	0.055309743
4	0xbd424455	-0.047428448
5	0x3d230530	0.03979987
6	0x3d17daa7	0.037073757
7	0x3d59c342	0.053164728
8	0x3b47f331	0.0030509944
9	0xbb67603d	-0.0035305165
10	0xbd533b1e	-0.05157005
11	0x3d77c682	0.060492046
12	0xbca02db0	-0.019553035
13	0xbd22be6b	-0.039732378
14	0xbc5c28da	-0.013437474
15	0x3a582d94	0.0008246538
16	0x3d6697d6	0.056297146
17	0xbd3c061d	-0.045904268
18	0xbd763e58	-0.06011805
19	0x3d453526	0.04814639
20	0xbd3b1b69	-0.045680437
21	0xbb76d519	-0.0037663637
22	0xbd376228	-0.044771343
23	0x3d829dfb	0.06377789
24	0xbd25f84c	-0.040519997
25	0x3d825f66	0.06365852
26	0xbd6a42e0	-0.057192683
27	0x3d96d0af	0.07364022
28	0x3cbc2695	0.022967616
29	0x3d96f246	0.07370429
30	0xbca0ba9d	-0.019620234
31	0xbc580b89	-0.013186344
32	0x3d12ed4e	0.035870843
33	0x3b82675e	0.0039796075
34	0x3d256db0	0.04038781
35	0x3d7d073a	0.06177447
36	0x3d8fc03b	0.07019087
37	0xbb1a3e4f	-0.0023535674
38	0xbc9f4eab	-0.019446691
39	0x3d392a58	0.045206398
40	0x3d317148	0.043320924
41	0x3d6e786c	0.058220312
42	0x3d82eb83	0.063925765
43	0xbc66eae7	-0.014094091
44	0x3d02f382	0.03197051
45	0xbc158c25	-0.009127651
46	0x3d79f003	0.06101991
47	0x3c952633	0.018206691
48	0xbd20a233	-0.039217185
49	0xbc1edbfe	-0.009696005
50	0xbd93c44b	-0.07215174
51	0xbcd81f56	-0.02638213
52	0x3c0d2989	0.00861586
53	0xbd12688f	-0.035744246
54	0xbd8da22e	-0.06915699
55	0xbb75a2b3	-0.003748101

linear_3.weight f4 [1, 56]
0	0xbc1816bb	-0.009282763
1	0x3dfd229d	0.123601176
2	0x3ca38b1c	0.019963793
3	0x3c88deba	0.016707767
4	0xbe00debc	-0.12584966
5	0x3cede93b	0.029041877
6	0xbd748631	-0.059698287
7	0xbd4ae452	-0.04953415
8	0xbd282751	-0.04105312
9	0xbcf5e2bf	-0.030015348
10	0x3dd77cca	0.105218485
11	0x3e04de49	0.1297542
12	0x3e0827aa	0.1329638
13	0xbde60f4c	-0.112333864
14	0x3d38822d	0.04504602
15	0x3db3332d	0.087499954
16	0x3d0b529d	0.034014333
17	0xbd4eeba7	-0.050517704
18	0xbdd17356	-0.10227077
19	0x3ccafcf8	0.024778828
20	0xbe059578	-0.13045299
21	0x3cf47f94	0.02984599
22	0x3e05fa59	0.13083781
23	0xbd2c1ec4	-0.042021528
24	0xbc7e4ec5	-0.01552171
25	0x3d70c91a	0.058785535
26	0xbd225f65	-0.039641757
27	0x3df3e7b0	0.11909425
28	0x3df1334b	0.117773615
29	0x3d756c92	0.059917994
30	0xbdce804d	-0.10083065
31	0x3da02131	0.07818831
32	0xbc73f950	-0.014890984
33	0x3e036092	0.12829807
34	0xbd48866e	-0.048956327
35	0xbd7ba0ea	-0.061432756
36	0x3da918db	0.08256694
37	0xbdcc74a5	-0.09983186
38	0xbd14331c	-0.036181554
39	0xbdf7fc04	-0.12108615
40	0x3c435d92	0.011924164
41	0xbdf1aebf	-0.11800908
42	0xbd57f3a8	-0.052722603
43	0x3de76beb	0.112998806
44	0xbd69dcf0	-0.057095468
45	0xbd078c06	-0.03309252
46	0xbc4e251c	-0.01258209
47	0x3dbfff90	0.093749166
48	0x3dda12d0	0.106481194
49	0x3c46a083	0.01212323
50	0xbdd6419c	-0.10461733
51	0x3d82bd11	0.06383718
52	0x3e0a5d11	0.13512065
53	0xbd5b13bf	-0.05348563
54	0xbd3be2ab	-0.045870464
55	0x3d9ff5ad	0.07810531
