ndp/weights/finetune-2.pt (torch, 3951 bytes, 5 tensors)

linear_1.weight f4 [16, 8]
00000000: 1d78 f13d 718f 8a3e 484f 20be 6255 523d
00000010: 04f7 22be 4835 d13e 9f87 6fbe 19c0 bd3e
00000020: 1063 e03c 87b5 c1be 55ee 163e 5dee 0a3b
00000030: f1e5 553d 1255 92bc 7cda 97bd 4b07 f23d
00000040: 0f52 69be c3be 2fbe 407a 53be 9190 c03d
00000050: 77e5 d53c 3942 95be eea4 183e 9b8d 963d
00000060: be82 ed3d 2c2c 263d 9174 19be b647 ddbb
00000070: 64fc 46bd a224 22be 97f4 213b f5f7 b93e
00000080: be72 15bd 5033 0bbc d027 43be c399 85be
00000090: d1fa 9c3e 473c af3c c124 51be c0df a6be
000000a0: 4c23 963e 2b3c 26be 53c9 c93e 803c 733e
000000b0: eacc dbbd 0e7a ad3d 63ee 5ebe 741a a83e
000000c0: c667 7d3d 5a02 d23e 8b62 f2bd 37d7 c93d
000000d0: 942b bdbd e751 b63d c766 e13e c2e9 3abe
000000e0: a61f 32be d63b 673e 8b67 b1be 4a4a 96be
000000f0: 11bf 7abd 7e06 3fbe c317 97be 224d 96be
00000100: 1ffd 61be 51e7 a1be f736 223b 78a5 453e
00000110: 2ef8 12be 5720 48be 9c0b 44be e33f 54be
00000120: 4cc6 1b3e 3777 69be c409 5bbe facd d23c
00000130: 887e c5bd 5a9e f3bd c405 a4be e7a7 88bc
00000140: c176 3dbe 9eca 37be 0ca7 babe 762a b03d
00000150: 770e 9bbe 0f9e 2dbe bf92 9d3e 1590 a33b
00000160: 1da3 9b3e bcef d03e 2238 ad3d 5375 6ebd
00000170: 5aa1 863e 8afa 02be 0c88 c03e 3dfb 60bd
00000180: e516 14be 8602 713d 88af 2ebe ae92 01be
00000190: 40d4 2bbe f9db c93e 1fe0 cd3e a80a 8b3e
000001a0: 1eab 2b3c ddef 3a3a 5b8f f33d 648f 8dbb
000001b0: 8ec6 9d3e 4842 1c3d 1566 de3e a831 383b
000001c0: c717 783e 89f7 613e b73a c53d 6918 bd3d
000001d0: a27d af3e 9ff8 04be ba55 5e3e 1b26 35be
000001e0: 9ec8 623d 5ea6 43be 2b4a 833e 2292 f53e
000001f0: 60ce 7f3d ce5c 933d 21e0 19be 5192 ad3e
0.11790488 0.27062562 -0.15655243 0.05135096 -0.15914541 0.40860963 -0.23391579 0.3706062
0.027390987 -0.37833807 0.14739354 0.0021199204 0.052221242 -0.01786283 -0.074147195 0.11817797
-0.22785209 -0.17162614 -0.20652103 0.09402574 0.026110394 -0.29152086 0.14906666 0.07351228
0.11597203 0.04056947 -0.14985873 -0.0067529334 -0.048580542 -0.15834287 0.0024712437 0.3632199
-0.03648638 -0.008496121 -0.19058156 -0.26093873 0.30660108 0.021391047 -0.20424177 -0.32592583
0.29323804 -0.1623389 0.3941141 0.23753548 -0.10732444 0.08470546 -0.21770625 0.32832682
0.061866544 0.4101742 -0.11835202 0.09855502 -0.092368275 0.089023404 0.44023725 -0.18253234
-0.17394885 0.2258142 -0.3464931 -0.29353553 -0.06121737 -0.1865482 -0.29510316 -0.29355723
-0.22069214 -0.31621793 0.0024752 0.19301403 -0.14352486 -0.19543587 -0.19145054 -0.20727496
0.15212363 -0.22799383 -0.21390444 0.025732983 -0.096432745 -0.118954375 -0.3203565 -0.016681625
-0.18502332 -0.17948386 -0.36455572 0.08601849 -0.30284473 -0.16954826 0.3077602 0.004991541
0.30397883 0.40807903 0.08457972 -0.058217358 0.26294976 -0.12790886 0.37603796 -0.0549271
-0.14461859 0.058840297 -0.17059147 -0.1265361 -0.16780186 0.39425638 0.40210053 0.27156568
0.010477809 0.00071310793 0.11892577 -0.004320072 0.30815548 0.03814915 0.43437257 0.002810577
0.2422782 0.22067083 0.096303396 0.092331715 0.34275538 -0.12985466 0.2171239 -0.17690317
0.055367105 -0.19106433 0.25642523 0.47963053 0.062452674 0.071954355 -0.15026905 0.33900693

linear_1.bias f4 [16]
00000000: d52a e63e 0442 9b3d 55b7 7abe e527 5ebe
00000010: dab9 96bd b42d d93e 5348 0a3e 08dc 94bc
00000020: 01aa 0dbd f6c7 5e3e 14eb 81be bb95 edbd
00000030: 9ede e63e 4a7a d23d a34d a83d 608c 9f3e
0.44954553 0.07580951 -0.24483998 -0.21694906 -0.07359667 0.4241768 0.13504152 -0.018171325
-0.034585956 0.21755967 -0.25374663 -0.116008244 0.45091718 0.10277231 0.08217933 0.31161785

linear_2.weight f4 [16, 16]
00000000: f868 9c3e ca49 80bd 002d 65bb 5250 9c3e
00000010: b7f2 3dbd 67cc 723e bbd9 beba 4065 723e
00000020: 9029 6fbe f4a7 b0bd 3c52 12be 2c73 a63d
00000030: 1ca0 67bd 02e0 d53d 537e b83e 0dd4 dfbb
00000040: 609e 0b3d c0d9 d9bb 14df dabd c039 8abc
00000050: e0e2 91bd 9e22 18be bcdd dabd 8c82 323e
00000060: 6c44 52be 4014 353d b6bb 7dbe d45d be3d
00000070: 209f 683c a03c 673e 6233 6cbe 3242 3bbe
00000080: b84b 983d ea8f 533e ee52 143e 4c76 b5bd
00000090: 5852 5dbd 16ae 21be 9000 c4bc 6cd3 70be
000000a0: 182c 683e 5ebf 723e 7eee 64be e035 7dbe
000000b0: cc5f a1bd 6827 f0bd 4055 823b f8de f7bd
000000c0: 7ff7 b63e 1896 2cbd 5499 2abe a9e7 a53e
000000d0: 67f7 e13d f47d 96bd 5072 8b3e dfaa 5ebe
000000e0: cc85 fc3d fff9 04bd 4d11 5a3e ee68 863e
000000f0: 586c 0b3e d337 3e3e b3a9 d03d 68e8 a83e
00000100: 67ca 81bd e9c4 a1bd a899 4f3d a575 283e
00000110: 6910 55bd 7537 a33d 1e48 413e 723f 1839
00000120: 000f 973d 75df 2dbe 6649 cabd 88b3 2b3e
00000130: 15ea f53d 3597 8cba a777 bb3e d229 0e3e
00000140: 9b8f 8d3e 95d3 85bd deec 393e 8c51 313d
00000150: 819c 68be 6974 af3e a2c9 b7bd fe93 c63d
00000160: 2ec2 763e 7b73 80bd 0582 03bd e595 c13e
00000170: c972 b03d 8a81 923e b4d3 063e b7b7 af3e
00000180: 02d0 363e abe7 bc3d 285d 24be 6f26 323e
00000190: f998 503d 018a 30bd b314 7ebe 84df f6bd
000001a0: 7edf 4ebe 6f6d fe3d 7e5d f73d 10db d83d
000001b0: 386f 62bd 19fe 20be 8e70 403d d722 04be
000001c0: bfbe 07be d75b 5fbe 007d 65bb ac98 48be
000001d0: f0c0 23bd 2eb2 32be 40bb 903d 808a 9f3b
000001e0: 18ae ff3d 79f5 723d 8ac8 78bd fdb7 3dbe
000001f0: 93e1 3c3e eb59 68be c06e 27be fe96 41be
00000200: 6008 033d 5c80 313c e0c1 53bd 5663 cb3d
00000210: 73e1 c43d 46e3 dd3d 6bfa b63e 29de 093e
00000220: d825 30bd bd96 15bb e9fc b43d a1b4 ae3d
00000230: 1497 b63d 3be9 c33e 46e6 173e abb0 4e3d
00000240: ea77 adbc 0153 3a3d 0c68 683e 9ecd 39be
00000250: f674 48bd 6b27 f53d de0e 5dbd 3476 a63d
00000260: 5ae8 4dbe 0b86 f1bd ae66 2dbe 03c1 a63d
00000270: 94cc 73be 8dd9 ba3c 5f14 81bd f36c 50be
00000280: 02ae 873c ae92 363e 6852 553d 9092 ab3d
00000290: b3cb aeba e945 0ebe 0bba 053e 2656 ed3c
000002a0: 98b3 183d 58dd 9fbc d71e 623c 046e 0a3e
000002b0: 7c80 61be 93d9 10bd 3ed3 2abe 77fe 043d
000002c0: 3913 0d3e 48c3 bebd 2084 1abd 070d 69be
000002d0: 40b3 eb3c 304c 02be f511 833e 1832 9e3d
000002e0: 54b9 d2bd 9e09 05be b4d5 b93d ef06 fa3d
000002f0: c2d1 8b3d 350a 2fbe f5bc 16be 7697 cdbd
00000300: 78d5 56bd 58ed a33d 52b8 4cbe 2814 373d
00000310: 6498 81bd 7483 12be 860e 643e 188c cfbd
00000320: 76fe 7f3e 6cac 003e 4209 1ebe e011 f6bd
00000330: 681e 71bd 9026 d1bc 986a 423d 44cb d5bd
00000340: 1e51 013e 92da 233e 9488 e43d 4100 583e
00000350: e1f9 2e3d be0f 1cbd c94b a43d cdfa b0bb
00000360: 6059 093c 9890 3b3d 032d 683e 671f 283e
00000370: 02d2 b03e 3c56 b0bd f814 be3d 0d8c 7f3e
00000380: c5af 313e a2f2 c5be 1091 40bd e545 abbe
00000390: 16bf 913d 693c eb3c ced6 ac3e 87f7 313e
000003a0: ac21 a2bd 9e5c 02bd e53d 65be eeed f53d
000003b0: 9648 ae3b 950f 8ebd a53a 1d3e 4df3 fcbd
000003c0: b7a8 583e c088 5a3e 7c48 7b3e 4c49 513e
000003d0: a008 c63d a696 20be a419 eebb 4c48 4dbe
000003e0: 8ccd fe3d dbfa 81be 8e54 203e 44cc 19be
000003f0: 9bbb 4d3c 0ec9 50be 92ba 5ebe c610 0f3e
0.30548835 -0.06264074 -0.003496945 0.3053003 -0.04637405 0.23710786 -0.0014560738 0.23671436
-0.23355699 -0.086257845 -0.14289182 0.08127436 -0.056549177 0.10443117 0.36033878 -0.0068306983
0.034086585 -0.0066482723 -0.1068708 -0.01687324 -0.07123351 -0.14856955 -0.10686824 0.17432612
-0.20533913 0.044208765 -0.24778637 0.0929524 0.014198095 0.2258172 -0.23066476 -0.1828697
0.07436317 0.20660368 0.1448476 -0.08860454 -0.054033607 -0.15789065 -0.02392605 -0.23518151
0.2267307 0.23705813 -0.22356603 -0.24727583 -0.078796 -0.11726266 0.0039774477 -0.12103075
0.357357 -0.042135328 -0.16660053 0.32403305 0.110335164 -0.073482424 0.2723565 -0.2174487
0.12330207 -0.032464977 0.21295662 0.2625193 0.13615549 0.18575983 0.101886176 0.32989812
-0.06337433 -0.07898886 0.050683647 0.16451128 -0.052017603 0.07969562 0.18875167 0.00014519485
0.07375908 -0.16979773 -0.09877281 0.16767704 0.12007538 -0.0010726216 0.36614725 0.1388314
0.27648625 -0.06534497 0.18156764 0.04329066 -0.22715952 0.342685 -0.08974005 0.09696196
0.24097511 -0.06272026 -0.03210642 0.37809673 0.086156435 0.28614455 0.13166696 0.3431985
0.17852786 0.09223875 -0.16051161 0.17397474 0.050927136 -0.04310036 -0.24812584 -0.12054351
-0.20202443 0.124232166 0.12078379 0.10588658 -0.055281848 -0.1572193 0.04698234 -0.12903915
-0.13256358 -0.21812378 -0.0035017133 -0.1958949 -0.03997892 -0.17450783 0.07066965 0.0048688054
0.124843776 0.059316132 -0.060738124 -0.18527217 0.18445425 -0.22690551 -0.16350842 -0.18905255
0.03199041 0.010833826 -0.051698565 0.09931056 0.096133135 0.108343646 0.3573793 0.13463654
-0.04300484 -0.0022825443 0.08837301 0.08530546 0.089155346 0.38263878 0.14833936 0.050461452
-0.021175344 0.045489315 0.2269594 -0.18144843 -0.048939668 0.11970409 -0.053969257 0.08128014
-0.20108166 -0.11793145 -0.169337 0.08142283 -0.23808509 0.022808814 -0.063027136 -0.20354061
0.016562466 0.17829391 0.05208054 0.08377564 -0.0013335854 -0.13893856 0.13059251 0.028971743
0.03728065 -0.019514725 0.013801298 0.1351853 -0.22021669 -0.035363745 -0.16682145 0.03246924
0.13776864 -0.09314591 -0.03772366 -0.22758876 0.028771996 -0.12724376 0.25599638 0.077243984
-0.10289255 -0.1299195 0.09073964 0.12208354 0.068271175 -0.17093737 -0.14720519 -0.100386545
-0.052449673 0.08004254 -0.19992188 0.044696957 -0.06327894 -0.14307958 0.22271165 -0.10134143
0.24999413 0.12565774 -0.15433219 -0.12015128 -0.05886689 -0.025531083 0.047464937 -0.104391605
0.126286 0.16001347 0.11158863 0.21093847 0.04271877 -0.03810095 0.08022267 -0.0054009915
0.008383125 0.045792192 0.2267342 0.16418229 0.34535223 -0.08610198 0.09281343 0.24955769
0.17352207 -0.38661677 -0.047013342 -0.33451763 0.07116525 0.02871533 0.33757633 0.1737958
-0.07916579 -0.031826608 -0.22386892 0.12008272 0.0053187115 -0.06936566 0.15354402 -0.123510934
0.2115811 0.21341228 0.2453937 0.20438117 0.09669614 -0.15682468 -0.00726624 -0.2004711
0.12441549 -0.253867 0.15657255 -0.15019327 0.012556936 -0.20389196 -0.21750858 0.13971242

linear_2.bias f4 [16]
00000000: e316 253e fc0f 51be 0a22 39be fb76 ef3d
00000010: 969c 9b3e 950c a23d e9c4 07bd f57f 373e
00000020: 7c5d 0f3e d717 a33c ccff 9f3d 3e9b 61be
00000030: 34bb a4bd 0e31 243e ec9d 2bbd 2207 4fbe
0.16122012 -0.20416254 -0.18079391 0.116926156 0.30392903 0.07912556 -0.033146773 0.17919905
0.14000505 0.019908829 0.07812461 -0.22031876 -0.08043519 0.16034338 -0.041898653 -0.20217565

linear_3.weight f4 [1, 16]
00000000: 9f7f 733e 8094 84bc a27b 423e 3ef8 2b3e
00000010: 7abb 803e 73ca 4c3e b00d adbc 5fa7 d9bc
00000020: cd4f b93e 1a1d e2bd fc77 11be 876c 3b3e
00000030: c045 183d c579 353e 6fc5 70be cf6d 98bc
0.23779152 -0.016184092 0.18992475 0.16793916 0.25143033 0.19999103 -0.02112469 -0.026569067
0.36193696 -0.11040707 -0.14205927 0.18303119 0.037175894 0.17722233 -0.23512815 -0.018607048
