ndp/weights/finetune-5.pt (torch, 68847 bytes, 5 tensors)

linear_1.weight f4 [100, 125]
0.061703864 0.025311533 0.075934164 0.048706952 0.09343217 -0.003034936 0.0058062375 -0.066468515
0.027204063 -0.023158764 -0.061980896 0.052123792 0.024886474 0.07021722 0.036673438 -0.025280392
-0.022260338 0.0036270577 0.056108847 0.08337806 0.038878836 -0.06129468 0.04346865 -0.07459932
0.025392616 -0.06253809 0.05492156 0.0042021465 0.070526704 -0.024418885 0.07053904 0.059822757
0.0042541306 -0.049273007 0.008154534 -0.06794829 -0.021541083 -0.06542579 -0.00089388853 -0.012757021
0.013203255 -0.033280186 0.071775764 -0.039619282 0.023054974 0.06826723 -0.036243863 -0.034273133
-0.01135606 0.03262374 0.05850265 -0.06738956 -0.015416033 -0.03027774 0.05024727 0.029686011
0.045725513 0.019477991 0.0014879247 0.04068386 0.031501286 -0.07161255 -0.07170892 0.07965584
-0.022818398 0.037861455 -0.037875853 0.02216607 -0.009037745 0.087378174 -0.045443278 0.098819695
-0.07465386 0.05746255 0.08755104 -0.02907871 -0.03604254 0.08460898 -0.060047682 -0.054155327
0.041982144 0.100123905 0.021275746 -0.005844162 0.05001751 -0.040414594 0.05699621 -0.00041782827
0.08752608 -0.023671726 0.08498134 -0.04492875 0.077737704 0.09082182 0.021257194 0.08992068
-0.029434342 -0.06700958 0.016537797 -0.015303037 0.096711405 -0.05039457 0.049293153 -0.035659906
0.06827084 0.06769107 -0.060802273 -0.0023151878 0.03414923 -0.051985472 -0.00083287916 -0.036453586
0.07707036 -0.059271447 -0.022722144 0.09330009 0.024509648 0.097838715 -0.07845965 0.019390946
-0.07242016 -0.026142936 -0.077081695 -0.07002406 0.05368705 -0.09487777 0.0563373 -0.06920033
-0.04982607 0.006843333 0.015807966 0.030391524 0.045809258 -0.06148107 0.07222339 -0.08762955
0.050933715 0.049191277 0.010395486 -0.08657305 0.07229937 -0.016087933 -0.03651991 0.049404584
0.028710319 -0.045804217 0.063240245 0.065611824 0.010085457 -0.09077792 0.035429373 -0.081381746
0.037674937 -0.016403392 0.06690384 0.06009175 -0.06761746 0.012604558 -0.01644121 -0.04266117
0.011948337 0.032865938 -0.016599946 0.0360411 -0.02635344 -0.029193822 -0.03846541 -0.023869898
0.06237143 0.060557906 -0.042622894 -0.02925337 0.0482813 -0.09580992 -0.02079154 -0.016837433
0.0461988 0.045646917 -0.078527234 0.022345712 -0.0993052 -0.01226613 0.010042125 0.07011901
-0.04191187 0.062593505 -0.0024100845 0.06942461 0.0073311604 -0.05505584 -0.06484703 -0.09969762
0.032704044 -0.014792263 0.044750344 -0.028026935 -0.038872022 -0.043019988 -0.09325596 0.019415328
0.07064617 -0.07893182 -0.084403604 0.02094448 -0.07988466 0.009773587 0.055064805 -0.015922982
-0.0052625095 -0.027570836 0.051895175 0.01668152 -0.08856067 -0.06169447 -0.007556877 0.070414245
0.063827075 0.031303238 0.052035425 0.0015558803 0.04564517 0.028113404 -0.07510848 0.052521963
-0.07079179 -0.055360395 -0.040191997 -0.016629428 -0.06892278 0.041506626 0.042277526 -3.457563e-05
0.057652436 0.0019152152 0.026292333 -0.07904344 -0.07436413 0.0662927 -0.014417991 -0.06650933
-0.046713103 -0.07709791 -0.08838978 -0.019745314 0.02841674 -0.028295944 0.054070108 -0.08197414
-0.015374037 0.043641064 -0.03831538 -0.04390379 0.07990261 -0.01179445 0.002453842 0.07668144
00000000: 31bd 7c3d 225a cf3c 5f83 9b3d f180 473d
00000010: 5e59 bf3d c7e5 46bb 4042 be3b a520 88bd
00000020: 0edb de3c 73b7 bdbc aedf 7dbd c27f 553d
00000030: b8de cb3c 0cce 8f3d e336 163d d318 cfbc
00000040: 505b b6bc eeb3 6d3b 64d2 653d 1ec2 aa3d
00000050: 6a3f 1f3d 2110 7bbd 2f0c 323d 87c7 98bd
00000060: 2d04 d03c f813 80bd 6ef5 603d 29b2 893b
00000070: 4e70 903d 1d0a c8bc c676 903d b508 753d
00000080: 3c66 8b3b 7ed2 49bd 989a 053c 7928 8bbd
00000090: ed76 b0bc f5fd 85bd d853 6aba d302 51bc
000000a0: 7752 583c ce50 08bd 2cff 923d d447 22bd
000000b0: c9dd bc3c b1cf 8b3d 7274 14bd fc61 0cbd
000000c0: c50e 3abc 79a0 053d 7aa0 6f3d 8a03 8abd
000000d0: 8793 7cbc 0609 f8bc 15d0 4d3d 1430 f33c
000000e0: ad4a 3b3d 4f90 9f3c 7806 c33a 1fa4 263d
000000f0: 7e07 013d 9aa9 92bd 20dc 92bd 9a22 a33d
00000100: a6ed babc 9d14 1b3d b623 1bbd 9e95 b53c
00000110: 0d13 14bc 54f3 b23d bb22 3abd fb61 ca3d
00000120: 1fe4 98bd da5d 6b3d f64d b33d 7a36 eebc
00000130: 58a1 13bd 7947 ad3d 8ff4 75bd fad1 5dbd
00000140: 78f5 2b3d c30d cd3d 794a ae3c 6280 bfbb
00000150: 29df 4c3d c689 25bd dc74 693d f60f dbb9
00000160: e040 b33d 35eb c1bc b20a ae3d 3507 38bd
00000170: f234 9f3d ca00 ba3d 9123 ae3c 5528 b83d
00000180: 4a20 f1bc 523c 89bd 467a 873c 97b9 7abc
00000190: a110 c63d 896a 4ebd 9ee7 493d 1f10 12bd
000001a0: 95d1 8b3d 9ea1 8a3d ce0b 79bd 68ba 17bb
000001b0: 10e0 0b3d b8ee 54bd 9355 5aba 5b50 15bd
000001c0: 11d7 9d3d 9ec6 72bd ca23 babc 1e14 bf3d
000001d0: 75c8 c83c aa5f c83d 74af a0bd c3d9 9e3c
000001e0: 0551 94bd b629 d6bc 02dd 9dbd c668 8fbd
000001f0: f4e6 5b3d 474f c2bd f1c1 663d e7b8 8dbd
00000200: 6c16 4cbd 0a3e e03b b57f 813c a5f7 f83c
00000210: 7da2 3b3d 93d3 7bbd dbe9 933d 1f77 b3bd
00000220: df9f 503d cb7c 493d d451 2a3c 364d b1bd
00000230: b111 943d d7ca 83bc e795 15bd 765c 4a3d
00000240: e731 eb3c 349d 3bbd 1a84 813d 7e5f 863d
00000250: 793d 253c c6e9 b9bd 641e 113d 79ab a6bd
00000260: 0951 1a3d 6860 86bc e104 893d c422 763d
00000270: 067b 8abd 5983 4e3c b7af 86bc 7bbd 2ebd
00000280: f5c2 433c 6f9e 063d 9cfc 87bc d59f 133d
00000290: 2be3 d7bc e227 efbc e88d 1dbd ce8a c3bc
000002a0: 2f79 7f3d 910b 783d 5895 2ebd c3a4 efbc
000002b0: 9dc2 453d fe37 c4bd 0553 aabc a8ee 89bc
000002c0: f43a 3d3d 43f8 3a3d e3d2 a0bd 5b0e b73c
000002d0: 8660 cbbd e1f7 48bc ba87 243c 8e9a 8f3d
000002e0: c8ab 2bbd 0631 803d 82f2 1dbb 7d2e 8e3d
000002f0: 3b3a f03b 3c82 61bd 85ce 84bd 442e ccbd
00000300: adf4 053d 3f5b 72bc 234c 373d be98 e5bc
00000310: 4538 1fbd ba35 30bd fbfc bebd e50c 9f3c
00000320: f0ae 903d 02a7 a1bd ccdb acbd c293 ab3c
00000330: 929a a3bd 6521 203c a28b 613d ea70 82bc
00000340: 2171 acbb 3cdc e1bc 0990 543d afa7 883c
00000350: 4c5f b5bd 57b3 7cbd ae9f f7bb 5835 903d
00000360: c5b7 823d d337 003d 1923 553d aeee cb3a
00000370: 6ef6 3a3d 154e e63c 7ad2 99bd 4521 573d
00000380: 49fb 90bd 95c1 62bd 5da0 24bd 703a 88bc
00000390: 6327 8dbd da02 2a3d 332b 2d3d 4d05 11b8
000003a0: f624 6c3d f507 fb3a 0563 d73c 87e1 a1bd
000003b0: 394c 98bd 78c4 873d 7039 6cbc 0b36 88bd
000003c0: 3d56 3fbd 82e5 9dbd b305 b5bd edc0 a1bc
000003d0: 39ca e83c e5cc e7bc 9e78 5d3d 0fe2 a7bd
000003e0: 63e3 7bbc f9c0 323d 97f0 1cbd 76d4 33bd
000003f0: fba3 a33d 823d 41bc a3d0 203b 290b 9d3d

linear_1.bias f4 [100]
0.012590273 -0.09359317 0.07642213 -0.05217308 -0.0070696026 0.051053967 -0.0011104514 0.040527012
-0.034998443 -0.068263955 0.07442203 -0.047043335 -0.03454536 -0.06136246 -0.0054799356 0.014815034
0.089836724 -0.023825822 0.043729153 -0.037668373 -0.007816148 -0.012685034 0.010348515 -0.05456697
0.085141025 0.07385126 0.037749738 -0.029599309 -0.07250486 -0.0138579905 -0.05844318 -0.044803534
-0.025288653 -0.039881878 0.082797065 0.0018147316 0.046090107 -0.015108097 0.0641906 -0.04515157
-0.09297296 -0.024032861 -0.07562815 -0.032486726 -0.048376475 -0.041129217 0.062317885 0.0942696
0.06285066 0.07294133 -0.04308847 0.07482013 -0.049165368 -0.07090661 -0.06247604 0.05437536
-0.028225167 -0.06252986 -0.062314294 0.06755053 -0.039351903 0.073569156 -0.064211704 0.10520104
-0.010874354 0.009413241 0.030636024 0.045363106 0.042563666 -0.046808206 -0.027747855 0.06241673
0.019791761 0.073717274 0.060930282 -0.028701982 0.046364754 0.015778575 0.07346883 0.050714407
0.04551907 0.051513534 0.09096145 0.039589666 -0.045370482 0.11234201 0.01315629 -0.040321417
0.091968596 -0.048215806 0.024644526 -0.027395995 0.067757994 0.074755855 0.018659024 -0.019974172
-0.07613643 0.050970323 0.016153183 -0.020493444
00000000: 6f47 4e3c c7ad bfbd 3583 9c3d 71b3 55bd
00000010: 20a8 e7bb f71d 513d 918c 91ba a7ff 253d
00000020: 875a 0fbd f9cd 8bbd 946a 983d 83b0 40bd
00000030: 6f7f 0dbd 3457 7bbd 0891 b3bb c2ba 723c
00000040: 51fc b73d 5f2e c3bc 571d 333d 274a 1abd
00000050: 4d0f 00bc e4d4 4fbc d18c 293c 9d81 5fbd
00000060: 6b5e ae3d 543f 973d 789f 1a3d 407a f2bc
00000070: 6e7d 94bd a00c 63bc 1e62 6fbd e983 37bd
00000080: 262a cfbc 2e5b 23bd 8291 a93d 4adc ed3a
00000090: fbc8 3c3d f487 77bc 5c76 833d daf0 38bd
000000a0: 9b68 bebd 90e0 c4bc eee2 9abd cd10 05bd
000000b0: 6926 46bd 1c77 28bd 0a41 7f3d 6c10 c13d
000000c0: d9b7 803d 4462 953d 897d 30bd 4c3b 993d
000000d0: a061 49bd 7c37 91bd e0e6 7fbd b3b8 5e3d
000000e0: 7738 e7bc a80f 80bd 463d 7fbd ef57 8a3d
000000f0: 762f 21bd 6dab 963d 6d81 83bd a573 d73d
00000100: 592a 32bc ff39 1a3c 66f8 fa3c aace 393d
00000110: 3d57 2e3d f6b9 3fbd 784f e3bc afa8 7f3d
00000120: 5522 a23c 15f9 963d 0892 793d 6b20 ebbc
00000130: f8e8 3d3d 1242 813c d376 963d e9b9 4f3d
00000140: 3472 3a3d dbff 523d ff49 ba3d c628 223d
00000150: 66d6 39bd 9113 e63d 7b8d 573c 1228 25bd
00000160: 085a bc3d f07d 45bd 51e3 c93c 916d e0bc
00000170: b4c4 8a3d 9919 993d cfda 983c e0a0 a3bc
00000180: 6bed 9bbd 42c6 503d ae53 843c dee1 a7bc

linear_2.weight f4 [40, 100]
-0.048909716 0.0011469317 0.049132857 0.00041467202 -0.005883043 0.01806502 0.01865487 0.08837468
-0.0341792 -0.047633316 -0.021067407 -0.04723302 0.05819589 -0.04520766 0.0046051648 -0.05673949
-0.035832264 -0.012553999 0.09893438 0.025626702 0.072731145 0.052259162 -0.041518584 -0.009531119
-0.0019173784 0.11608884 -0.010457004 -0.03295938 0.03643321 0.11795861 0.08336244 0.0555829
0.031335264 -0.065783106 -0.008925869 -0.05664555 0.0045843576 -0.025180254 0.08859031 0.09036951
-0.029488064 0.06786305 -0.026345981 0.038152725 -0.039666537 0.09621692 0.018281145 -0.008564515
0.013587921 0.045462 0.11880369 -0.009615962 0.11036837 0.054401923 -0.01326786 0.016402528
0.080472514 0.04023185 0.035274416 0.058909975 -0.049829572 -0.06045029 0.064144365 0.062287435
-0.05397007 -0.060973305 -0.080963634 -0.058818378 0.09617918 0.005552452 -0.007968431 -0.078953706
-0.037472345 -0.04278193 -0.0053856354 -0.008680227 -0.07914617 -0.037314884 -0.05371722 0.119816326
0.02865129 -0.04040564 -0.06475025 -0.026703501 0.07777726 0.07751297 0.04104898 0.020467825
0.114621386 -0.069583185 0.10685719 0.11582301 0.007239859 0.09458669 0.049327906 0.065115474
0.013310156 0.008553367 0.086772904 -0.043946903 0.06937712 0.014404913 -0.08583954 0.07855792
0.06178482 0.07861623 0.018323159 0.022249786 0.024949688 0.054178067 0.024390996 0.07899753
-0.019456867 -0.020928968 -0.03164319 -0.008840974 0.05490401 -0.087853886 0.09379791 0.03160177
0.049183916 -0.018928684 -0.049568746 -0.025841258 -0.08159597 -0.027474007 -0.0010644024 0.041580945
-0.07649238 0.011284685 0.015450263 -0.047417134 0.08845989 0.0876703 -0.041773453 -0.04758513
0.08804219 0.08938725 0.015458553 -0.061982892 -0.005754381 0.05047839 -0.070862435 0.019652732
-0.009956615 -0.02124857 -0.033117134 -0.026887933 0.027438171 0.07375665 -0.054010414 0.0734908
0.021082254 -0.01684618 -0.011632107 -0.07149282 0.040165145 -0.0064851632 0.0633363 0.028245157
-0.10122955 -0.016398696 0.069163464 -0.08685623 0.07813312 -0.08041493 0.08563265 0.042346135
-0.103699796 0.025001122 -0.029723348 0.01661437 -0.087498866 0.053888272 0.058408275 -0.06401341
0.05229429 -0.006519025 -0.0057161343 -0.076274596 -0.090026915 0.017079806 -0.01280999 0.054862574
-0.0026427875 -0.08482416 0.04248389 6.6337125e-05 0.007306117 0.015239407 0.016558966 0.015269414
-0.08024114 0.06616894 -0.07566828 -0.08682337 0.090648115 0.028126609 0.07460001 -0.08672265
-0.029500958 -0.053366486 -0.10316339 0.064977564 -0.053867042 -0.046593897 -0.02110231 0.037597705
0.029024744 -0.07710369 0.08760182 0.07484504 -0.106102064 -0.08132996 -0.062082022 0.088798985
-0.06853345 -0.03129202 0.051362146 -0.066100985 0.09138185 -0.009073842 -0.061996516 0.06967993
0.013241967 -0.039380312 0.018173281 -0.013044968 0.052838326 -0.06575777 -0.09022788 -0.04751518
0.06376223 -0.09538508 -0.04877172 0.0010427387 0.074646056 0.038296256 -0.08701986 -0.038780205
0.0018042694 0.08812835 -0.0020066034 -0.058992326 -0.0044589555 0.071648516 -0.06830887 -0.015730109
0.010743082 0.05361128 -0.08382637 -0.021186076 0.084731676 0.03324797 -0.028419692 0.0005625441
00000000: 8e55 48bd a454 963a 893f 493d 5668 d939
00000010: 8bc6 c0bb 18fd 933c 19d2 983c c9fd b43d
00000020: 7dff 0bbd 271b 43bd 8e95 acbc 6977 41bd
00000030: d05e 6e3d ab2b 39bd ece6 963b ab67 68bd
00000040: dac4 12bd 4aaf 4dbc 1c9e ca3d 17ef d13c
00000050: 11f4 943d b40d 563d 640f 2abd 6928 1cbc
00000060: 8b50 fbba fcbf ed3d db53 2bbc 6a00 07bd
00000070: fd3a 153d 4994 f13d edb9 aa3d e5aa 633d
00000080: 6859 003d 4bb9 86bd cf3d 12bc 2a05 68bd
00000090: 6138 963b d246 cebc d66e b53d a613 b93d
000000a0: f490 f1bc c8fb 8a3d 87d3 d7bc 0846 1c3d
000000b0: 6179 22bd 600d c53d 57c2 953c 2e52 0cbc
000000c0: df9f 5e3c 5d36 3a3d 594f f33d 458c 1dbc
000000d0: d008 e23d 8dd4 5e3d 7061 59bc 985e 863c
000000e0: c6ce a43d 27ca 243d e87b 103d 964b 713d
000000f0: 181a 4cbd b99a 77bd 1f5e 833d 1c21 7f3d
00000100: b80f 5dbd 25bf 79bd 43d0 a5bd 8aeb 70bd
00000110: 97f9 c43d 58f1 b53b 068e 02bc 7bb2 a1bd
00000120: 9a7c 19bd 1b3c 2fbd fc79 b0bb 8337 0ebc
00000130: 6317 a2bd 7ed7 18bd 9606 5cbd 4362 f53d
00000140: 1cb6 ea3c 6280 25bd c79b 84bd 4dc1 dabc
00000150: af49 9f3d 1fbf 9e3d fa22 283d 24ac a73c
00000160: 9ebe ea3d a181 8ebd f1d7 da3d 9d34 ed3d
00000170: 573c ed3b abb6 c13d 0f0c 4a3d 435b 853d
00000180: d712 5a3c 6c23 0c3c feb5 b13d ab01 34bd
00000190: 9715 8e3d 9602 6c3c a4cc afbd fae2 a03d
000001a0: 1412 7d3d 8c01 a13d 731a 963c 2f45 b63c
000001b0: 4a63 cc3c d2e9 5d3d a0cf c73c 75c9 a13d
000001c0: 0264 9fbc 3a73 abbc 4a9c 01bd bcd9 10bc
000001d0: 07e3 603d bdec b3bd 1e19 c03d dc70 013d
000001e0: 1375 493d 5410 9bbc 9908 4bbd 0cb1 d3bc
000001f0: ca1b a7bd 2b11 e1bc 6b83 8bba c850 2a3d
00000200: 09a8 9cbd 66e3 383c 1a23 7d3c 7838 42bd
00000210: 752a b53d 7c8c b33d a41a 2bbd a0e8 42bd
00000220: 774f b43d aa10 b73d df45 7d3c c6e1 7dbd
00000230: 3f8f bcbb 6ec2 4e3d 5320 91bd c4fe a03c
00000240: 1221 23bc 7b11 aebc d5a5 07bd 1544 dcbc
00000250: 04c6 e03c ba0d 973d 063a 5dbd 5882 963d
00000260: b1b4 ac3c 0001 8abc 9894 3ebc d46a 92bd
00000270: 3584 243d 7e81 d4bb 76b6 813d 6362 e73c
00000280: 7051 cfbd 8f56 86bc 93a5 8d3d aee1 b1bd
00000290: 4204 a03d 95b0 a4bd 2c60 af3d 2473 2d3d
000002a0: 8f60 d4bd 27cf cc3c 617e f3bc dc1a 883c
000002b0: 9b32 b3bd f3b9 5c3d 843d 6f3d 7619 83bd
000002c0: 8a32 563d 8c9d d5bb 694e bbbb db35 9cbd
000002d0: 0860 b8bd f3ea 8b3c fee0 51bc 94b7 603d
000002e0: 9e32 2dbb 4ab8 adbd 9603 2e3d 791e 8b38
000002f0: 2768 ef3b b5ae 793c aba6 873c 902c 7a3c
00000300: 7855 a4bd 9583 873d f9f7 9abd 73d0 b1bd
00000310: b8a5 b93d c669 e63c e4c7 983d a59b b1bd
00000320: feab f1bc d196 5abd 5447 d3bd f512 853d
00000330: b0a3 5cbd 3ed9 3ebd c0de acbc 0d00 1a3d
00000340: 4dc5 ed3c 8ae8 9dbd 9568 b33d 5b48 993d
00000350: 0a4c d9bd 5290 a6bd b849 7ebd 3edc b53d
00000360: 445b 8cbd 102c 00bd 1d61 523d f45f 87bd
00000370: 6826 bb3d 74aa 14bc 0ff0 7dbd 5ab4 8e3d
00000380: d6f4 583c 404d 21bd 22e0 943c 90ba 55bc
00000390: 006d 583d 02ac 86bd 65c9 b8bd 479f 42bd
000003a0: c695 823d 4159 c3bd dbc4 47bd 81ac 883a
000003b0: 08e0 983d 89dc 1c3d 7837 b2bd fed7 1ebd
000003c0: 3c7d ec3a a37c b43d 3881 03bb f0a1 71bd
000003d0: 6e1c 92bb 75bc 923d 85e5 8bbd 6edc 80bc
000003e0: c003 303c 8097 5b3d 29ad abbd 6c8e adbc
000003f0: cd87 ad3d 062f 083d 6ad0 e8bc b277 133a

linear_2.bias f4 [40]
-0.071515 0.083603494 0.0052065793 -0.09801782 -0.016922744 0.030229524 0.099307746 0.099282525
0.06215902 0.009835801 -0.02691544 -0.010390964 0.036837485 0.0178082 -0.03947198 0.0910439
-0.0015417889 0.022829197 0.03192781 0.06857742 -0.028166013 0.06504622 0.0597885 0.020236505
-0.075669944 -0.07704933 0.052191854 -0.020777028 0.11246025 -0.039157476 -0.035045546 0.045147277
-0.03829985 0.06859105 0.02891425 -0.07555839 -0.014391884 0.011162777 -0.07049986 0.04284811
00000000: 7576 92bd 4f38 ab3d f49b aa3b 91bd c8bd
00000010: 91a1 8abc e8a3 f73c dc61 cb3d a354 cb3d
00000020: 759a 7e3d 5726 213c c57d dcbc dd3e 2abc
00000030: e7e2 163d 81e2 913c 5fad 21bd 3975 ba3d
00000040: da15 caba 4c04 bb3c bcc6 023d 5272 8c3d
00000050: 69bc e6bc f436 853d c9e4 743d 07c7 a53c
00000060: d8f8 9abd 0acc 9dbd 20c7 553d 9634 aabc
00000070: 8f51 e63d 9763 20bd eb8b 0fbd 5aec 383d
00000080: 4ee0 1cbd 7779 8c3d 94dd ec3c 5bbe 9abd
00000090: f0cb 6bbc 15e4 363c 3b62 90bd 8081 2f3d

linear_3.weight f4 [1, 40]
0.08249752 -0.103918135 -0.072441 -0.062229667 -0.13686046 -0.14613192 0.16463126 0.16288494
0.1532242 -0.044898774 0.12075459 0.10076932 0.06254877 0.14349271 0.112180814 0.044193264
0.04834452 -0.011992955 -0.11915527 -0.050694566 -0.013029433 0.116740055 0.055634536 -0.078142375
-0.09922219 -0.043591633 -0.118695736 0.02894763 0.017487215 0.049828287 0.15438408 -0.0066888575
-0.05438475 -0.020581232 0.111511625 0.058597367 -0.04946032 0.10949055 0.09602841 -0.00564343
00000000: 76f4 a83d 08d3 d4bd f25b 94bd 89e4 7ebd
00000010: 2625 0cbe 9ba3 15be 1995 283e 4fcb 263e
00000020: cee6 1c3e c7e7 37bd 2f4e f73d 2560 ce3d
00000030: 9219 803d c1ef 123e 0ebf e53d ff03 353d
00000040: e704 463d 197e 44bc ae07 f4bd 1ba5 4fbd
00000050: 6779 55bc 6915 ef3d 0ae1 633d 1c09 a0bd
00000060: 0135 cbbd 248d 32bd c016 f3bd 9523 ed3c
00000070: 5941 8f3c bf18 4c3d dc16 1e3e 342e dbbb
00000080: 8bc2 5ebd f999 a8bc 3560 e43d cb03 703d
00000090: e896 4abd 953c e03d 8baa c43d 86ec b8bb
