ndp/weights/finetune-6.pt (torch, 155247 bytes, 5 tensors)

linear_1.weight f4 [144, 216]
0	0x3d6b30f0	0.057419717
1	0xbd8dc812	-0.06922926
2	0x3b9457bb	0.00452706
3	0x3cdc1f19	0.026870297
4	0x3d421ad4	0.047388867
5	0x3d8af3cc	0.06784782
6	0x3bc62185	0.0060464763
7	0x3c9bd14c	0.019020699
8	0xbc5afb9b	-0.0133656515
9	0x3d330417	0.043705072
10	0x3d509ab8	0.0509288
11	0xbd2ec19d	-0.042665113
12	0x3d542fe3	0.05180348
13	0xbd466dcc	-0.048444554
14	0xbcb81d88	-0.02247502
15	0xbcef3a52	-0.029202614
16	0xbd2ea214	-0.04263504
17	0x3b7c221f	0.0038472486
18	0xbd6cb26d	-0.057787348
19	0xbc83f904	-0.01610995
20	0x3d706005	0.05868532
21	0xbc68f37b	-0.0142182065
22	0xbcf7070e	-0.030154731
23	0xbb2a5a87	-0.00259939
24	0x3cd42de3	0.025900787
25	0xbd5bd0db	-0.053665977
26	0xbd081c51	-0.03323013
27	0xbd81d969	-0.06340296
28	0x3cf38a37	0.029728992
29	0xbd70f926	-0.058831356
30	0xbc89dd23	-0.016829079
31	0xbc9d0bee	-0.019170728
32	0x3c840607	0.016116155
33	0x3b721c42	0.0036943113
34	0x3c16b99e	0.009199528
35	0xbca086d6	-0.019595545
36	0xbc3b0e9b	-0.011417056
37	0x3c1ae42c	0.0094538145
38	0x3d58218f	0.05276638
39	0xbc64846c	-0.013947587
40	0x3d442902	0.04789067
41	0xbd1b7aa6	-0.037958764
42	0xbd2f58da	-0.042809345
43	0x3d1abadd	0.037775863
44	0xbcee3b24	-0.029080935
45	0x3c4ba16e	0.012428625
46	0x3d88eed2	0.06686176
47	0xbd63b58a	-0.05559305
48	0x3d8249bf	0.06361722
49	0xbd0a2d1c	-0.033734426
50	0xbcbf8dc4	-0.023383029
51	0x3b296793	0.0025849089
52	0xbd01b13e	-0.031663172
53	0xbcb274f9	-0.021784293
54	0xbd5d2e16	-0.05399903
55	0xbd7160d7	-0.058930244
56	0x3b822a32	0.003972315
57	0xbc94c2d3	-0.018159306
58	0x3cad3ed7	0.021148128
59	0x3d703865	0.058647532
60	0x3c5792e4	0.01315758
61	0xbc944eb7	-0.01810394
62	0xbc885c26	-0.016645502
63	0xbd5f3597	-0.054494467
64	0x3d14bca7	0.036312725
65	0xbd6592ef	-0.05604833
66	0x3d194806	0.037422203
67	0xbd43b7b0	-0.0477826
68	0xbc403d47	-0.01173336
69	0xbb819607	-0.003954652
70	0xbc6f3efa	-0.014602417
71	0xbd6525aa	-0.055944122
72	0x3d81a86e	0.063309535
73	0x3d76faf3	0.060297918
74	0xbc43a270	-0.011940584
75	0xbd1ef7b4	-0.038810447
76	0xbbdcf1c2	-0.006742687
77	0x3d409571	0.04701752
78	0x3c0b90d9	0.008518421
79	0x3cc863fe	0.024461742
80	0x3bad17e0	0.005282387
81	0xbd827530	-0.06370008
82	0x3d59abf0	0.053142488
83	0x3c797a3d	0.015226898
84	0xbc9f1fe6	-0.01942439
85	0x3bc0c7dd	0.0058832006
86	0x3cf7b6a4	0.030238457
87	0xbc72c717	-0.0148179745
88	0x3b1e1020	0.0024118498
89	0xbd7fcbcc	-0.062450215
90	0x3c133cc3	0.008986655
91	0x3d2a57de	0.041587703
92	0xbd2d4191	-0.042298857
93	0xbd82e958	-0.06392163
94	0xbd162c41	-0.036663298
95	0xbb716bfc	-0.0036838045
96	0x3d106aba	0.035258032
97	0x3c2bb80a	0.01048089
98	0xbcb5cdf0	-0.022192925
99	0x3ce25450	0.027628094
100	0xbd94ab16	-0.072591946
101	0x3b9f6ce0	0.004865274
102	0x3ab5def7	0.0013875653
103	0x3d2a426f	0.041567262
104	0x3d7348e6	0.059395693
105	0xbd16396d	-0.03667586
106	0xbd582c2e	-0.052776508
107	0xbd449072	-0.047989316
108	0xbd06f629	-0.0329496
109	0x3c03fb23	0.008055481
110	0xbd020bff	-0.03174972
111	0x3c4ba74e	0.012430025
112	0xbc070448	-0.008240767
113	0xbcd4d4b4	-0.025980331
114	0xbcc051df	-0.02347654
115	0xbce5d6b6	-0.028056484
116	0x3d184ab9	0.037180636
117	0x3d1dcd7a	0.038526036
118	0x3c7c10ed	0.015384895
119	0xbd601479	-0.054707024
120	0x3d810a55	0.06300799
121	0xbd2a3f3f	-0.041564222
122	0xbd22dbf4	-0.039760545
123	0xbd0cbc08	-0.034359008
124	0xbca0f96a	-0.01965018
125	0x3cb8db7d	0.022565598
126	0x3d04df68	0.03243962
127	0xbcfc7873	-0.030819153
128	0xbd3bc8e5	-0.045845885
129	0xbd85c018	-0.065307796
130	0x3d797806	0.06090548
131	0x3d1a8f84	0.037734523
132	0x3d1af78a	0.037833728
133	0xbd79cc6b	-0.060985964
134	0xbd220cb2	-0.03956289
135	0x3d81ad2e	0.063318595
136	0xbb509172	-0.0031824973
137	0x3cc79e1f	0.02436739
138	0xbcd24e66	-0.025672149
139	0xbc37f254	-0.011227209
140	0xbd29acac	-0.04142444
141	0xbd491291	-0.049089972
142	0xbd222827	-0.039589074
143	0xbd7c7918	-0.06163892
144	0xbd6091b2	-0.054826446
145	0xbd70e8e0	-0.058815837
146	0x3d4a410a	0.049378432
147	0xbd662752	-0.056189843
148	0x3cc6f672	0.024287436
149	0x3c7f7d7c	0.015593883
150	0x3d2745de	0.040838115
151	0x3c24fd9c	0.010070231
152	0x3c5c2a34	0.013437796
153	0xbd1e8106	-0.038697265
154	0x3d38c433	0.045108985
155	0x3d0b86e2	0.03406418
156	0x3c9ce742	0.019153241
157	0x3d05edf8	0.032697648
158	0xbd10d2bf	-0.035357233
159	0xbd58a80a	-0.05289463
160	0x3d6ecdd5	0.058301765
161	0x3bddb4e1	0.006765947
162	0x3d516d8d	0.051129866
163	0x3ad63f89	0.0016345839
164	0x3d312f2c	0.043257877
165	0xbcc7d5b2	-0.02439389
166	0xbd1db47d	-0.038502205
167	0x3c8c3563	0.0171153
168	0x3cc040aa	0.023468334
169	0x3d68c864	0.056831732
170	0xbd901206	-0.07034688
171	0xbd90abd9	-0.07064027
172	0x3c819b75	0.015821198
173	0x3d35e256	0.044405304
174	0xbd7029a7	-0.058633473
175	0x3cac7ba0	0.021055043
176	0x3c872ba5	0.016500304
177	0x3d56357e	0.052297108
178	0xbd87c65a	-0.066296294
179	0xbb724de0	-0.0036972687
180	0xbc5c1a11	-0.013433949
181	0x3cb4720d	0.02202704
182	0x3d0d53eb	0.03450386
183	0xbd28238c	-0.041049525
184	0x3d4a291d	0.049355615
185	0x3aa8db4d	0.001288274
186	0xbd680968	-0.056649595
187	0x3d6b6044	0.057464853
188	0x3cdb1ea1	0.026748003
189	0xbd82a260	-0.06378627
190	0xbd34e701	-0.044165615
191	0x3d7349ff	0.05939674
192	0xbcce7a24	-0.025204726
193	0xbd8fbe02	-0.07018663
194	0xbd1ee7d3	-0.038795304
195	0xbd56cab1	-0.052439395
196	0x3cd41ee5	0.025893638
197	0x3d3b7023	0.04576124
198	0x3cf1ee29	0.029532509
199	0x3d440f57	0.04786619
200	0xb949e343	-0.00019253515
201	0x3d892a08	0.0669747
202	0x3d301c29	0.042995606
203	0x3d227d25	0.03967013
204	0x3d2bf9e3	0.041986357
205	0xbd824d5c	-0.063624114
206	0x3cb739f6	0.022366505
207	0x3d64f631	0.05589885
208	0xbd0f2a55	-0.03495248
209	0xbb94bab1	-0.004538857
210	0x3caad7b7	0.020854814
211	0xbd7515a2	-0.059835084
212	0xbd88a0e2	-0.06671311
213	0x3d71eda3	0.05906452
214	0xbc90cdfd	-0.017676348
215	0xbb2b537e	-0.0026142295
216	0x3c028733	0.007966804
217	0x3d3771b2	0.044786163
218	0x3d6df02c	0.058090374
219	0xbc945ab3	-0.018109655
220	0x3d68cd3e	0.05683636
221	0x3d2c5969	0.042077456
222	0xbd8b48f2	-0.068010226
223	0xbd6f03b4	-0.05835314
224	0xbd0e01fa	-0.034669854
225	0xbcb47c15	-0.022031823
226	0x3cbd40f3	0.02310226
227	0xbbf188e3	-0.0073710545
228	0xbbe11fd9	-0.0068702516
229	0xbca9e32c	-0.020738207
230	0xbd86e684	-0.06586936
231	0xbc17deec	-0.009269457
232	0x3d2ceb02	0.04221631
233	0xbd88275c	-0.06648132
234	0xbc5569da	-0.013025725
235	0x3c158d05	0.00912786
236	0xbc346fc5	-0.011012976
237	0x3d2f08a0	0.042732835
238	0x3cc1843d	0.023622626
239	0x3b00c3bb	0.0019647914
240	0xbd84d70c	-0.064863294
241	0x39cabc64	0.00038668804
242	0x3d5b30c6	0.05351331
243	0x3d22df69	0.03976384
244	0x3cb975cd	0.02263918
245	0x3b8e24f8	0.004337903
246	0xbb691dc7	-0.0035570727
247	0x3b8068ba	0.0039187344
248	0x3d5ea819	0.05435953
249	0xbc335906	-0.010946518
250	0xbc8ad149	-0.016945498
251	0x3d610b0a	0.05494217
252	0x3cefccf3	0.029272532
253	0x3cf5612e	0.029953565
254	0x3d81a059	0.06329412
255	0xbcdc5f7a	-0.026900996

linear_1.bias f4 [144]
0	0xbd4c2538	-0.049840182
1	0xbcf5c2ef	-0.030000178
2	0xbcd1fc9f	-0.025633154
3	0xbcb01ee0	-0.021499097
4	0x3c9db0f0	0.01924941
5	0xbd43b516	-0.04778012
6	0x3d042c32	0.03226871
7	0xbae51e1c	-0.0017480287
8	0xbcb06cfa	-0.02153634
9	0xbc99e457	-0.018785639
10	0xbc4e415b	-0.012588824
11	0xbd3fdeb9	-0.046843264
12	0xbd95a86d	-0.07307515
13	0x3d7516dc	0.059836254
14	0xbd0036e0	-0.031302333
15	0xbd601696	-0.05470904
16	0xbd16b149	-0.036790166
17	0x3d08380e	0.033256583
18	0xbd281973	-0.041039895
19	0xbd508907	-0.05091193
20	0xbd6004f5	-0.054692227
21	0xbac6034b	-0.0015107183
22	0xbbab7805	-0.0052328133
23	0xbcbd9772	-0.023143504
24	0x3d717a04	0.058954254
25	0x3d734972	0.059396215
26	0xbcd47725	-0.025935719
27	0x3cd34a5b	0.025792291
28	0x3d637417	0.055530634
29	0xbd3be4d9	-0.045872543
30	0x3b034650	0.0020030923
31	0xbc911104	-0.017708309
32	0x3cee3cbd	0.029081697
33	0xbce3319f	-0.027733622
34	0x3d2ae508	0.041722327
35	0xbc8690fe	-0.01642656
36	0x3d5ad51c	0.053425893
37	0xbd08ffd1	-0.03344709
38	0xbd79215f	-0.06082284
39	0xbcee70a7	-0.029106451
40	0x3d67bcb5	0.05657645
41	0x3c227851	0.009916381
42	0xbce4dcd3	-0.027937328
43	0xbc522022	-0.012825044
44	0x3d2013e2	0.03908146
45	0xbce217a1	-0.027599158
46	0x3d8e9a74	0.06963053
47	0x3c8e45c9	0.01736726
48	0xbd451de6	-0.048124216
49	0x3d60040e	0.054691367
50	0xbc10d7c3	-0.008840504
51	0xbd595c1f	-0.05306637
52	0x3c60cea2	0.01372114
53	0x3d09a72c	0.033606693
54	0xbd2e6f3e	-0.042586558
55	0x3ca724e6	0.020403337
56	0xbd287413	-0.041126322
57	0x3c77eff0	0.015132889
58	0x3d860b78	0.06545156
59	0xbd335e21	-0.04379094
60	0x3d5a9498	0.053364366
61	0xbd10f2a7	-0.03538766
62	0xbba3a481	-0.0049939756
63	0x3c611261	0.013737292
64	0xbc0e7daf	-0.0086969575
65	0xbd4e08e5	-0.05030145
66	0xbd5176f4	-0.051138833
67	0xbcd14e3f	-0.025550006
68	0x3c4e54b9	0.012593442
69	0x3d4945c3	0.049138796
70	0xbc951e39	-0.018202888
71	0x3d25ad6c	0.04044859
72	0xbd13a24b	-0.036043447
73	0xbd150fe8	-0.036392123
74	0xbd285b4c	-0.041102692
75	0x3d164303	0.036685
76	0xbc65799a	-0.014006043
77	0xbd4ef6e2	-0.050528415
78	0x3d799e9d	0.06094228
79	0x3c93f69c	0.018061928
80	0x3ccdb47a	0.025110472
81	0x3cb1d2bd	0.021706933
82	0x3c4de505	0.01256681
83	0xbbb04502	-0.00537932
84	0xbd7e4190	-0.062074244
85	0x3d756a28	0.05991569
86	0x3c744a44	0.014910284
87	0x3d465cd8	0.048428386
88	0xba13f2fa	-0.00056438113
89	0x3d7cf552	0.061757393
90	0xbccc765d	-0.024958784
91	0xbc3907f0	-0.011293396
92	0xbd53499f	-0.051583882
93	0x3d6ff318	0.05858144
94	0xbd44f7c1	-0.04808784
95	0x3d65fdc5	0.056150217
96	0x3d1aa081	0.037750725
97	0x3bf49bf6	0.007464881
98	0x3d7f4ccd	0.062329102
99	0xbca4066d	-0.020022595
100	0x3d4553bd	0.048175562
101	0xbd1181be	-0.035524122
102	0xbd249d17	-0.040188875
103	0xbd03a036	-0.03213521
104	0xbcdc4e6b	-0.026892861
105	0x3d1b4fe3	0.037917983
106	0xbc271732	-0.010198401
107	0x3caa248b	0.020769378
108	0xbd232a52	-0.03983528
109	0x3d39aa26	0.04532828
110	0x3c8d8db4	0.017279483
111	0x3d20e9a0	0.039285302
112	0x3c45c121	0.012069971
113	0x3d45fc7f	0.048336502
114	0x3d2a3f85	0.041564483
115	0xbd1863aa	-0.037204422
116	0x3d53c7ae	0.0517041
117	0xbd294566	-0.04132595
118	0xbd3d81b8	-0.046266288
119	0xbc74a9c8	-0.014933057
120	0x3d881b69	0.06645853
121	0x3cdb9a48	0.026806965
122	0xbd007bbf	-0.031368013
123	0xbd88d1a1	-0.066806085
124	0xbd57ccd5	-0.052685577
125	0x3d33d147	0.043900754
126	0x3cef8f9a	0.02924328
127	0xbd10aa5b	-0.035318714
128	0x3d914fe0	0.07095313
129	0x3d597754	0.053092316
130	0x3d3a1822	0.04543317
131	0xbbef8e46	-0.0073106615
132	0xbd21f326	-0.039538525
133	0xbd675515	-0.056477625
134	0x3ce6a8aa	0.028156597
135	0xbd0dddec	-0.03463547
136	0xbd042da6	-0.032270096
137	0x3d445dd6	0.04794105
138	0xbce5ced6	-0.028052729
139	0xbd44af14	-0.04801853
140	0xbcb134ff	-0.021631716
141	0x3c7c5ac4	0.0154025
142	0x3d1609c7	0.03663042
143	0x3d1312dc	0.035906658

linear_2.weight f4 [48, 144]
0	0x3c942f8d	0.01808908
1	0xbd8a9495	-0.06766621
2	0xbd44e89a	-0.04807339
3	0xbd88f5d9	-0.06687517
4	0xbda29bb8	-0.07939857
5	0x3cd9ebbf	0.02660167
6	0x3d8392ce	0.06424485
7	0xbc262fe1	-0.010143251
8	0x3da2501a	0.079254344
9	0xbc7bca5c	-0.01536807
10	0x3d8a0159	0.06738538
11	0x3d389d20	0.04507172
12	0x3c65d24c	0.014027189
13	0xbb7a0409	-0.0038149378
14	0x3bb0bc61	0.0053935503
15	0x3d937c9b	0.07201501
16	0x3d9305b2	0.07178821
17	0xbd65f317	-0.05614003
18	0xbd11459f	-0.035466786
19	0x3d9cd978	0.07658666
20	0x3d692bb1	0.056926433
21	0xbd4918e3	-0.049096
22	0xbd56940e	-0.05238729
23	0xbdaf1d23	-0.08550479
24	0xbc69a9e3	-0.014261696
25	0xbd6952d2	-0.05696375
26	0xbda023ed	-0.07819352
27	0x3d5d81c6	0.05407884
28	0x3d7b15c5	0.061300058
29	0xbd4adcb6	-0.049526893
30	0x3d0d3bec	0.034480974
31	0x3c62756e	0.013821943
32	0x3cca3bfb	0.024686804
33	0xbcb64d1d	-0.022253567
34	0x3d40d25e	0.04707562
35	0x3d9633e0	0.07334113
36	0x3c9af3a8	0.018915012
37	0xbcd911f4	-0.026497819
38	0xbd913ff7	-0.070922785
39	0x3d85f3ee	0.065406665
40	0x3d308091	0.04309136
41	0xbd6d6a8c	-0.05796294
42	0xbd17b1d7	-0.037034836
43	0xbd31c9e9	-0.043405447
44	0xbd20bc66	-0.03924217
45	0xbd4f7c96	-0.050655924
46	0xbcb4def3	-0.022078967
47	0x3d153a63	0.036432635
48	0xbd7748a4	-0.06037201
49	0x3d97bb21	0.07408739
50	0x3c758a03	0.014986518
51	0x3cfc74ed	0.030817473
52	0x3d2e58d1	0.04256517
53	0xbda16967	-0.07881432
54	0xbd8361e9	-0.06415159
55	0x3c69566d	0.014241797
56	0xbd4d2832	-0.05008716
57	0xbb1d4cd7	-0.00240021
58	0xbd5e1249	-0.054216657
59	0xbd7287c1	-0.059211496
60	0x3bd33c82	0.006446422
61	0x3d94a565	0.07258109
62	0xbc3b68b9	-0.011438542
63	0x3c91eec7	0.017814053
64	0x3b1aabac	0.002360086
65	0xbd8ff0a4	-0.070283204
66	0x3d46a7fe	0.048500054
67	0x3d9b4f58	0.07583493
68	0xbb307578	-0.0026925486
69	0xbd5c051b	-0.053715806
70	0x3c46adcd	0.012126398
71	0xbd227984	-0.039666668
72	0x3b59fd21	0.003326245
73	0x3d1f2a18	0.038858503
74	0xbd101882	-0.035179622
75	0x3cb068df	0.021534381
76	0xbbe89e3b	-0.0070989407
77	0x3da22480	0.07917118
78	0xbd290865	-0.04126777
79	0xbd179280	-0.037004948
80	0xbc19ffff	-0.009399413
81	0xbc550548	-0.013001747
82	0x3c4c59e9	0.012472608
83	0x3d493842	0.049125917
84	0xbcc510bf	-0.024055837
85	0xbd478c35	-0.048717696
86	0xbc7e6a60	-0.015528291
87	0x3d5c59af	0.053796466
88	0xbd358a2b	-0.04432122
89	0x3da041b4	0.07825032
90	0xbda6797b	-0.08128639
91	0x3c8ed8d5	0.017437378
92	0xbd3fcbbc	-0.046825156
93	0xbc39e938	-0.011347108
94	0xbb1b0f60	-0.0023660287
95	0x3d9372c3	0.071996234
96	0xbd8fbaaa	-0.07018025
97	0x3d5b0333	0.053469848
98	0x3c33511c	0.010944631
99	0x3d8f60e5	0.07000903
100	0x3ca399cc	0.019970797
101	0x3d166014	0.03671272
102	0xbd8652d3	-0.06558766
103	0xbc9624e8	-0.018328145
104	0xbd036a6e	-0.03208392
105	0x3d05b79b	0.032645803
106	0xbd8636bd	-0.06553409
107	0x3d27ef44	0.040999666
108	0x3d126627	0.03574195
109	0x3d988e82	0.07449056
110	0x3c12f6f8	0.008970015
111	0xba4a494b	-0.000771661
112	0x3d8368ad	0.0641645
113	0x3c610bec	0.013735753
114	0xbd78bb36	-0.060725413
115	0x3c735d38	0.014853768
116	0xbda84b43	-0.0821748
117	0x3d608cca	0.054821767
118	0xbd84a51a	-0.06476803
119	0x3d4865ae	0.048925094
120	0x3d4f08af	0.05054539
121	0xbda3299c	-0.07966921
122	0xbd2e4056	-0.042541824
123	0xbd854aed	-0.065084316
124	0xbd30f7f8	-0.04320523
125	0xbd983375	-0.0743169
126	0x3c8fd590	0.01755789
127	0xbd381323	-0.044940125
128	0x3b0f0535	0.0021823172
129	0x3d5511d8	0.05201897
130	0xbd92d09c	-0.07168695
131	0x3d003438	0.0312998
132	0xbc21bd2d	-0.009871763
133	0x3d12da5c	0.035852775
134	0x3c702fa6	0.014659798
135	0xbd9bc6ee	-0.07606302
136	0x3c7b7543	0.015347782
137	0x3b5e0710	0.0033878721
138	0x3d8594ac	0.065224975
139	0xbc7630e8	-0.015026309
140	0xbd6d559d	-0.057942975
141	0xbda69926	-0.081346795
142	0x3d5d4475	0.054020364
143	0xbd550758	-0.052008957
144	0xbc7b3fcf	-0.015335037
145	0xbd49e419	-0.049289797
146	0xbd42e067	-0.047577288
147	0xbc683fbf	-0.0141753545
148	0x3d9eb0a4	0.07748535
149	0x3c81e8dc	0.015858106
150	0xbd99cdb3	-0.07509937
151	0xbc332571	-0.01093422
152	0x3d8cf1fd	0.06882093
153	0xbd184c37	-0.03718206
154	0x3cb8cd5b	0.022558859
155	0x3d9f5e97	0.077817135
156	0x3d9ff483	0.07810309
157	0x3bd38b72	0.006455832
158	0x3ce02dad	0.02736553
159	0xbcc0af10	-0.023520976
160	0xbd6bc65b	-0.057562213
161	0xbd90ee32	-0.07076682
162	0x3c824014	0.015899695
163	0xbbef3363	-0.007299827
164	0x3c3e3e56	0.011611542
165	0x3cfe220c	0.031022094
166	0xbd94d71e	-0.07267593
167	0x3c1527a2	0.0091036875
168	0x3d3369ed	0.04380219
169	0xbc727852	-0.014799194
170	0x3b3eaa05	0.0029093039
171	0x3d3cc1e9	0.046083365
172	0x3bf3a585	0.007435503
173	0x3cc998dd	0.024609024
174	0xbd96e2e9	-0.073674984
175	0xbd33b563	-0.043874156
176	0xbb91de09	-0.0044515175
177	0x3d9f0c17	0.07765978
178	0xbcd9612f	-0.026535599
179	0x3b928980	0.0044719577
180	0x3d8c2454	0.068428665
181	0x3d92f132	0.071749106
182	0xbbf64516	-0.00751556
183	0xbc10fff3	-0.008850086
184	0xbc903b1c	-0.01760631
185	0x3c805ff0	0.015670747
186	0xbced49ae	-0.028965797
187	0x3d9f657b	0.07783028
188	0xbd896d95	-0.06710354
189	0x3d79eda4	0.061017647
190	0x3d22e3be	0.039767973
191	0x3d8a9fc4	0.06768754
192	0x3cd18953	0.025578177
193	0xbd8d4e96	-0.06899755
194	0x3c0ccb29	0.008593359
195	0x3c906523	0.01762635
196	0xbd1dc3f5	-0.038516957
197	0x3d0d0c2f	0.034435447
198	0xbd479632	-0.04872722
199	0x3cdcba4b	0.0269443
200	0x3cd71756	0.026256245
201	0x3c46112c	0.012089055
202	0x3ca2c2c0	0.019868255
203	0xbd21ea20	-0.03952992
204	0x3d8afb4e	0.06786214
205	0x3d4910c0	0.04908824
206	0xbca08132	-0.019592855
207	0x3b3e505c	0.0029039597
208	0xbc0adff2	-0.008476244
209	0xbd243ca2	-0.040096886
210	0xbd89c035	-0.06726114
211	0x3d79c6fb	0.06098078
212	0x3ca86b0a	0.020558853
213	0xbd79657e	-0.060887806
214	0xbcd512e4	-0.026009984
215	0xbda23637	-0.07920497
216	0x3d1b5735	0.037924964
217	0xbd5882e7	-0.052859213
218	0xbd78beab	-0.06072871
219	0x3d33937c	0.043841824
220	0x3d57789c	0.052605256
221	0x3c8bf564	0.017084785
222	0xbd34ca54	-0.044138268
223	0xbad8ed16	-0.0016550149
224	0xbd613217	-0.05497941
225	0x3d838481	0.064217575
226	0x3b9fa0b1	0.004871451
227	0xbc268681	-0.010163904
228	0xbcb2c5e2	-0.021822874
229	0x3d887505	0.06662945
230	0xbd589107	-0.052872684
231	0xbd903bb1	-0.07042635
232	0x3b39a4cf	0.0028326993
233	0x3d7a8e53	0.061170887
234	0x3d4a1e7c	0.04934548
235	0xbd0ea61a	-0.034826376
236	0x3d09fb18	0.033686727
237	0x3d9411fd	0.072299935
238	0x3d9ff7f4	0.07810965
239	0x3d89ddf7	0.067317896
240	0x3d4b4be2	0.049632914
241	0xbd7bff6b	-0.061522882
242	0xbd403f3a	-0.046935298
243	0x3d4cb872	0.04998059
244	0xbdacb211	-0.08432401
245	0x3d1acdc0	0.037793875
246	0xbd0027de	-0.03128802
247	0xbd11a49f	-0.035557386
248	0x3d3e0944	0.046395555
249	0xbd041718	-0.032248586
250	0x3cd1b893	0.025600707
251	0x3cd3fce4	0.025877424
252	0x3d2e0a0a	0.042490043
253	0xbb34810a	-0.0027542734
254	0xbda4032c	-0.080084175
255	0x3cbc2edb	0.022971561

linear_2.bias f4 [48]
0	0xbd374c0b	-0.044750255
1	0xbd2efb43	-0.04272009
2	0x3dc1f955	0.094713844
3	0x3d87a6ff	0.06623649
4	0x3d9db88d	0.07701216
5	0x3cc8d4a4	0.024515457
6	0x3cfc673e	0.030810948
7	0x3d19790c	0.037468955
8	0x3cc117c8	0.02357091
9	0xbd8fa08b	-0.07013043
10	0x3d684bee	0.056713037
11	0x3c935a75	0.01798747
12	0xbc9cb37e	-0.019128557
13	0x3c6ccc02	0.014452936
14	0x3b745e89	0.0037287793
15	0xbd1075df	-0.03526866
16	0xbd69ab9c	-0.057048425
17	0x3d5ab997	0.05339965
18	0x3bf5cd4f	0.0075012813
19	0x3cf36bec	0.029714547
20	0x3cccde0e	0.025008228
21	0x3c74ebec	0.014948826
22	0xbd22bccc	-0.039730832
23	0xbd8777f5	-0.06614677
24	0x3c81142b	0.015756687
25	0xbd5adc52	-0.05343277
26	0x3d350f0d	0.044203807
27	0xbd4559f3	-0.048181485
28	0x3bfbfd77	0.0076901275
29	0xbd4c3430	-0.049854457
30	0x3d9a92b7	0.07547515
31	0xbdb89624	-0.09013012
32	0xbcd7d94a	-0.026348729
33	0x3ca70692	0.020388875
34	0xbc0b4fa7	-0.008502877
35	0x3cde970a	0.02717163
36	0xbd685637	-0.056722846
37	0xbb506737	-0.0031799802
38	0xbd229d73	-0.039700937
39	0xbc24bf8e	-0.010055436
40	0x3d4dce5b	0.050245624
41	0x3d26aafe	0.040690415
42	0xbd7851b0	-0.06062478
43	0xbd61b293	-0.055101942
44	0x3d3b70b0	0.045761764
45	0xbc8b2259	-0.016984152
46	0x3c36b335	0.011151125
47	0x3d4b1b2e	0.049586467

linear_3.weight f4 [1, 48]
0	0xbb2ea81a	-0.002665049
1	0xbd8809ac	-0.0664247
2	0x3e07a04b	0.1324474
3	0xbddc8d52	-0.10769142
4	0xbdae5707	-0.08512693
5	0x3dace426	0.08441953
6	0xbdda4cee	-0.106592044
7	0x3ccd0770	0.02502796
8	0xbe0d2675	-0.13784201
9	0xbd641b63	-0.05569018
10	0xbdbb7fc4	-0.09155229
11	0xbdb43685	-0.08799461
12	0x3cd487b0	0.025943607
13	0x3da9ec8d	0.082970716
14	0xbddaf861	-0.10691906
15	0xbda8b70d	-0.08238039
16	0x3e04d280	0.12970924
17	0x3ba6bca7	0.005088407
18	0x3e096e01	0.1342087
19	0xbdabd221	-0.08389688
20	0x3d4290f2	0.047501512
21	0xbdcb4881	-0.099259384
22	0x3d77addc	0.06046854
23	0xbdba51bb	-0.0909762
24	0x3ddb55ab	0.10709699
25	0x3e1cd825	0.15316828
26	0x3c387f25	0.011260782
27	0x3e02b0a4	0.12762696
28	0x3e097410	0.1342318
29	0xbb8798c5	-0.0041380846
30	0x3e203f0a	0.15649047
31	0xbdc63eec	-0.0967997
32	0x3cafc14f	0.021454481
33	0xbce18c7b	-0.027532807
34	0x3c9f6aa7	0.019460035
35	0xbd4c1746	-0.049826883
36	0xbc86aafc	-0.016438954
37	0xbd3bbd86	-0.04583504
38	0xbd84e0a8	-0.06488162
39	0xbc04cb12	-0.008105056
40	0x3e20bb41	0.15696432
41	0x3c985498	0.018595025
42	0x3d63278d	0.05545764
43	0xbc0a59d7	-0.008444271
44	0xbe02dacc	-0.12778777
45	0xbdf5e13b	-0.1200585
46	0x3e1b18d1	0.15146185
47	0xbdfd159d	-0.12357638
