ndp/weights/pretrain-8.pt (torch, 593583 bytes, 5 tensors)

linear_1.weight f4 [256, 512]
00000000: 8710 173c 05d6 353c cb25 88bc f4b8 063c
00000010: c2e5 2f3d 567b cfbc 59b3 173d d0d2 2f3d
00000020: 6628 cfbc 1f7e aa3c bc40 e73b e25a 113d
00000030: d088 163d 6877 ffbc 9b20 ff3c 3054 69bb
00000040: 401b 1c3d 30c6 79bb 0ca2 073d f0ff 243d
00000050: 48bd e4bb 9ca7 d6bc 1d60 653c a90a 4c3d
00000060: 4313 e0bc 5ffe 21bc ddee 9cb8 fd7f debb
00000070: 99d8 02bd 4e94 06bd ee3c 66bc aaa7 3f3d
00000080: a17f d0bc 13f5 83bc 98d1 88bc 5ea7 03bd
00000090: 4769 89bc 9449 ce3c e9ec 323d 19f1 323d
000000a0: a6f3 2cbc bdcb 8d3c ba8b ebbc 11f7 a0bc
000000b0: acc3 b2bc b391 2a3d 7a48 c1bc a360 bf3c
000000c0: 6f3c f03c 466f 1a3d 63b9 a2bb 267c 8eb9
000000d0: 40d5 dfbc 9a52 bebc 5eff c93c 8667 3a3d
000000e0: 2bf3 c63b 573d 293c 676c 9f3b 8d4c 04bd
000000f0: 416e 163d 4cb3 97bc 88c6 043c 3de6 563c
00000100: c806 00bd d77f bd3c da13 1abc f395 ca3c
00000110: 2311 4f3d 80fc 4cbc 6bc2 3e3d 21e7 3b3d
00000120: d95a 2fbc a83d a2bc 4cef 9abc b72c 59bc
00000130: 3f0e 1f3d e915 11bd 2e05 5b3c c3c5 30bb
00000140: 18bd 1a3b cb88 bfbc c1e4 09bb 6020 42bc
00000150: 30de 103d d9c3 153d 5340 ecbc fdf9 87bc
00000160: 7f65 a13b e004 9a3c 5e93 a7bc 05aa fb3c
00000170: 8314 463d df75 3d3d c083 493d bac5 9fbc
00000180: d250 d4bc e119 943c c504 d33c 25ff 413d
00000190: 634d 05bd 0fbf eb3c 8910 b4bc 2677 f5bc
000001a0: 6d73 eabc 8353 dc3a 1860 bdbc 59d4 76bc
000001b0: f5c7 bd3b 81a8 ff3c a0bd 213d b133 9cbc
000001c0: eeba 12bc 4097 14bc d19a b33c 6252 233d
000001d0: 3fa2 663c a7f2 003d 62e8 54bb a5e6 a93a
000001e0: 0fbd eabc c44f 2f3d 5539 d5bb 8a67 243d
000001f0: 22be 9fbc 6fc5 76bc d7cc f7bc b4cc a4bc
00000200: 8310 e2bc 7bfa be3c 0ba2 b3bc daa4 ddbb
00000210: e341 84bc baeb 76bb 6283 e6bb 7779 093c
00000220: ddc8 0736 42b0 15bc 1b0d 5fbc fecf e53c
00000230: 244b a9bc 4b1c af3a 69a8 a8bc 973b 10bc
00000240: 4ed3 41bb 0369 cfba b6cc febc 211c 943c
00000250: 9e48 dcbc 7dca dd3c a5b5 aa3c 704a f03c
00000260: a230 76bc 704b b3bc ffdc 133c 281e 013d
00000270: ad09 373d d54e f7bc d000 2fbc 3359 2d3b
00000280: 109c 083d d3fa 91bb a9ed bbbc 3142 03bd
00000290: 685f b63c 6120 babc 2113 47b9 16b7 4e3d
000002a0: ca7d d4bb d0ca d3bc 92c2 9cbc e5cd 8f3c
000002b0: 2e53 7bbc be00 5fbc 2fd3 4bbc 92df 543d
000002c0: b10b 2f3d 5acc 493d bfa7 adbc 5d0e 3bbc
000002d0: b924 133d e8de 0ebd e71d e4bc b680 3a3d
000002e0: 981d 1cbc 366b 293d f0e6 e73c ccbc cfbc
000002f0: dd05 e73c a0e7 483c e1df c03b 15cc 1d3d
00000300: 774a 0abd 9684 053b 7dce a9bc 68e6 aebc
00000310: 4ccf b0bc 0c3c 423d 99f4 2b3c 9a6d 2d3d
00000320: a6e9 463d 1ed0 b3bc 4637 70bb 1522 063d
00000330: 5d63 513c 22f8 453d 4084 983c 1173 cfba
00000340: 78b6 ddbc f77f cf3c 2eee 1a3b f368 a63c
00000350: 968c f03c 1915 0c3a f7a0 653c 2290 483c
00000360: 8b8a 483d de7f 0c3d 4fb3 11bd ad8c f63c
00000370: 7e2d 963c f94c 1b3d a836 debc d989 4f3c
00000380: c18a 513d a8ee 4d3d 72bb b33c d1dc 543d
00000390: 3877 333b 0d7b 523d 57aa edbc c3e0 a73c
000003a0: 2167 c7bc bdee c23b bbe1 2bbb 9f31 42bc
000003b0: ced1 3f3d b6c7 65bc 7a1a d9bc 2523 2d3d
000003c0: 1c95 503c 0755 5e3b a93d e1bc 1b71 953c
000003d0: 6a2f ca3b 0278 9e3c d247 3c3d fe4c f83c
000003e0: aea6 1fbc 732d 4f3d b278 23bb e143 5dba
000003f0: fb56 103d 0e57 f6bc a250 fc3c 6e40 2f3d
0.009220249 0.0110983895 -0.016619584 0.008222807 0.042943723 -0.025327366 0.037036274 0.042925656
-0.025287818 0.020812092 0.0070572775 0.035487063 0.03675157 -0.031184867 0.031143477 -0.0035603158
0.038111925 -0.0038112514 0.033113524 0.040283144 -0.006980572 -0.02620297 0.013999966 0.049814854
-0.027352935 -0.009887307 -7.4831514e-05 -0.0067901597 -0.031944845 -0.032856278 -0.014052613 0.046790756
-0.025451483 -0.016108071 -0.016701505 -0.032142036 -0.016773833 0.02518157 0.043682966 0.04368696
-0.010556137 0.017309064 -0.02875315 -0.01964906 -0.02182182 0.041642856 -0.02359413 0.02336151
0.029325692 0.037703775 -0.0049659475 -0.00027176848 -0.027323365 -0.023232747 0.024657901 0.045508884
0.0060714683 0.010329566 0.0048652175 -0.032299567 0.03672624 -0.018518113 0.008103974 0.0131164165
-0.031256467 0.023132248 -0.009404147 0.024729704 0.050553452 -0.012511373 0.04657213 0.04587472
-0.010702812 -0.01980479 -0.018912934 -0.01325529 0.038831946 -0.035421286 0.013367934 -0.0026973344
0.0023611244 -0.023380658 -0.002104089 -0.011848539 0.035368145 0.036563728 -0.028839266 -0.016598696
0.0049254294 0.018801153 -0.020456012 0.03072072 0.048359405 0.04625499 0.049197912 -0.019503463
-0.025917444 0.018078746 0.02575911 0.047362465 -0.032544505 0.028777627 -0.02198054 -0.029964041
-0.028619492 0.0016809556 -0.02311711 -0.015065276 0.005791659 0.031208279 0.03948748 -0.019067617
-0.0089557 -0.009069264 0.021924408 0.03987349 0.014076768 0.03148141 -0.0032487144 0.0012962414
-0.028654603 0.04280068 -0.0065070787 0.040137805 -0.019499842 -0.01506172 -0.030249042 -0.020117141
-0.027595764 0.023312798 -0.021927854 -0.0067640366 -0.016144698 -0.0037677125 -0.007034705 0.008390776
2.0233485e-06 -0.009136261 -0.013613964 0.02805328 -0.020665713 0.0013359872 -0.020588117 -0.00880327
-0.002957541 -0.0015824143 -0.031103473 0.01807982 -0.026890095 0.027074093 0.020838568 0.02933237
-0.015026243 -0.021886557 0.009024858 0.0315229 0.044686962 -0.030188957 -0.010681346 0.0026450872
0.033351958 -0.0044549494 -0.022940474 -0.032045547 0.02226229 -0.022720518 -0.00018985245 0.050467573
-0.006484722 -0.025853544 -0.019135747 0.017554233 -0.015339656 -0.013611017 -0.012440487 0.051971026
0.04273576 0.04926715 -0.021198152 -0.011416999 0.035923693 -0.03488055 -0.02784629 0.045532905
-0.00952854 0.04136201 0.028308362 -0.02535858 0.028201038 0.012262255 0.0058860634 0.038524706
-0.03376242 0.0020373217 -0.020728344 -0.0213501 -0.021583222 0.047420546 0.010495328 0.042340852
0.04856267 -0.021949824 -0.003665404 0.032747347 0.012780038 0.04833234 0.01861775 -0.0015827139
-0.027064547 0.025329573 0.0023640501 0.020313716 0.029363912 0.000534372 0.014015428 0.012241395
0.04896025 0.03430163 -0.035571393 0.030096376 0.01833224 0.037915204 -0.027125672 0.012667143
0.051157717 0.05027643 0.021939967 0.0519684 0.0027384292 0.05138688 -0.029011888 0.020492917
-0.024341168 0.00594887 -0.0026227075 -0.011852651 0.046830945 -0.014024666 -0.026501883 0.042269845
0.012730863 0.0033925192 -0.027495222 0.01824241 0.006170203 0.019344334 0.04596693 0.03031015
-0.009744329 0.050580453 -0.0024943766 -0.00084405957 0.0352392 -0.030070808 0.030800167 0.042786054

linear_1.bias f4 [256]
00000000: 4299 4438 6118 27bd 4886 86bc 3894 893c
00000010: fd10 97bb e14a 4e3d e6e5 9c3c 6a95 9b3c
00000020: 16ad 35bd 8be4 0e3d 117a eb3c 4b1e 54bc
00000030: 9019 0cbc 2729 013d b844 0c3c e524 463d
00000040: bb5a cc3c 7d47 e33c 34b5 693c 2f45 b6bc
00000050: eb04 e43a f626 2f3d acbb ff3c c126 0dbd
00000060: ae14 4fbb 1e15 353c 740e ebbc 179d 24bd
00000070: 522f 6e3b b3d2 e0bc 1977 09bd 12f0 a0bc
00000080: 6d5b 203b 8aee adbb 9146 c0bc 2421 ffbc
00000090: ebae 003d 024a 24bd 8b43 26bd 22b7 273d
000000a0: fc5e 063d efce c9bc cf6f 863c c520 093b
000000b0: c1b2 173d 9d42 b43c cf93 0fbd 7363 383c
000000c0: d46a 8abb 453e 6bbc 6d73 1dbd a780 2fbd
000000d0: 4290 573d e23d 0d3b ca23 d23c 88e7 203c
000000e0: 52b2 b03c 39d1 f2bc c848 35bd 2b41 d1bb
000000f0: fdf4 a23c 94d8 e2bc e529 d03c 568a 79bc
00000100: 6896 483d b12a 563b 27a8 41bc 79e8 b4bc
00000110: 16b3 28bd 005a 1f3d bbde 5cba 3258 f1bc
00000120: 03ea 52bc 133d 11bd 6391 1ebd 3b05 f93b
00000130: 6d93 e3ba e4cd 543d 2e1f 373c 42b7 3ebc
00000140: efce dfbb 18fb 503b a84b 103d bc7f 94bb
00000150: 4a28 b2bc 53d7 55bb 63a2 45bd 42f6 b83c
00000160: 2414 b13b 8b90 cb3c f6d1 33bc 7351 5ebc
00000170: 4fae 213b 252c 32bd 17ae 423a 2e45 433d
00000180: 515a 53bc ce95 e2bc f4a3 cc3c fd6a 5dbc
00000190: 32c1 e5bc 6dd8 dabc 3020 dcbb bb84 15bb
000001a0: 5d76 77bb 0f62 443c c70a d3bc ea21 e83b
000001b0: 255f 2cbd b691 aebc bdd4 00bd 8a2e 673c
000001c0: 1682 bc3c 8190 813c 0711 543d a619 85bc
000001d0: e80d e4bc de64 973c 9937 a53c 3e9e 243d
000001e0: e137 50bc f6fc 0bbd 8422 403d 6ba4 47ba
000001f0: b0ec b83b 025f 83bc 2280 1dbb df39 5cbc
00000200: 76b6 d3bc 963a 0abd 3732 04bd 7aae d23c
00000210: 6aa9 c2bb 01b7 04bd 6d73 f03c 9333 1abd
00000220: fe3f bb3c 83f9 39bb 680b 153d dc9d fbbb
00000230: 8cc8 93bc 6435 0fbd 835f e0bb 3a0f 913c
00000240: bcee e83b fb49 7ebc 8ef4 0d3d 836c 6c3c
00000250: e93e 4abc b416 36bc edb6 213d 111e 56bc
00000260: 4adf ea3c adc3 fabc f6ab dabb 5025 6e3c
00000270: 2e61 dfbc 747c df3c 559a bf3b f2bb 48bc
00000280: 1043 e4bc 029f 87bc fca3 e63c 7077 0d3d
00000290: 5bb1 e6bc 815a 0b3d 6dc8 433d c8b5 d2bc
000002a0: 1ff9 0ebd f704 bf3c 440f ccbc c92f f0bc
000002b0: 858a 763c 980c 4bbc 2aac fd3c 4c35 99bc
000002c0: 16ae d13c 6ea4 febb 5d97 683c 7d37 c43c
000002d0: ff38 44bd 5dd8 ef3c d5ab cd3c a2ee 70bb
000002e0: a7cb 1c3d 0603 32bc e832 c23c fb37 2f3d
000002f0: 2bc4 c53c f412 7abc 8d7b 1bbc 0916 c63c
00000300: 2565 0d3d 6dba b93c 5435 c93b 9fb4 22bd
00000310: 0208 213d 3125 79bc 6387 e0bc 1b02 27bd
00000320: e755 e7bc f23a e83b 8982 90ba fb7f d03c
00000330: 7adc 1e3d 301a aebc 19bf 8fbc 0bc8 1f3d
00000340: 63ac de3c ef28 8abb e7d4 f4b8 817c 46bc
00000350: 6550 ee3c 8900 25bd 1cdb 033c dc98 e83b
00000360: 4d5f b33c 02e2 98ba a67a 0ebd 9555 1d3d
00000370: bcf7 f43c 4e37 f4bc 6b77 0f3d cca1 6c3b
00000380: e237 a0bc f65c 42bc ef95 56bc b647 5cbc
00000390: 986d dd3c 4393 f93a e528 3ebc f6d8 4a3c
000003a0: 0346 b23c 3a5e be3c 2a92 073b 669c dcbc
000003b0: 354d 07ba 1acf e8bc daf5 3e3d 7b67 e83a
000003c0: aaf9 9dbb b05e 323d 56dc 193c 7f43 223d
000003d0: cb62 0abd bc54 12bd 902e 093d 4705 273d
000003e0: 7205 3cbd 03cc 9f3c 6ff2 5cbc cfcf 55bc
000003f0: d51f 0a3c 1012 c8bc 9665 833b cf91 573c
4.6872774e-05 -0.040794734 -0.016421452 0.016794309 -0.0046101795 0.05036438 0.019152593 0.018992145
-0.04435452 0.034885924 0.02874473 -0.0129466755 -0.008551016 0.031533387 0.008561306 0.04837503
0.024945607 0.02774405 0.014264394 -0.022249786 0.0017396485 0.042761765 0.031217419 -0.034460787
-0.003159802 0.011052398 -0.028693415 -0.040188875 0.0036344123 -0.02744422 -0.033560846 -0.019645724
0.0024468557 -0.005307977 -0.023471149 -0.031143732 0.031416815 -0.04010964 -0.040591758 0.040946133
0.032805428 -0.024634806 0.016410736 0.0020924073 0.037035707 0.02200442 -0.03505307 0.011254179
-0.0042241607 -0.014358108 -0.038440157 -0.0428473 0.05262781 0.0021551778 0.025651831 0.009820826
0.021569405 -0.02964078 -0.044258863 -0.0063859425 0.01989221 -0.027691163 0.025410602 -0.015230736
0.048971564 0.0032679255 -0.011819876 -0.022083508 -0.041186415 0.03890419 -0.00084255234 -0.029461
-0.012873176 -0.035458636 -0.03871287 0.0075995005 -0.0017362662 0.051954165 0.011176867 -0.011640372
-0.0068300883 0.0031887945 0.0352284 -0.0045318287 -0.021747727 -0.0032629564 -0.048250567 0.022578362
0.0054040123 0.024849197 -0.010975352 -0.013569224 0.0024670546 -0.04349913 0.0007426454 0.047673397
-0.012899951 -0.027659323 0.024980523 -0.0135142775 -0.028046224 -0.026714528 -0.0067177042 -0.002281471
-0.003775976 0.01198627 -0.025761975 0.007084121 -0.042082924 -0.021309715 -0.031452883 0.014110217
0.023011249 0.015815975 0.05177405 -0.016247582 -0.027838662 0.018480714 0.020168113 0.040189974
-0.012708635 -0.03417679 0.046907917 -0.0007615748 0.0056434497 -0.016036514 -0.0024032672 -0.013441532
-0.02584384 -0.03374728 -0.03227445 0.025717963 -0.005940606 -0.03240109 0.029351914 -0.03764684
0.022857662 -0.002837748 0.03638783 -0.0076787304 -0.018039964 -0.034963027 -0.0068473234 0.017707456
0.0071085375 -0.015520568 0.034657054 0.014430168 -0.0123441005 -0.011113811 0.039481092 -0.013068692
0.028670926 -0.030610884 -0.0066733314 0.014535263 -0.027268019 0.027281024 0.0058472552 -0.012251841
-0.02786401 -0.016555313 0.028154366 0.034537733 -0.028160742 0.034021858 0.047798563 -0.025721446
-0.03490555 0.023317797 -0.024909623 -0.02931966 0.015047674 -0.012393139 0.030965883 -0.018702172
0.025595706 -0.0077710664 0.014196244 0.02395224 -0.04790592 0.029277975 0.02510635 -0.003676333
0.038280156 -0.010864979 0.023705915 0.042777997 0.024141392 -0.015263308 -0.009489906 0.024180429
0.034520287 0.022671903 0.0061403904 -0.039723035 0.039314277 -0.015206621 -0.027408307 -0.040773492
-0.028239204 0.007087105 -0.0011025231 0.02545165 0.03878448 -0.021252722 -0.017547177 0.039009135
0.02718181 -0.0042163054 -0.00011674483 -0.012114645 0.02909107 -0.040283713 0.008047845 0.0070983004
0.021896029 -0.0011664035 -0.034784935 0.038411696 0.029903285 -0.029811528 0.035025995 0.003610718
-0.019557897 -0.011862984 -0.01309727 -0.013444832 0.027029797 0.001904108 -0.01160643 0.012380829
0.0217619 0.02323829 0.0020686486 -0.026930045 -0.0005161346 -0.028419066 0.04662118 0.0017731035
-0.004821022 0.043547332 0.009390911 0.03961515 -0.033785623 -0.03572534 0.03349167 0.040776517
-0.04590363 0.01950646 -0.013485535 -0.013050034 0.008430441 -0.024422675 0.0040099127 0.013157322

linear_2.weight f4 [64, 256]
00000000: 8ea2 f63c 984d 3a3d d92f 853d d935 b13c
00000010: 79d8 22bd 8ad0 56bd bd09 01bd 889f 033c
00000020: e7d9 c1ba 7327 86bb 76df 2d3d 34ed 503c
00000030: b365 6bbd acf3 ef3c e5b2 0b3d 4bb5 863d
00000040: d684 663b 90de 713d d732 4d3d 50c7 143d
00000050: 3248 83bc 27c7 983c 14d3 153d 1c24 893c
00000060: b08d afbc 23d7 45bd 757c 7a3d 4b60 ea3c
00000070: 4c70 413d c683 c2bb 287d d9ba 5568 343d
00000080: c2f7 01bd e028 ce3c ab66 07bd a32b 853d
00000090: 59af 74bc 7506 a33c d2f2 4ebd 39b2 163d
000000a0: 3318 563d 52ff 743b 7b34 2dbc f95e e93c
000000b0: 5703 6dbd a625 ceb9 ac86 3b3d 0b1f 2cbc
000000c0: 50b2 d03c aca6 32bd 50eb 493d 7ef1 753d
000000d0: 9886 863c b3ba babb 5f47 17bc 4b9e 1abd
000000e0: f732 17bd 2ed0 90bc 7937 0cbd ecd5 91bb
000000f0: 0069 06bd 07c6 873c 8659 ab3b c86f 4b3d
00000100: 20de a83b 189c ccbc a7b8 c6bc fc5c 1bbd
00000110: 906a 0d3d 7f46 6e3c 9026 583d 07a2 343d
00000120: d736 57bd 507f 173d 12c4 383c 6577 45bd
00000130: 4a23 d13c 56b4 683d fc0f c83b b784 ccbc
00000140: 37ca 3fbc 8392 47bc b877 87bb 3677 ecbc
00000150: 2867 8d3c f2e1 3b3d dd09 24bd 4519 a23c
00000160: 494d 0b3d a239 d53c 94a8 ff3c f6c3 5a3d
00000170: 10de bbbc e9c1 6ebd f087 96bb 37b9 013d
00000180: db68 8dbc 3e6e 34bd b8d9 07bd 2c35 edb7
00000190: d39e 123d 8d39 f6ba 2344 2b3d 3cef 55bc
000001a0: 9a0f 5b3d 42cb 3c3d 6939 21ba 9f4b 8c3d
000001b0: 859c fd3b eb47 c8bb a471 12bc 708a 45bc
000001c0: 7c88 a93c fe11 093d 8e13 233d f4a6 5f3d
000001d0: 50b2 52bd 8676 413d 4165 9c3b 7322 96bc
000001e0: 0116 833d 1018 53bd b696 8b3d fecb 463c
000001f0: 778e ea3c 6119 c83c 8244 03bd 330a 36bd
00000200: b056 cf3b c028 f43c 2d7c f93c 4908 85bc
00000210: 00ad f2b9 34f8 4b3d f451 863c acaa 58bc
00000220: a71e 9abc 7602 f5bb ee1f 0d3d a936 a7bc
00000230: 8c91 203d c0fd 1c3d bf60 f83b 6740 3cbd
00000240: 02de 873d dc9b 8b3d f232 543d 6eb3 813d
00000250: 9ffe 3d3d 2b47 2d3d 66a0 fb3c 6591 0d3d
00000260: 22ca 0ebd b4d0 083d 2888 d93a 927f 56bd
00000270: cbbb ca3b abe1 67bd f2f5 fdbc 5cae 4a3d
00000280: d337 afbc ecaf b4bc df7c 493c 0ec0 663d
00000290: e9ce 283d 2c3e 343d cc8a 5fbd b01a f1ba
000002a0: e2ab 85b9 d6b6 d2bc 4f10 063d e0c2 423d
000002b0: d205 243d 593b 073d fde2 5ebd cc0d 69bd
000002c0: d21e 133d a17f 48bd 78ab 933c f17e 5bbd
000002d0: 7c74 59bd a716 76bb db80 5dbd ffd3 603c
000002e0: cbec 213c 56a3 cdbc c7fb 663c b48a 8b3c
000002f0: 86d3 f83c 247c 37bd a3aa 783d b66a 303c
00000300: ddf0 aebb 7aeb 843d c6b4 ee3c 92a3 ec3b
00000310: 1d7c 45bc 2162 223c c961 5b3c f181 27bd
00000320: a72d 3a3d c7b7 ca3b 630c d2bc dde8 af3c
00000330: 0a90 4fbd 8020 803c 2fef 0f3d 7a7a 483c
00000340: 83d9 87bb 7e2a c1bc a0b4 7c3d 3592 743d
00000350: c474 4abc e949 b23c 9f3b 493d 1204 11bd
00000360: 0a38 39bd 3dc3 273c 6305 3d3d f33f 793d
00000370: f1c9 6c3b 9c67 6abd 7c19 893d 4e96 5e3b
00000380: 00a8 a83c 25df 86bc 842f 14bd b102 2b3d
00000390: d568 09bd 5b49 a53c ad9c 473d a488 7b3d
000003a0: fcc6 3f3d e767 cdbb 77e8 d53c 6e26 4ebd
000003b0: 8904 cebc 8dd0 3abd 0451 333d bda9 d03a
000003c0: 5d59 59bb e462 6c3d c48b 443d ac05 92bc
000003d0: b829 42bd 6863 39bc 570c 52bc d009 1ebd
000003e0: 1013 16bd 61db 4cbc ba7b cbbc 2c44 e6bc
000003f0: e1b4 b1bb b9de 803d e167 6fbc a939 1abd
0.030106809 0.045484155 0.06503267 0.021632122 -0.039757226 -0.052444972 -0.031503428 0.008033641
-0.0014789671 -0.004094058 0.042449437 0.012751866 -0.057470035 0.029290996 0.034106154 0.06577548
0.0035174391 0.059050143 0.050097313 0.03632289 -0.016025636 0.01864965 0.036578253 0.016740851
-0.021429867 -0.048300873 0.061153848 0.02861037 0.047226235 -0.005936119 -0.0016593086 0.04404481
-0.03173042 0.025165975 -0.033056896 0.06502464 -0.014934384 0.01990054 -0.05052454 0.03679106
0.052269172 0.0037383628 -0.010571594 0.02848767 -0.057864513 -0.00039319432 0.04578273 -0.010505448
0.025475651 -0.043615982 0.049296677 0.060044758 0.016421601 -0.005698526 -0.009233325 -0.037748616
-0.03691384 -0.017677393 -0.03423259 -0.0044505503 -0.03281498 0.016573919 0.005229178 0.04966715
0.0051534325 -0.024976775 -0.024257971 -0.037930474 0.034525454 0.014543175 0.05277115 0.044099834
-0.052542534 0.03698665 0.011277216 -0.048209567 0.025529522 0.056812607 0.006105421 -0.024965627
-0.011705927 -0.012180927 -0.0041341446 -0.028865438 0.017261103 0.045869775 -0.04004847 0.01978744
0.03400925 0.026028458 0.031208314 0.05340954 -0.022933036 -0.058290396 -0.0045938417 0.031670775
-0.017261913 -0.044050448 -0.033166617 -2.8277362e-05 0.035795998 -0.0018785462 0.041813027 -0.013057526
0.053481676 0.04609228 -0.00061502174 0.06850361 0.007739606 -0.006112089 -0.008938227 -0.012056932
0.020694964 0.033464424 0.03981357 0.05460258 -0.051439583 0.047232173 0.0047728126 -0.018326974
0.06400681 -0.05153662 0.06815855 0.012133596 0.028632386 0.024426164 -0.032047756 -0.04444332
0.0063274726 0.029804587 0.03045472 -0.016239302 -0.00046286732 0.04979725 0.0163965 -0.013224285
-0.018813444 -0.0074771 0.03445428 -0.020411806 0.039201304 0.038327932 0.0075798924 -0.045959856
0.066341415 0.06816837 0.051806398 0.063330516 0.046385404 0.0423042 0.030716132 0.034562487
-0.034860738 0.03340216 0.0016596364 -0.052367754 0.0061869374 -0.056611698 -0.031001065 0.04948269
-0.021388924 -0.022056542 0.012297838 0.0563355 0.04121295 0.044004604 -0.054575726 -0.0018394794
-0.000254958 -0.025721949 0.032730397 0.04754913 0.040044613 0.033015583 -0.05441569 -0.056897923
0.035918064 -0.04894984 0.018026099 -0.053587858 -0.053089604 -0.0037550123 -0.054077964 0.013722419
0.009883116 -0.025102299 0.014098114 0.017033912 0.0303743 -0.044796124 0.060709607 0.010767629
-0.0053387717 0.06490226 0.029138934 0.0072216475 -0.012053517 0.009911091 0.013390013 -0.040895406
0.045453694 0.0061864587 -0.025640672 0.021473343 -0.050674476 0.015640497 0.035140213 0.012236232
-0.0041458025 -0.023579832 0.061695695 0.059709746 -0.012356941 0.021763759 0.049129125 -0.035404272
-0.04521946 0.0102394195 0.046147715 0.060852002 0.0036131109 -0.057227716 0.06694314 0.00339641
0.020587921 -0.016463825 -0.036178127 0.041750614 -0.03354724 0.02017658 0.048733402 0.061409608
0.046820626 -0.0062684896 0.026111824 -0.05032962 -0.025148647 -0.045609046 0.043778434 0.0015919727
-0.0033164837 0.057711497 0.047984853 -0.01782497 -0.047403067 -0.011315204 -0.012820325 -0.038583577
-0.036639273 -0.012503476 -0.02483927 -0.028108679 -0.005423174 0.06292481 -0.014612169 -0.037652645

linear_2.bias f4 [64]
00000000: 145c eabc 209d 24bd 41e9 f7bc efc0 253d
00000010: 7864 2abd 90a7 4b3c 2130 3f3d 66f6 7a3c
00000020: 8485 a63c 4e32 3b3d f5c3 d03b f24e 80bc
00000030: 1ab8 113d 9a87 4abd e589 d9bc c08c 0abc
00000040: 7208 f1ba c53a 453d 475e 6abc e0d8 cfbc
00000050: 5236 863c 842b 2e3b 1a30 59bd 64c5 1a3d
00000060: c6c0 733b 97fa d7bc 47f6 bebc fe6f 37bd
00000070: dffe 883b 84e4 373d 7bb2 593d d47b dd3c
00000080: 3396 e5bc a379 04bc 8bc2 9dbc 8f1c 3dbd
00000090: 4595 6a3d 5a90 3dbd 8e19 a6bc 205b 1b3d
000000a0: 6a8f 30bd 56a2 38bd 0e5d ca3c c14b 4cbd
000000b0: 9ec3 27bd f276 6d3c ba7d f2bc 7694 8c3c
000000c0: d7e6 193d c516 84ba f8e2 65bc e6db 5fbd
000000d0: 0562 263d 1c4a b33b fe44 e9bc b769 143d
000000e0: c993 4fbd 6da1 fbbb daee 233d c8b7 76bc
000000f0: c42e d0bb 8325 0e3d 7628 dabc 96be 8b3d
-0.02860836 -0.04018891 -0.030262591 0.0404672 -0.04159972 0.012430087 0.04667676 0.015317535
0.020327337 0.04570227 0.006371016 -0.015662644 0.035575964 -0.049445726 -0.026555011 -0.008456409
-0.0018389358 0.04815175 -0.014304704 -0.025371969 0.016383324 0.002657623 -0.05302439 0.037785903
0.003719376 -0.026364608 -0.023310794 -0.04478454 0.0041807736 0.044895664 0.053148728 0.027036585
-0.028025722 -0.008085641 -0.019257804 -0.046169814 0.05727126 -0.046280243 -0.020275857 0.0379287
-0.04310552 -0.04507669 0.024702575 -0.049876932 -0.04095804 0.014493691 -0.029600967 0.017160635
0.03757366 -0.0010077587 -0.014031164 -0.05465307 0.040620822 0.005471481 -0.02847528 0.03623363
-0.05067805 -0.0076791556 0.04002271 -0.015058465 -0.006353231 0.034703743 -0.026630621 0.06823461

linear_3.weight f4 [1, 64]
00000000: 9879 c23d 3f77 b0bd bd18 a73d 9eff da3d
00000010: 5f95 c53d 822c d0bd 257b 9dbd ce99 ad3d
00000020: c245 863c b757 a63d 9c16 4c3d c55b 8fbc
00000030: 10a2 71bd 5784 313d 5a6c ad3b d0cb d53d
00000040: e1f5 c43d 953a 91bd ef04 cbbd 14bb 8f3d
00000050: eb86 343d 0fd3 e6bd 963c c33d 851d 003e
00000060: 61aa 2dbc a69a 783c 5248 4d3d caa1 d9bd
00000070: be2f e53d 4999 c7bd 2635 7d3d 16d8 c0bd
00000080: b791 d8bc c2d1 6bbd b055 e3bd 0e6a d8ba
00000090: a128 8cbd 784c dabd 51e8 1b3d dc02 513d
000000a0: 662d fd3d e031 28bd dab0 b4bc 6554 83bb
000000b0: 5639 16bd 2b61 99bb c8ad 4f3d c3a2 d0bd
000000c0: 8f0c 633d b20e debd 58db dabc f41f b7bd
000000d0: 655b ae3d 154a 293c c34f c03d f125 c33c
000000e0: 80bc d83d 7556 51bd d665 d13d 6410 b8bd
000000f0: 4c47 c83d 8874 c0bd 86eb cabd 0aa5 083d
0.094958484 -0.086164944 0.08159015 0.10693286 0.09647631 -0.10164739 -0.076895036 0.084766015
0.016390685 0.08122199 0.04982625 -0.017499814 -0.058992445 0.0433391 0.0052924575 0.10439265
0.0961721 -0.07091252 -0.099130504 0.07018104 0.04407398 -0.11270725 0.0953304 0.12511261
-0.0105997035 0.01517359 0.0501178 -0.10626562 0.11190747 -0.09746034 0.061818264 -0.09416215
-0.02643667 -0.057573088 -0.11100328 -0.0016511099 -0.06843687 -0.106591165 0.03806335 0.051028118
0.12362175 -0.04106319 -0.022056986 -0.0040078633 -0.036675774 -0.004680773 0.05070284 -0.10187294
0.0554319 -0.10842647 -0.02671592 -0.089416414 0.08513526 0.010332604 0.09390213 0.023821803
0.105828285 -0.051107842 0.10224502 -0.08987501 0.09779224 -0.093972266 -0.09908204 0.03336052
