ndp/weights/pretrain-3.pt (torch, 9775 bytes, 5 tensors)

linear_1.weight f4 [36, 27]
-0.08640412 -0.20201062 0.04048547 0.12952454 -0.106565714 -0.17290846 -0.18339358 0.17110787
0.14278872 -0.14509872 0.08752923 0.022918185 -0.10495188 0.044121433 -0.15022615 0.16562387
0.17517348 -0.0067348685 0.09975734 0.13522874 -0.052613452 0.016105836 -0.18529928 -0.06441035
-0.14764889 -0.114067435 -0.13832173 0.13321999 0.033057574 0.21169479 -0.026642032 0.16899863
-0.13580866 -0.13769664 -0.14092734 -0.11841835 0.20711234 0.14305167 0.065351106 0.17903396
0.09583052 0.12003875 -0.018070208 -0.09882894 -0.15088974 0.09518534 -0.033393793 0.16862988
0.0017612769 0.10063737 0.18625799 -0.11274793 0.16366489 -0.103285655 -0.11522299 0.12641466
-0.08277341 -0.039531905 -0.009455815 -0.15211032 -0.12221563 -0.06681915 -0.13383596 -0.18408914
-0.11508197 -0.10884998 -0.19815804 -0.070493445 0.054033563 0.03750238 0.09067968 -0.07104844
0.17263158 -0.19761959 0.14002515 -0.1932627 -0.14147553 0.050021313 0.17195457 -0.02050918
-0.15740249 -0.038686592 -0.034960404 -0.1281407 -0.079465 -0.099829875 -0.030704232 -0.03868375
0.043581303 -0.06492774 0.15840277 0.15826939 0.124718994 -0.16957767 -0.117093906 -0.116614215
-0.08932937 0.03174235 0.010038018 0.086701564 -0.07760639 -0.14255442 -0.17112471 0.08891635
-0.026461095 -0.15567823 -0.15343583 -0.17274506 -0.07352391 -0.11838804 0.0938788 0.04822389
0.09575795 -0.0828507 0.21645282 0.0010062947 0.051759742 -0.08790236 0.19506274 0.218651
0.08928074 0.13622354 0.01132769 -0.14328794 0.03656806 0.05452691 0.03012535 0.14776833
-0.0034112283 0.023372548 0.15431347 0.120328 -0.12975697 0.2188483 -0.014359309 0.05883606
0.07148866 -0.037572477 -0.18019706 -0.17195424 0.121192254 0.0021112282 -0.1191112 -0.023680806
-0.12670273 -0.05767688 -0.04540572 -0.10392479 -0.13917822 -0.013499544 0.022544915 -0.068883784
-0.07164056 0.054452676 -0.11065153 -0.16253376 0.068118766 0.008282112 0.15835214 -0.13213569
0.01676747 0.19563925 0.0023002645 -0.12573344 0.11589477 0.06445534 -0.10369906 -0.13971162
0.12612514 0.025431007 0.11173476 0.09806097 0.11570595 0.053657856 -0.0832428 -0.031146253
0.16652007 0.18534824 0.15451078 -0.14022894 -0.19340126 0.13606107 -0.14838593 -0.1744929
0.04587983 0.014348768 -0.10232825 0.124704346 0.087366045 0.15985334 -0.0951431 -0.05481668
0.2219512 -0.03084734 0.099453576 -0.10641843 -0.103166476 -0.023269674 0.005834937 0.06401239
0.15637267 0.10611094 -0.0007815787 0.050271124 0.13853201 0.21877073 0.21480174 0.24262962
-0.1292367 -0.0743551 0.14490779 0.20967548 0.04475823 -0.064474 0.20927547 0.15122211
0.10304049 0.11282532 -0.123797014 -0.13102722 0.14218299 0.040833317 0.030939834 0.10844144
0.21948987 0.07355202 0.18592937 0.084920935 -0.078782454 0.114986606 0.13489154 0.22687171
0.049410097 -0.031249857 0.20408714 0.11329882 0.16434807 0.026566956 -0.028824732 -0.06826473
-0.12495446 0.13496013 0.12210346 0.03557522 0.012031155 0.023530917 0.19189103 0.17510544
-0.06721352 -0.02746319 -0.068728164 -0.09658548 0.062391642 0.040392183 -0.093150206 0.18933502
00000000: a5f4 b0bd dfdb 4ebe 18d4 253d 15a2 043e
00000010: 203f dabd ea0e 31be 87cb 3bbe e736 2f3e
00000020: 3537 123e c294 14be 8642 b33d ebbe bb3c
00000030: 03f1 d6bd adb8 343d e2d4 19be 4e99 293e
00000040: ad60 333e 2cb0 dcbb 944d cc3d 6779 0a3e
00000050: 3481 57bd 63f0 833c 18bf 3dbe 93e9 83bd
00000060: 4531 17be 309c e9bd 36a4 0dbe d26a 083e
00000070: 6167 073d 85c6 583e 6440 dabc fa0d 2d3e
00000080: 6d11 0bbe 5900 0dbe 424f 10be 5285 f2bd
00000090: 4215 543e 237c 123e cdd6 853d ae54 373e
000000a0: cb42 c43d e0d6 f53d f907 94bc d466 cabd
000000b0: d782 1abe 88f0 c23d eec7 08bd 50ad 2c3e
000000c0: a5da e63a f71a ce3d 6aba 3e3e 63e8 e6bd
000000d0: c597 273e 6e87 d3bd 08fa ebbd d872 013e
000000e0: 1b85 a9bd 35ec 21bd 90ec 1abc cfc2 1bbe
000000f0: 304c fabd 7ad8 88bd 4b0c 09be dd81 3cbe
00000100: 19b0 ebbd bdec debd f1e9 4abe de5e 90bd
00000110: 4c52 5d3d 189c 193d 45b6 b93d d881 91bd
00000120: 55c6 303e ca5c 4abe c162 0f3e a8e6 45be
00000130: f6de 10be 26e3 4c3d dc14 303e de02 a8bc
00000140: 1e2e 21be d575 1ebd a432 0fbd 5137 03be
00000150: 8cbe a2bd 9b73 ccbd 7187 fbbc da72 1ebd
00000160: 4f82 323d d6f8 84bd 5634 223e 5f11 223e
00000170: ac6c ff3d c5a5 2dbe eece efbd 6fd3 eebd
00000180: 51f2 b6bd 4404 023d 8076 243c 9790 b13d
00000190: 19f0 9ebd c9f9 11be 513b 2fbe c619 b63d
000001a0: f0c4 d8bc 1d6a 1fbe 481e 1dbe 15e4 30be
000001b0: b493 96bd 6e75 f2bd 8743 c03d 6a86 453d
000001c0: be1c c43d a1ad a9bd cfa5 5d3e a6e5 833a
000001d0: 0602 543d 2706 b4bd 87be 473e 0ce6 5f3e
000001e0: d2d8 b63d 2f7e 0b3e c797 393c 13ba 12be
000001f0: 64c8 153d 9c57 5f3d 70c9 f63c 9550 173e
00000200: ea8e 5fbb c977 bf3c 5a04 1e3e 876e f63d
00000210: 03df 04be c519 603e 4f43 6bbc 15fe 703d
00000220: a668 923d 99e5 19bd 9485 38be c614 30be
00000230: a533 f83d 885c 0a3b 93f0 f3bd 40fe c1bc
00000240: 5cbe 01be 983e 6cbd 59fb 39bd 85d6 d4bd
00000250: bc84 0ebe 312d 5dbc 1db0 b83c f112 8dbd
00000260: 49b8 92bd c509 5f3d 459d e2bd 406f 26be
00000270: da81 8b3d b2b1 073c 1027 223e 944e 07be
00000280: ef5b 893c a855 483e 09c0 163b 44c0 00be
00000290: 3d5a ed3d 2901 843d 2c60 d4bd 9010 0fbe
000002a0: f326 013e b054 d03c 32d5 e43d 31d4 c83d
000002b0: 3ef7 ec3d 57c8 5b3d 337b aabd 6d26 ffbc
000002c0: 3d84 2a3e eecb 3d3e 1338 1e3e 2d98 0fbe
000002d0: fb0a 46be 9853 0b3e 7bf2 17be 44ae 32be
000002e0: 7dec 3b3d 1817 6b3c 7991 d1bd fe64 ff3d
000002f0: f8ec b23d 98b0 233e 63da c2bd 7487 60bd
00000300: 2d47 633e 90b3 fcbc 51ae cb3d e8f1 d9bd
00000310: f248 d3bd 0ba0 bebc 0033 bf3b ee18 833d
00000320: 2820 203e b150 d93d dce2 4cba 18e9 4d3d
00000330: 56db 0d3e 6f05 603e fdf4 5b3e e673 783e
00000340: a056 04be 7d47 98bd b562 143e 2bb5 563e
00000350: 6854 373d f20a 84bd 4f4c 563e f8d9 1a3e
00000360: e406 d33d f610 e73d 4a89 fdbd 002c 06be
00000370: 6b98 113e d640 273d 8975 fd3c 8c16 de3d
00000380: f4c1 603e 71a2 963d 4564 3e3e 07eb ad3d
00000390: b258 a1bd 197e eb3d 0221 0a3e 0f51 683e
000003a0: 3e62 4a3d b3ff ffbc 38fc 503e 3609 e83d
000003b0: dc4a 283e f2a2 d93c d821 ecbc 61ce 8bbd
000003c0: 20e8 ffbd fd32 0a3e 6111 fa3d 52b7 113d
000003d0: 521e 453c e9c3 c03c 157f 443e d74e 333e
000003e0: 3ea7 89bd 7cfa e0bc 5ac1 8cbd 9cce c5bd
000003f0: 618e 7f3d 4672 253d 89c5 bebd 0ae1 413e

linear_1.bias f4 [36]
-0.1331625 0.06160028 0.06805766 -0.117528744 0.21985653 0.05415478 0.02475325 -0.02606851
-0.09155105 0.06918006 0.0013156184 -0.08637288 0.12464121 0.14277439 -0.028816313 0.12368697
0.07655816 0.046626277 0.11934581 0.16528822 0.012157418 0.11665557 -0.036115777 -0.054585736
0.112041764 -0.08686211 0.22486193 -0.10259159 0.11351503 0.051683936 0.030624539 -0.18510611
-0.0035497702 0.02311793 -0.0036861696 0.0899515
00000000: c05b 08be 9350 7c3d d061 8b3d e9b2 f0bd
00000010: 1222 613e 67d1 5d3d 54c7 ca3c a18d d5bc
00000020: 1e7f bbbd 46ae 8d3d d470 ac3a 44e4 b0bd
00000030: e443 ff3d 7333 123e 3010 ecbc 984f fd3d
00000040: 86ca 9c3d 32fb 3e3d 936b f43d 5141 293e
00000050: e82f 473c 1ee9 ee3d 23ee 13bd 4b95 5fbd
00000060: 2776 e53d c3e4 b1bd 3542 663e 8a1b d2bd
00000070: 917a e83d 89b2 533d 50e0 fa3c 758c 3dbe
00000080: 43a3 68bb d061 bd3c aa93 71bb 7e38 b83d

linear_2.weight f4 [24, 36]
0.09507237 0.1878743 -0.12512602 -0.047849696 0.22081232 0.109594785 -0.021487996 0.14518148
0.12550569 0.15343659 0.13341932 0.13200717 0.19798528 -0.052948806 -0.04250923 -0.12442555
-0.05695266 0.044036895 0.21173821 0.12680313 0.20632009 -0.019258928 0.13084489 -0.000101067904
-0.073703416 0.016651472 0.09378894 0.20643742 0.06506242 0.08308191 -0.09665326 0.14485379
0.04860955 -0.10138396 0.037425034 0.16732086 -0.025964327 -0.028043108 0.108417206 -0.032948993
0.18859668 -0.14646593 -0.053556513 -0.09789623 0.19602136 0.033319216 0.16298504 0.006840376
0.0019056009 0.15698285 -0.11907094 -0.1163014 0.1283585 -0.04941551 0.021999154 -0.06882864
0.029954573 0.10922697 0.11538031 0.18678491 0.21488 0.19639929 0.20612039 -0.08174822
0.10782354 -0.073588125 0.057126373 0.14355746 0.0042790417 0.04741932 0.01377244 0.06012767
-0.091997646 -0.08095982 0.14300516 0.12978068 0.11578642 -0.15226988 0.097049 0.044715106
-0.04883095 0.063313246 0.15901503 -0.020366332 -0.12912053 -0.16254383 0.0922811 -0.12724093
-0.048305273 0.08830719 -0.133436 -0.14169481 0.022040328 -0.15750334 -0.16136855 0.1016044
-0.035039805 -0.07435678 0.034204684 -0.15267703 -0.040533524 0.12944405 -0.09416425 -0.13135462
0.05684018 0.13177136 -0.12382452 -0.16635671 0.026106607 -0.12521562 0.04380911 -0.0073857307
0.09505516 -0.03659072 0.038916897 0.014833084 0.077961296 0.11647243 0.09674572 -0.10352446
-0.12024412 -0.1105524 -0.028880356 -0.061535675 0.11309308 0.14549077 0.029396126 0.042405024
-0.10482606 -0.14001183 -0.14280127 -0.1392102 -0.11375399 0.023581982 0.008449021 -0.13192283
0.063487664 0.11768481 0.1168399 0.0009042343 -0.03541998 -0.11017763 0.010690738 0.030982982
-0.12938385 0.004513132 0.13000715 0.0054260693 -0.05778674 -0.054255903 -0.07909994 -0.11680245
-0.1389694 -0.12755108 0.061827652 -0.14934243 -0.06153184 0.059893712 0.0030161014 -0.11498113
-0.10608244 0.051346786 -0.09825871 -0.114187755 0.14074746 0.038580563 0.14010873 0.14642349
0.14631705 -0.1458211 -0.03742582 -0.035917286 0.1479077 -0.080374725 -0.004745693 0.08466129
-0.15037683 0.13454865 -0.1656032 -0.08368711 0.03103457 0.12634808 0.04324454 0.055623315
-0.0115423985 0.026134571 -0.11959909 -0.07133889 0.14146052 -0.002278328 0.1522159 -0.16446626
0.022369536 0.06447515 -0.0024522287 -0.14282514 -0.031268477 -0.09720789 -0.16476898 -0.06380057
-0.0051223603 -0.040915396 -0.08230282 -0.0754856 -0.13228995 0.11522298 -0.108375646 -0.0147533165
-0.05891216 0.016024172 -0.01941248 0.031750303 0.048802614 -0.056093574 -0.090277955 0.021050518
-0.10512038 0.13830143 -0.04847261 0.12787025 0.05328707 0.03359814 0.057778142 0.08915156
0.08965576 0.16886841 0.07337883 0.12782963 0.063303806 -0.13037814 -0.07969739 -0.073846474
-0.082630925 -0.05441264 0.16064042 0.12711243 0.18048482 0.15471393 0.10588475 0.17167452
0.19800675 0.20201595 -0.060140356 0.042918954 0.19098414 0.20278329 -0.12360746 -0.023227453
0.19695729 0.009534996 0.1499647 -0.04726287 0.080422305 -0.11694544 0.15865423 -0.05170272
00000000: 4db5 c23d 1f62 403e 0921 00be 0bfe 43bd
00000010: a01c 623e 3b73 e03d 9807 b0bc 74aa 143e
00000020: 9084 003e 7b1e 1d3e 139f 083e e32c 073e
00000030: a7bc 4a3e d9e0 58bd 291e 2ebd d3d2 febd
00000040: 3147 69bd 0860 343d e7d1 583e aed8 013e
00000050: 9345 533e e6c4 9dbc 34fc 053e 6bf4 d3b8
00000060: d1f1 96bd ab68 883c 6a14 c03d 5564 533e
00000070: 723f 853d d926 aa3d 25f2 c5bd 8d54 143e
00000080: cf1a 473d 65a2 cfbd fe4a 193d 2956 2b3e
00000090: 24b3 d4bc a9ba e5bc d709 de3d 86f5 06bd
000000a0: 7d1f 413e 2afb 15be 135e 5bbd d27d c8bd
000000b0: d3b9 483e bb79 083d 8de5 263e 3c25 e03b
000000c0: 5bc5 f93a 1dc0 203e 77db f3bd 6e2f eebd
000000d0: 6970 033e eb67 4abd 9237 b43c 08f6 8cbd
000000e0: 4b63 f53c 64b2 df3d 834c ec3d 8b44 3f3e
000000f0: 8109 5c3e e51c 493e 3911 533e 9c6b a7bd
00000100: 97d2 dc3d 5fb5 96bd 58fd 693d ba00 133e
00000110: 3437 8c3b c33a 423d cda5 613c 6f48 763d
00000120: 4369 bcbd 43ce a5bd f26f 123e 3ae5 043e
00000130: 6e21 ed3d a3ec 1bbe a0c1 c63d 3027 373d
00000140: f602 48bd 60aa 813d d6d4 223e 4bd7 a6bc
00000150: 2c38 04be e471 26be e0fd bc3d 724b 02be
00000160: c0db 45bd 66da b43d 72a3 08be 7218 11be
00000170: eb8d b43c 8e48 21be cc3d 25be f815 d03d
00000180: e685 0fbd 5e48 98bd 361a 0c3d 5e57 1cbe
00000190: 7b06 26bd fb8c 043e 30d9 c0bd d381 06be
000001a0: 40d1 683d 12ef 063e b697 fdbd 6a59 2abe
000001b0: 86dd d53c 8638 00be 2e71 333d 0004 f2bb
000001c0: 48ac c23d 27e0 15bd 5367 1f3d 7706 733c
000001d0: 2caa 9f3d 1989 ee3d 9f22 c63d a204 d4bd
000001e0: 8d42 f6bd 4c69 e2bd 7f96 ecbc d50c 7cbd
000001f0: 589d e73d 88fb 143e 25d0 f03c e4b0 2d3d
00000200: 0caf d6bd 435f 0fbe 7f3a 12be 1e8d 0ebe
00000210: daf7 e8bd 002f c13c c36d 0a3c c716 07be
00000220: d205 823d bc04 f13d c249 ef3d 230a 6d3a
00000230: 8a14 11bd cfa4 e1bd 3528 2f3c 06d0 fd3c
00000240: 337d 04be e5e2 933b 9820 053e 2bcd b13b
00000250: cab1 6cbd 703b 5ebd 26ff a1bd 1f36 efbd
00000260: ff4d 0ebe c09c 02be fe3e 7d3d 39ed 18be
00000270: d008 7cbd 1c53 753d c9a9 453b 3a7b ebbd
00000280: c041 d9bd 0251 523d dd3b c9bd 45db e9bd
00000290: 1a20 103e a706 1e3d aa78 0f3e 0af0 153e
000002a0: 23d4 153e 2052 15be d14b 19bd 011e 13bd
000002b0: 1e75 173e 819b a4bd c281 9bbb e662 ad3d
000002c0: 62fc 19be 1fc7 093e e393 29be 2664 abbd
000002d0: 363c fe3c 6461 013e 3021 313d 46d5 633d
000002e0: 541c 3dbc 2b18 d63c 5ef0 f4bd 201a 92bd
000002f0: 07db 103e 0050 15bb 7cde 1b3e d869 28be
00000300: 5140 b73c 8c0b 843d 92b5 20bb c140 12be
00000310: 6013 00bd ee14 c7bd 33b9 28be e0a9 82bd
00000320: 79d9 a7bb e796 27bd 628e a8bd 3298 9abd
00000330: 0477 07be 07fa eb3d 0df4 ddbd e5b7 71bc
00000340: e14d 71bd 2045 833c ec06 9fbc 9b0c 023d
00000350: 40e5 473d 60c2 65bd a6e3 b8bd 2372 ac3c
00000360: 5b49 d7bd e49e 0d3e 378b 46bd 6bf0 023e
00000370: 8b43 5a3d 349e 093d c6a8 6c3d 1895 b63d
00000380: 709d b73d d7eb 2c3e a447 963d c5e5 023e
00000390: 6da5 813d d981 05be 6338 a3bd d23c 97bd
000003a0: 673a a9bd cadf 5ebd ec7e 243e c329 023e
000003b0: 03d1 383e 546d 1e3e 1bda d83d 72cb 2f3e
000003c0: 48c2 4a3e 45dd 4e3e bc55 76bd c9cb 2f3d
000003d0: 5991 433e 6ca6 4f3e e825 fdbd 8047 bebc
000003e0: 2caf 493e ac38 1c3c 5990 193e b696 41bd
000003f0: 73b4 a43d 1781 efbd 4176 223e 3bc6 53bd

linear_2.bias f4 [24]
-0.04305861 0.17726134 -0.09909233 -0.0027680008 -0.070048966 0.031929284 0.07535436 -0.10570672
-0.14092453 -0.014753642 0.10804368 0.12811075 -0.08822679 0.0354098 -0.13075693 0.1366203
0.081231885 -0.05554914 0.092691444 -0.06365406 0.024553645 -0.15104051 0.03747059 0.15938866
00000000: 3a5e 30bd ff83 353e ebf0 cabd 5967 35bb
00000010: d575 8fbd 48c8 023d 6353 9a3d c47c d8bd
00000020: 854e 10be 42b9 71bc 0146 dd3d 772f 033e
00000030: 3fb0 b4bd de09 113d 25e5 05be 31e6 0b3e
00000040: e75c a63d 7f87 63bd 03d5 bd3d 0f5d 82bd
00000050: ba24 c93c 5daa 1abe c37a 193d c836 233e

linear_3.weight f4 [1, 24]
0.09807406 0.08014861 0.026412208 -0.11043577 -0.1398302 -0.083561115 0.18022625 0.11948693
-0.09264869 -0.1764178 -0.06753955 0.2557216 0.14565274 -0.18431021 -0.11035413 -0.08498252
-0.085352 -0.13608637 -0.12889737 0.08767684 0.18504383 -0.18964086 0.09075922 0.13602206
00000000: 0edb c83d f424 a43d 6a5e d83c 262c e2bd
00000010: a62f 0fbe 1722 abbd 3b8d 383e 90b5 f43d
00000020: 99be bdbd dea6 34be 2d52 8abd f1ed 823e
00000030: fe25 153e d1bb 3cbe 5901 e2bd 510b aebd
00000040: 08cd aebd 3a5a 0bbe acfd 03be ea8f b33d
00000050: 217c 3d3e 3731 42be f8df b93d 5e49 0b3e
