ndp/weights/pretrain-3.pt (torch, 9775 bytes, 5 tensors)

linear_1.weight f4 [36, 27]
0.19197115 -0.01789981 -0.15270859 0.06794803 -0.09139132 -0.085095406 0.11528442 0.03166003
0.15343152 0.12482486 -0.18619268 -0.18657227 0.043046568 0.014085786 -0.103767194 0.055772167
-0.053468414 0.09325892 0.13626508 -0.19115005 -0.19528465 0.06222231 0.06594919 0.14384271
0.032895483 -0.15408945 0.07043942 -0.043854084 0.1949629 -0.072258994 0.10802406 -0.11382894
-0.07533385 0.10181034 0.0767547 -0.09119668 -0.024710191 -0.0980999 0.020417903 0.22155443
-0.05639102 0.15955581 0.17798616 0.07018557 -0.04754494 0.14855471 0.07863676 0.22452423
0.17038581 -0.043540888 0.02379192 -0.048713062 0.07314177 0.13489491 -0.08669566 0.16196159
0.15440671 -0.026666768 0.1418802 -0.08376712 0.13554463 -0.17687455 -0.06877719 0.06396349
-0.0517245 0.08024796 0.050297894 -0.07082782 0.0575813 -0.11931387 -0.1764473 -0.11311092
-0.13509542 0.1676492 -0.047351472 0.013090489 -0.049925786 -0.14570011 -0.057658218 0.10587217
0.072429314 -0.08698012 0.12411704 -0.06945138 0.086985976 0.1391163 -0.06656012 0.049037986
-0.12976304 0.087021075 0.19826348 -0.090983525 -0.014175673 0.2262888 -0.056567274 -0.09948834
0.015318886 0.2104697 -0.019891541 -0.070180304 -0.011099039 -0.08826051 -0.020396613 0.057182804
-0.07924981 0.1726439 0.21021767 0.056606047 -0.008686325 0.16254288 -0.042523727 0.23429546
0.2367259 -0.10714283 0.10346671 0.09061401 0.19586176 -0.04595123 -0.1159786 0.14673692
-0.033602286 0.1756145 0.05708314 -0.11324956 0.03768751 0.015677212 0.10826639 0.11120883
0.11632191 -0.035155732 -0.11903212 -0.043481737 0.07189037 0.10214364 -0.13225773 0.16449662
-0.10040941 -0.093591474 0.14384538 0.16813444 0.064972624 0.03773793 0.13015248 0.07327942
-0.12528107 0.045697883 0.12762882 -0.16851686 0.11326387 -0.005073297 0.12308898 -0.080886506
-0.027334854 -0.08719632 0.127864 -0.0772115 0.08096465 0.09314705 0.15853891 -0.16378726
-0.1315437 -0.054727312 -0.035809204 -0.15015459 0.10982645 0.13692187 0.14306536 0.13189064
0.18329382 -0.010862302 -0.017202277 -0.019699778 -0.047242332 -0.15307173 -0.0529975 -0.025639271
0.088249296 0.052464817 0.015457308 0.11418335 0.12652728 0.17250916 -0.14628115 -0.12035819
-0.029124321 -0.18158455 -0.13276434 -0.14529487 -0.05105876 -0.12963185 0.12905398 0.14058281
-0.117989525 -0.04477747 0.14643532 -0.16991736 -0.119716495 -0.0053966832 0.099067405 -0.13039534
-0.13746668 -0.022283105 -0.19653262 -0.014180013 -0.009027547 0.030635932 -0.0074473773 0.1198448
-0.025236629 0.16512465 -0.15337175 -0.024889354 0.044093765 0.052611552 0.014742104 0.12124614
0.058475275 -0.004011309 0.0020086141 -0.0018143546 0.12190941 -0.08291718 -0.056022033 0.052321035
0.1432711 0.19957672 0.15647188 0.23792684 -0.040236805 0.13808374 -0.13321047 0.02011825
0.20924208 -0.015880855 -0.090505704 -0.08523999 0.20839737 0.052271143 0.19821516 -0.047405623
0.14500868 -0.03364631 0.19287974 0.12710632 -0.15351608 -0.13511465 0.07301018 0.07410475
-0.1344025 0.06809408 -0.073024765 -0.09611426 0.027564837 0.16556592 0.18203336 -0.19465722
00000000: 1694 443e 9fa2 92bc a45f 1cbe 5628 8b3d
00000010: 5f2b bbbd 8046 aebd 3d1a ec3d f3ad 013d
00000020: 271d 1d3e 2da4 ff3d 4ba9 3ebe cd0c 3fbe
00000030: 9951 303d 12c8 663c e583 d4bd 5b71 643d
00000040: b201 5bbd 88fe be3d 1389 0b3e d7bc 43be
00000050: b3f8 47be d2dc 7e3d 5e10 873d 814b 133e
00000060: 6abd 063d a0c9 1dbe 8b42 903d 57a0 33bd
00000070: 5ba4 473e 86fc 93bd b83b dd3d 261f e9bd
00000080: a248 9abd f181 d03d 9131 9d3d 53c5 babd
00000090: 076d cabc 9ae8 c8bd 7243 a73c 2adf 623e
000000a0: 45fa 66bd 9962 233e 0142 363e 74bd 8f3d
000000b0: 7cbe 42bd ba1e 183e 4f0c a13d aee9 653e
000000c0: 9e79 2e3e ee57 32bd 46e7 c23c 5987 47bd
000000d0: 5acb 953d e421 0a3e 7f8d b1bd 42d9 253e
000000e0: cb1c 1e3e 4474 dabc 0b49 113e 198e abbd
000000f0: 36cc 0a3e 9a1e 35be 0edb 8cbd 4aff 823d
00000100: 12dd 53bd 0b59 a43d 2a05 4e3d 2d0e 91bd
00000110: 5fda 6b3d d55a f4bd 9aae 34be b3a6 e7bd
00000120: 7456 0abe 3bac 2b3e 9ef3 41bd 7e79 563c
00000130: fb7e 4cbd 6932 15be 062b 6cbd 82d3 d83d
00000140: d255 943d a222 b2bd 1331 fe3d 863c 8ebd
00000150: b425 b23d 8174 0e3e ac50 88bd 0edc 483d
00000160: 9ae0 04be 1b38 b23d 9505 4b3e 9255 babd
00000170: 1541 68bc 40b8 673e 16b3 67bd 8bc0 cbbd
00000180: 11fc 7a3c 5e85 573e 96f3 a2bc b1ba 8fbd
00000190: bed8 35bc edc1 b4bd cc16 a7bc 8438 6a3d
000001a0: b94d a2bd 90c9 303e 4d43 573e bedb 673d
000001b0: 1651 0ebc a471 263e 5c2d 2ebd 26eb 6f3e
000001c0: 4668 723e b36d dbbd 5be6 d33d d793 b93d
000001d0: fc8f 483e 5b37 3cbd 3086 edbd 3442 163e
000001e0: 8da2 09bd 4ad4 333e 03d0 693d 63ef e7bd
000001f0: 385e 1a3d 7f6d 803c c5ba dd3d 74c1 e33d
00000200: 2e3a ee3d 75ff 0fbd 1dc7 f3bd e819 32bd
00000210: 423b 933d af30 d13d 926e 07be cd71 283e
00000220: 73a3 cdbd e3ac bfbd 344c 133e 6f2b 2c3e
00000230: 5e10 853d 1693 1a3d b146 053e 8513 963d
00000240: ae49 00be b42d 3b3d 21b1 023e af8f 2cbe
00000250: e3f6 e73d e63d a6bb 1316 fc3d d3a7 a5bd
00000260: 58ed dfbc fc93 b2bd c8ee 023e 1021 9ebd
00000270: cbd0 a53d e1c3 be3d 0658 223e d9b7 27be
00000280: 64b3 06be bf29 60bd acac 12bd 20c2 19be
00000290: b1ec e03d 3f35 0c3e ba7f 123e 570e 073e
000002a0: 60b1 3b3e ccf7 31bc caeb 8cbc 6e61 a1bc
000002b0: 2d81 41bd d6be 1cbe e813 59bd 7309 d2bc
000002c0: 0cbc b43d 59e5 563d a640 7d3c f6d8 e93d
000002d0: 5e90 013e 3ea6 303e baca 15be 5b7e f6bd
000002e0: 2196 eebc 4df1 39be 60f3 07be 2ec8 14be
000002f0: fe22 51bd 36be 04be ba26 043e f1f4 0f3e
00000300: 7ea4 f1bd 9568 37bd 24f3 153e d1fe 2dbe
00000310: ec2d f5bd a9d6 b0bb dae3 ca3d 5b86 05be
00000320: 11c4 0cbe 0f8b b6bc d93f 49be 4953 68bc
00000330: 47e8 13bc 35f8 fa3c 2109 f4bb 3171 f53d
00000340: 0cbd cebc 7016 293e 7c0d 1dbe c2e4 cbbc
00000350: aa9b 343d 367f 573d de88 713c e54f f83d
00000360: c583 6f3d 4c71 83bb f4a2 033b a3cf edba
00000370: a4ab f93d 7cd0 a9bd 5c77 65bd 954e 563d
00000380: a9b5 123e d75d 4c3e 2a3a 203e 18a3 733e
00000390: 59cf 24bd d365 0d3e 5368 08be 07cf a43c
000003a0: 8e43 563e 9118 82bc 0e5b b9bd 4e92 aebd
000003b0: 1f66 553e 441a 563d eaf8 4a3e 662c 42bd
000003c0: 287d 143e b7d0 09bd 4482 453e 2928 023e
000003d0: 5233 1dbe 7f5b 0abe 5c86 953d 3bc4 973d
000003e0: cfa0 09be e974 8b3d 028e 95bd 8ed7 c4bd
000003f0: a7cf e13c 1d8a 293e f466 3a3e 3954 47be

linear_1.bias f4 [36]
-0.12245801 0.08124558 0.00069897407 0.15601704 -0.06756613 0.043034878 0.123482615 -0.15295531
0.014034116 0.17226161 0.017810313 0.082267605 0.23444568 0.038977314 0.08773518 0.19971955
0.05937461 0.043704055 -0.009689576 -0.20277683 0.21396333 0.1725012 0.07085187 0.24407028
0.19060026 -0.1396145 -0.06892294 -0.032807782 -0.10621484 0.19517708 0.039839186 0.09362704
0.075692505 0.18122293 0.18139188 -0.18232764
00000000: 44cb fabd 1564 a63d 5b3b 373a eec2 1f3e
00000010: 1c60 8abd 5745 303d 74e4 fc3d 51a0 1cbe
00000020: 59ef 653c 5965 303e efe6 913c eb7b a83d
00000030: 8712 703e ada6 1f3d 81ae b33d 4883 4c3e
00000040: cb32 733d 0603 333d 07c1 1ebc bba4 4fbe
00000050: 3419 5b3e 28a4 303e c91a 913d 8fed 793e
00000060: b72c 433e 1af7 0ebe 7827 8dbd 7461 06bd
00000070: 2b87 d9bd 80dc 473e 6a2e 233d 89bf bf3d
00000080: ac04 9b3d 8192 393e cbbe 393e 19b4 3abe

linear_2.weight f4 [24, 36]
0.025179941 0.10557203 0.06528761 0.047992706 0.09215775 -0.0016392688 -0.0962553 -0.0557604
-0.019416597 -0.03215755 -0.023903633 0.074931175 0.20638807 0.053896695 0.18909435 0.0103173945
-0.009214819 -0.118669465 0.064611286 0.06996932 0.1988932 0.0039468836 -0.019987904 0.10173181
-0.08943702 -0.09245971 -0.12735592 0.16443208 0.099667035 0.031542342 0.04688242 -0.08505953
0.107648194 0.19158344 0.06418488 -0.013546845 -0.04892848 0.058545515 -0.13718113 0.13282512
0.078341775 -0.020432007 0.1174447 0.061796717 0.112462126 0.13453366 -0.033526223 -0.054866616
-0.06940486 0.1729897 0.111829445 0.04587833 -0.10801749 -0.061066877 -0.07203193 0.074841574
0.15930717 -0.04548889 0.06552345 -0.0020348646 0.0063299737 0.1478053 -0.03015364 0.1247426
0.03271874 0.049481615 0.17609273 -0.03928833 0.080093384 0.103090495 0.05162625 -0.06522541
-0.1267339 0.07411955 0.0762308 0.09862151 -0.15303782 -0.054489277 0.13924311 0.06665083
-0.07971563 -0.013518826 -0.025667548 0.051372506 -0.14676465 0.055962823 -0.024944907 0.03278061
-0.051292956 -0.16373473 0.09301393 0.030525785 -0.15560445 -0.11815566 0.075607106 0.049407132
-0.16055958 -0.111503564 0.10868423 0.011517332 -0.16247389 0.0058309203 0.03543415 0.05920631
-0.081256524 -0.07508338 -0.13545135 0.03677299 0.0017742453 0.068139285 0.17867123 0.06539522
0.1340475 -0.05880558 0.21188243 0.004581693 0.1696462 0.059861016 -0.11389213 -0.055020526
0.19084378 -0.07861871 0.061403856 0.08151622 -0.016762003 0.21322161 0.117785156 0.033685863
0.044909395 0.12517999 -0.094333954 0.100181185 0.07867741 0.007327897 0.023787176 -0.022935282
-0.051483348 0.16541545 0.011764273 0.11147985 -0.00759547 0.015080827 0.18477415 -0.018341621
0.121693216 -0.19223286 0.12674886 -0.11056333 0.06331521 0.102690704 0.012052777 -0.014310678
0.05809432 -0.0655454 0.029150844 0.072264515 0.08653922 -0.11545571 0.08476003 0.08301642
-0.010161722 -0.1523933 -0.13269508 -0.038563244 0.08916055 -0.05432712 -0.07234476 -0.047216758
-0.086596556 0.0064244103 -0.09968699 -0.17877203 -0.17650437 0.13548179 -0.0064307554 -0.14936592
-0.17106077 0.05714489 -0.06781281 -0.13533573 0.17552154 -0.008379679 -0.088271186 0.0045821546
0.10468684 0.06703699 -0.05478355 -0.14314567 -0.080234736 -0.042033825 -0.048657436 0.10760888
0.13044657 0.14537773 0.13422598 0.00029681437 0.07943849 0.18373173 -0.08787596 -0.13666344
-0.114344336 0.12616509 0.15164872 -0.011485028 -0.02059721 0.07294671 0.012123192 0.0885758
0.17308713 0.19024462 -0.036236886 0.08301289 -0.061631285 0.067150295 0.05370448 -0.1047081
0.20418893 0.044390343 -0.09663649 0.0698062 0.19232385 0.041109983 0.065551125 -0.032474738
0.15399581 0.053274058 -0.10518786 -0.10103008 0.03639908 0.10224138 0.1077677 0.2150905
0.15015104 0.06512733 0.0050261864 -0.027455926 0.0883731 0.14545882 0.04417243 -0.012518311
-0.015056684 -0.016250717 0.14710556 0.15806827 -0.052494507 -0.0049811145 0.08701875 0.06453847
0.14351194 0.13133232 -0.05000841 0.1483184 -0.063284025 0.014293353 0.12649243 -0.046052597
00000000: 2a46 ce3c 2636 d83d 83b5 853d 0094 443d
00000010: 34bd bc3d bcdc d6ba 8021 c5bd 0465 64bd
00000020: 8e0f 9fbc a3b7 03bd 8dd1 c3bc 8475 993d
00000030: 6557 533e c8c2 5c3d f3a1 413e 4a0a 293c
00000040: c1f9 16bc fa08 f3bd ec52 843d 134c 8f3d
00000050: a9aa 4b3e dc54 813b acbd a3bc c458 d03d
00000060: c22a b7bd 845b bdbd 9769 02be e260 283e
00000070: 3b1e cc3d 8b32 013d c807 403d b133 aebd
00000080: a876 dc3d 732e 443e 5d73 833d 96f3 5dbc
00000090: 3b69 48bd 6ccd 6f3d 3679 0cbe 4f03 083e
000000a0: a771 a03d 0661 a7bc d986 f03d 8e1e 7d3d
000000b0: 8b52 e63d 31c3 093e cb52 09bd d1bb 60bd
000000c0: 2324 8ebd 3624 313e d606 e53d eaea 3b3d
000000d0: 4638 ddbd 4321 7abd 7a85 93bd 8a46 993d
000000e0: 6b21 233e 8f52 3abd 2931 863d 5d5b 05bb
000000f0: ab6b cf3b 465a 173e c404 f7bc 0c79 ff3d
00000100: 1604 063d 3cad 4a3d a751 343e cdec 20bd
00000110: 0008 a43d 1c21 d33d 0c76 533d e694 85bd
00000120: 88c6 01be fecb 973d e51e 9c3d 13fa c93d
00000130: f2b5 1cbe 2630 5fbd bf95 0e3e 3b80 883d
00000140: f341 a3bd 117e 5dbc c044 d2bc fa6b 523d
00000150: 7949 16be 4639 653d 4359 ccbc f644 063d
00000160: 9018 52bd 14aa 27be 167e be3d 3611 fa3c
00000170: c656 1fbe 98fb f1bd e6d7 9a3d 225f 4a3d
00000180: bb69 24be fb5b e4bd d695 de3d 31b3 3c3c
00000190: 8e5f 26be 4e11 bf3b 6623 113d 5182 723d
000001a0: d269 a6bd 51c5 99bd c2b3 0abe 469f 163d
000001b0: cb8d e83a 9c8c 8b3d 97f5 363e eeed 853d
000001c0: bf43 093e 1fde 70bd b5f7 583e 0722 963b
000001d0: bcb7 2d3e d330 753d 4740 e9bd 345d 61bd
000001e0: 8d6c 433e d902 a1bd 9c82 7b3d faf1 a63d
000001f0: 7850 89bc c456 5a3e 5839 f13d 30fa 093d
00000200: eaf2 373d 2f2f 003e 2932 c1bd cb2b cd3d
00000210: 9f21 a13d db1e f03b 53dd c23c c6e2 bbbc
00000220: 34e0 52bd ab62 293e f0be 403c 8c4f e43d
00000230: 6ce3 f8bb 9315 773c 6f35 3d3e 2b41 96bc
00000240: 4b3a f93d b1d8 44be 74ca 013e 076f e2bd
00000250: 68ab 813d 814f d23d 0379 453c 5577 6abc
00000260: 4ff4 6d3d ab3c 86bd c0cd ee3c 6bff 933d
00000270: 793b b13d 0b74 ecbd ab96 ad3d 8304 aa3d
00000280: 5a7d 26bc fd0c 1cbe 38e1 07be 7ef4 1dbd
00000290: ce99 b63d 1d86 5ebd 7d29 94bd 5c66 41bd
000002a0: 8959 b1bd dc83 d23b b128 ccbd 0410 37be
000002b0: 90bd 34be bdbb 0a3e 16b9 d2bb 61f3 18be
000002c0: 8e2a 2fbe c310 6a3d 71e1 8abd 7395 0abe
000002d0: ebbb 333e ec4a 09bc 86c7 b4bd e625 963b
000002e0: 0e66 d63d b04a 893d b764 60bd c794 12be
000002f0: 1c52 a4bd a92b 2cbd 054d 47bd 0b62 dc3d
00000300: c993 053e e6dd 143e 8972 093e c09d 9b39
00000310: a6b0 a23d 2c24 3c3e 50f8 b3bd 80f1 0bbe
00000320: 5d2d eabd 6c31 013e cd49 1b3e b32b 3cbc
00000330: 7bbb a8bc 1665 953d 5aa0 463c 3b67 b53d
00000340: c13d 313e 7ccf 423e 216d 14bd a902 aa3d
00000350: 1671 7cbd 1886 893d 3bf9 5b3d 3371 d6bd
00000360: e716 513e a6d2 353d 5ae9 c5bd 8ef6 8e3d
00000370: 8bf0 443e f162 283d ab3f 863d 3b04 05bd
00000380: 14b1 1d3e e635 5a3d bc6c d7bd dce8 cebd
00000390: 3417 153d ee63 d13d 50b5 dc3d af40 5c3e
000003a0: 32c1 193e 7a61 853d b5b2 a43b 40eb e0bc
000003b0: f5fc b43d 28f3 143e 26ee 343d 9a19 4dbc
000003c0: 4fb0 76bc 3920 85bc d7a2 163e a6dc 213e
000003d0: 7b04 57bd 9e38 a3bb e336 b23d bf2c 843d
000003e0: cbf4 123e fb7b 063e 9ed5 4cbd c7e0 173e
000003f0: 0e9b 81bd ab2e 6a3c 3b87 013e a6a1 3cbd

linear_2.bias f4 [24]
0.15884669 0.10765722 0.0136639215 -0.028039318 0.044357903 0.13748129 -0.027338436 -0.01617445
-0.015464067 0.10855322 -0.017248744 -0.0055097304 0.019277027 0.1135147 0.19981764 -0.045097727
-0.014276045 -0.10275566 -0.085679516 0.11368215 0.060543142 0.095343016 -0.00395146 0.010343872
00000000: b5a8 223e 637b dc3d a4de 5f3c b6b2 e5bc
00000010: a2b0 353d e5c7 0c3e dbf4 dfbc 4880 84bc
00000020: 005d 7dbc 2751 de3d 3d4d 8dbc f88a b4bb
00000030: dbea 9d3c 657a e83d ff9c 4c3e 65b8 38bd
00000040: 13e6 69bc 8f71 d2bd be78 afbd 30d2 e83d
00000050: 16fc 773d 3343 c33d 407b 81bb 5879 293c

linear_3.weight f4 [1, 24]
0.24814068 0.16453947 0.108482145 0.24041563 -0.17543104 0.22833252 0.2207423 -0.029403163
0.06762487 -0.18141651 -0.018890103 0.0540953 -0.17521423 -0.096394844 0.075428866 -0.124371596
-0.01539272 -0.048914414 0.16430981 0.016787754 0.21908133 0.1060065 0.23307496 0.21453272
00000000: 9718 7e3e 097d 283e e32b de3d 842f 763e
00000010: 32a4 33be 00d0 693e 450a 623e e7de f0bc
00000020: e87e 8a3d 40c5 39be 6bbf 9abc 0993 5d3d
00000030: 5c6b 33be a96a c5bd 737a 9a3d 89b6 febd
00000040: bf31 7cbc 7b5a 48bd d540 283e 7986 893c
00000050: db56 603e f019 d93d 34ab 6e3e 77ae 5b3e
