ndp/weights/pretrain-2.pt (torch, 3951 bytes, 5 tensors)

linear_1.weight f4 [16, 8]
000000 08 d0 6d 3e 10 61 10 bd e2 46 cb 3e 43 78 33 be
       0.23223889 -0.035248816 0.39702517 -0.17526345
000010 b1 39 87 3e 7b 87 cc 3d 94 d3 24 be 61 9e 07 be
       0.26411203 0.09986778 -0.16096336 -0.1324401
000020 eb 2a 48 be d0 5a b4 bd 25 e4 fd 3b 17 cb b8 3d
       -0.19547622 -0.088063836 0.007748144 0.09023111
000030 99 81 ad be ea 15 43 bd 51 d6 29 be 05 72 aa be
       -0.33887938 -0.04762832 -0.16585661 -0.33290115
000040 c3 44 2d 3d f6 51 9f be 76 e4 e3 3c 90 68 a4 be
       0.042301904 -0.3111722 0.0278189 -0.32111025
000050 2b b9 6d be 41 77 a5 bd 95 f5 10 be 92 09 e7 3d
       -0.23215167 -0.080793865 -0.14156182 0.11281122
000060 4a e9 03 be e2 f1 ea 3d fd 10 2f 3e 9d 40 92 3d
       -0.12881961 0.11471917 0.17096324 0.0714123
000070 26 2b e1 3e 58 25 7d 3e 0b 87 31 be 0c 53 c4 3e
       0.43978232 0.24721277 -0.17336671 0.3834461
000080 e3 f7 8d be fe 21 7d be 4f 25 ff bc 05 6e c2 bd
       -0.27728185 -0.24719998 -0.03114572 -0.09493641
000090 53 a4 6a 3e 7e ad 80 be 89 1c 05 be ea 46 60 be
       0.22914247 -0.25132364 -0.12999167 -0.21902052
0000a0 a6 93 c2 3b 83 8d dc 3a be 4e 03 be 4c 34 81 be
       0.005938011 0.0016826842 -0.12823007 -0.25235212
0000b0 0e bb 8e 3e c1 d2 1d be 07 82 98 3d 78 86 5f 3e
       0.27877086 -0.15412427 0.07446676 0.2182864
0000c0 08 86 30 be fd 6b 5b be aa a6 d4 3d 59 b9 7a be
       -0.17238629 -0.21427913 0.10383351 -0.24484767
0000d0 d7 56 9b bd c2 7a 8f 3d 35 58 0f be 70 1e 7b 3e
       -0.07584923 0.07005836 -0.13998492 0.2452333
0000e0 e2 c5 32 3e fa a9 0e 3e f3 f1 8d be 63 f5 85 be
       0.17458299 0.13932028 -0.27723655 -0.26163778
0000f0 16 92 05 bc e1 9c 31 bd 2d cd 94 3e 88 12 9d bd
       -0.008152505 -0.043362502 0.29062787 -0.0766955
000100 84 87 3f bd f2 36 c6 3e a1 86 6b 3e 37 11 03 3e
       -0.046760097 0.38713795 0.23000576 0.12799536
000110 90 d1 87 3d b6 2b 59 be 66 bb e9 bc 7e 9a f4 3e
       0.06631768 -0.2120808 -0.028531741 0.47774118
000120 66 41 67 3d 1d d8 20 be b7 90 66 3d ca f7 1b be
       0.056458853 -0.1570744 0.056290355 -0.15231243
000130 ae fc 08 3e 95 f8 99 3e 98 15 82 3e 8a 87 0c 3e
       0.1337764 0.30072466 0.254071 0.13723579
000140 32 83 7b bd 44 93 a0 3e f8 c4 b0 3e 47 89 66 bd
       -0.061404414 0.31362355 0.34525275 -0.05628326
000150 93 5b b9 3e 72 8f 98 3d 09 ce 54 3e 7e 3b 4b 3e
       0.36202678 0.07449235 0.20781721 0.19846913
000160 be 97 5a 3e e3 1a e6 3c 84 82 6b 3e e5 2d a8 3e
       0.21346948 0.028088992 0.22999007 0.32847515
000170 07 fa 18 be 15 c7 74 3e 8b 6c cb 3e 3e 89 87 3d
       -0.14939128 0.23904069 0.3973125 0.06617974
000180 5b 16 87 3e fb b6 e8 3c 08 37 42 3b 4a 2b b7 be
       0.26384243 0.028407564 0.0029634852 -0.35775214
000190 1b 83 65 bd aa 30 5a be d8 27 91 bc ee f8 0a be
       -0.056033235 -0.21307626 -0.017719194 -0.13571522
0001a0 aa 34 60 be 47 9e ef 3d 2c d6 28 3c 15 ec 64 be
       -0.2189509 0.11700111 0.010304969 -0.22355683
0001b0 44 53 88 3e be cc 48 bd d7 82 6e 3e 15 26 9e be
       0.26626027 -0.049023382 0.23292099 -0.3088843
0001c0 b5 f2 55 bd 07 0d 51 be 10 d0 5a 3e c1 ed 27 bc
       -0.052233417 -0.20415126 0.21368432 -0.010249556
0001d0 4b 86 7b 3e 6c 16 29 bc 8e 17 06 3e af b1 c7 3e
       0.24562947 -0.010320287 0.13094923 0.3900275
0001e0 f3 64 ae be 5e 11 0a be 21 7b 77 3e 08 c7 68 bd
       -0.34061393 -0.13483188 0.24168064 -0.056830436
0001f0 34 e8 a7 bd 23 de 1d 3e de 97 eb 3c 80 ca 4b be
       -0.08198586 0.1541677 0.02875894 -0.19901466

linear_1.bias f4 [16]
000000 d1 c6 60 3e 59 24 3e 3e 23 d4 c9 bd 25 98 1b bd
       0.21950842 0.18568553 -0.09854915 -0.037986893
000010 75 95 83 be 66 aa a7 3e de f0 e5 3e 52 5f 89 3d
       -0.25699964 0.3274719 0.4491033 0.06707634
000020 1b c2 aa 3c ef d2 20 3e 42 af b2 3e 4e 50 82 be
       0.02084451 0.15705465 0.34899336 -0.25451893
000030 c2 ee 7a 3d 4e 35 35 bd f6 93 7f 3d 38 a1 03 be
       0.061262853 -0.04424029 0.062396966 -0.12854469

linear_2.weight f4 [16, 16]
000000 06 c8 29 bd 8f 43 0f 3d 30 90 1f bd 45 5a 80 be
       -0.041450523 0.03497654 -0.038955867 -0.2506887
000010 a8 38 54 be c8 02 85 3d 31 26 f9 3c 2f bf 6f be
       -0.20724738 0.06494671 0.030413719 -0.23412775
000020 bf 1a 28 be d2 72 0c be 20 47 87 bd 0d 52 73 be
       -0.16416453 -0.13715675 -0.06605363 -0.23761769
000030 0d 7d 54 3d 65 7d 73 bc d3 2f 0a be 56 ca e4 bd
       0.05187707 -0.014861439 -0.13494806 -0.11171405
000040 c7 a0 5d bd d8 0b 4c be c8 de 30 3e 0d 5a 15 3e
       -0.054108407 -0.19926393 0.17272484 0.14585133
000050 b0 68 78 bd c0 cb 0d 3d 32 b6 c1 3d 6a c6 02 bd
       -0.060646713 0.03461814 0.09458579 -0.031927504
000060 5f 7a ef 3d 21 25 3f bd cd c2 52 be 5f 17 31 be
       0.11693262 -0.04666627 -0.20582123 -0.17294072
000070 c9 02 c9 bc be fe 18 be 87 39 02 be 8f c2 bd bd
       -0.02453746 -0.14940926 -0.12717257 -0.09265625
000080 0c 65 df 3d bc 12 74 3e 68 a7 ad 3d f8 c0 35 3e
       0.10907945 0.23835272 0.08479196 0.17749393
000090 a8 4e 51 3e 90 3b 43 3d ec 06 b9 bd a6 e2 61 3e
       0.20440161 0.047664225 -0.09034523 0.22059116
0000a0 4e 19 1f be 2a 6b 65 be 7c cc aa bd 9c 35 68 3e
       -0.15536997 -0.22404161 -0.083397835 0.226767
0000b0 ce 7c 0e be a6 76 2e be 78 23 4e be 6a 2a 47 3e
       -0.13914797 -0.17037448 -0.20130718 0.19449773
0000c0 f4 38 26 3e 63 28 6a be 6a e5 43 3e 78 e9 46 bd
       0.16232663 -0.22866969 0.19130483 -0.048562497
0000d0 2c cd 44 3e 24 64 c1 bd 14 af 51 3e 3d 21 63 3e
       0.19218892 -0.094429284 0.20476943 0.22180648
0000e0 28 cc c2 3c 01 38 8e be 06 8c fb 3d 7c 0d c0 3b
       0.02377899 -0.27777103 0.12282567 0.0058609825
0000f0 43 1b a5 3c ae b1 84 3d 38 d2 6d be 43 a9 84 be
       0.020154601 0.06479202 -0.23224723 -0.25910386
000100 4d 01 6e 3e 50 7c eb 3c 94 b2 fd 3d ec b0 23 be
       0.23242684 0.0287458 0.12387577 -0.15985459
000110 b6 3c 7b 3e 22 3b 36 3c f5 89 a9 bd 70 72 f7 bc
       0.24534878 0.011122497 -0.08278266 -0.030205935
000120 60 44 44 be 50 eb 2a be b1 c0 9c 3d 4a 38 e6 bd
       -0.19166708 -0.16691327 0.076539405 -0.11241205
000130 d1 30 3c be 54 28 11 be d2 28 28 3e 47 23 31 bd
       -0.18377997 -0.1417554 0.16421822 -0.043246534
000140 eb 45 3c be c5 47 14 3e 80 70 94 3c 6e 59 a4 3d
       -0.18386047 0.14480503 0.01812005 0.0802487
000150 64 d1 15 3e da bd 2a 3e 91 57 cb 3d f8 7a 3b be
       0.14630657 0.16673985 0.09928811 -0.18308628
000160 e9 fd 84 3d 3f 45 34 be cc d6 28 be 94 5e 84 be
       0.06493742 -0.1760454 -0.16488189 -0.25853407
000170 05 58 41 3e ef 23 1d 3d 25 b4 97 be 23 80 80 bd
       0.18881233 0.038364347 -0.29629627 -0.0627444
000180 90 56 b4 3e 06 3e 24 be 20 a5 8b bc 7d e1 ba 3e
       0.35222292 -0.16039285 -0.017046511 0.3650016
000190 20 b2 b8 bc 27 45 1f be c4 6b ea 3d 19 59 cb bd
       -0.022545874 -0.15553723 0.11446336 -0.099291034
0001a0 d7 cf 7a 3e 28 f5 32 3c a3 b8 b2 bd 0c 68 a7 3e
       0.24493347 0.010922708 -0.08726623 0.3269657
0001b0 0f 47 2c 3e bd eb 04 bd ed 0a 5b 3e 60 1c cd bd
       0.16823982 -0.03245138 0.21390887 -0.10015178
0001c0 c8 d8 2a 3e 26 00 2c 3e d8 dd 53 3d 24 5a a0 3d
       0.16684258 0.16796932 0.05172524 0.07829693
0001d0 90 08 8c bc 40 3e 06 bd 9c 51 6f be 14 70 ca 3d
       -0.017093927 -0.03277421 -0.23370975 0.098846585
0001e0 b2 f8 39 be 16 92 0b 3e 04 cb 2a be fe c4 5c be
       -0.18161276 0.13629946 -0.16679007 -0.21559522
0001f0 ea 77 37 3e cc 3c f8 3d 70 b8 d1 bc da a7 7c be
       0.17916837 0.12120971 -0.025600642 -0.24673405
000200 82 cf 5c be aa 4b 6a be 64 7a f1 bd 1a c2 37 3e
       -0.21563533 -0.22880426 -0.11790922 0.17945138
000210 6c b6 7f be 10 68 1d be 06 e5 59 be 40 cf 27 bc
       -0.24971932 -0.15371728 -0.21278772 -0.010242283
000220 d0 67 62 be b4 d7 2a be e0 63 37 bc d0 ae 7c 3d
       -0.22109914 -0.16683847 -0.011193246 0.06169015
000230 00 7f 9a bb e6 d7 57 3e ae cd 40 be 1a ed 67 3e
       -0.0047148466 0.21078452 -0.1882846 0.22649041
000240 d4 51 75 3e 90 c3 39 3e c0 b8 08 3e 9c 08 5e 3e
       0.23956996 0.18141007 0.13351727 0.21682972
000250 f0 9f 10 bd 75 7b a4 3d 4d c4 86 3e 13 cf 88 3e
       -0.03530878 0.0803136 0.2632164 0.26720485
000260 ca ec 8e 3e 9b 48 1d 3d 84 bb 7d bd 7b f9 b9 bd
       0.2791503 0.03839932 -0.061946407 -0.09080788
000270 56 a9 a3 bd 3b 88 1b 3e c1 79 af 3d 35 44 2d bd
       -0.07991283 0.15188687 0.085681446 -0.042301375
000280 8e db b9 3d 51 16 01 be 98 bd e4 bd 63 41 8e 3e
       0.0907508 -0.1260617 -0.11168975 0.2778426
000290 08 47 34 bd 01 69 6f 3e 0a df 3e 3e 91 1b 9b 3d
       -0.044013053 0.233799 0.1863977 0.07573617
0002a0 ec 45 82 3e 3b b8 8c 3e 23 5d 9b 3e a9 17 96 3e
       0.2544397 0.27484307 0.30344495 0.29314926
0002b0 30 41 10 bd 73 d7 e9 3d 48 df b4 3e 56 f9 22 bd
       -0.035218418 0.11418047 0.353266 -0.039788567
0002c0 b4 85 63 be 39 a2 38 3e 18 3f 6c 3e 04 30 b4 bd
       -0.22218972 0.18030633 0.23070943 -0.08798221
0002d0 ec 75 5d be e0 79 76 3d d8 c4 42 3d 7e 30 30 be
       -0.21627015 0.060174823 0.047551006 -0.17205998
0002e0 fd 38 b2 3c cb 87 6c be 32 1e a4 3d 7b 5c 3e be
       0.02175569 -0.23098676 0.08013572 -0.18589966
0002f0 11 8e 91 bd b3 01 6f 3e 35 15 b6 bd bd 96 fa 3d
       -0.07107175 0.23340492 -0.08890764 0.12235782
000300 ed 08 e6 bc 01 36 53 be dc 0a f6 3d 01 b7 03 3d
       -0.028080428 -0.2062607 0.1201379 0.032156948
000310 00 40 d3 bb b5 f4 f1 bd 38 07 82 be 3a 4e bf bd
       -0.0064468384 -0.11814252 -0.25396132 -0.093410924
000320 98 19 f5 bc 2e e6 0b 3e 9e 63 a0 3c ca c7 b3 bc
       -0.02991943 0.13662025 0.019578751 -0.021945853
000330 95 12 9b 3d 2f 71 fb bd c4 6f 3d bd 02 1b ad bc
       0.075719036 -0.122774474 -0.046249166 -0.021131042
000340 a0 21 b1 3c cc 82 35 3e 12 9e 1e be e4 bb 39 3e
       0.021622479 0.17725676 -0.15489987 0.18138081
000350 02 c4 64 3e 38 dc d6 bd 22 e2 03 3e c8 05 41 bd
       0.22340396 -0.10491222 0.12879232 -0.047124654
000360 2a ca 41 be 28 57 38 bd dc aa 1d 3e 38 8a 7e be
       -0.18924776 -0.045004994 0.15397209 -0.24857414
000370 cc 41 06 be e8 83 00 be 04 c5 dc bd 58 fb 7d 3e
       -0.13111037 -0.12550318 -0.10779765 0.24802911
000380 70 a5 7e 3e 3c 4e 9a bc 64 fa f4 3d ad 40 91 3e
       0.24867797 -0.018836133 0.11961821 0.28369656
000390 40 c4 33 3d 2a 9a 71 3e c9 2f 6b 3e a0 a9 a6 3e
       0.04388833 0.23593965 0.22967447 0.3255129
0003a0 9c 0b 7f 3e f6 f1 90 3e 17 73 e6 3d ef 9b b1 3c
       0.24906772 0.28309602 0.112524204 0.0216808
0003b0 be b6 6f 3e 8c de 83 bc e1 4f 9d 3e c4 a8 3d bd
       0.23409554 -0.01609733 0.30725005 -0.046303526
0003c0 71 4a 6e be a6 be 72 3d d6 2c 2e 3e b3 e3 2c 3e
       -0.23270585 0.059263848 0.17009291 0.16883735
0003d0 14 be 87 bd 6b 77 60 be 63 4c a6 bd be 3f 49 be
       -0.066280514 -0.21920554 -0.08120038 -0.19653222
0003e0 e0 1f ac 3d 56 69 f7 3c 81 cc 96 bd 18 8b 29 bc
       0.08404517 0.030201595 -0.07363225 -0.010348104
0003f0 78 e9 d3 3d e6 e6 27 be 84 6f 37 be 09 ac 13 bd
       0.10347265 -0.16396675 -0.17913634 -0.036052737

linear_2.bias f4 [16]
000000 fa 67 24 3d 83 17 5c 3d 14 65 21 be 17 40 0f be
       0.040138222 0.05373336 -0.15761214 -0.13989292
000010 7a 58 11 be 50 92 2b 3e b8 48 96 3e c0 c3 e1 bd
       -0.14193907 0.16755033 0.29352355 -0.110236645
000020 b6 6f 3b be 4c 1d 9f 3e 45 03 33 bc 1c 34 db bd
       -0.18304333 0.3107704 -0.0109260725 -0.107032984
000030 68 d8 62 bd d2 0b 7f be ec eb 81 3c a8 10 a7 bc
       -0.055382162 -0.24906853 0.015859567 -0.020393685

linear_3.weight f4 [1, 16]
000000 c6 e4 72 be 04 67 8a bc 30 6d c8 3d 2f 10 48 be
       -0.23720083 -0.016894825 0.09786451 -0.19537424
000010 84 08 56 be ea a2 5e be 7b 66 a4 3e 98 41 56 bd
       -0.20901686 -0.21741834 0.32109436 -0.05230865
000020 ac be 93 3d 1c f9 1f 3e bb a3 b0 3e 79 97 ce bd
       0.07214102 0.15622371 0.34499916 -0.10087485
000030 37 5d 2c be 80 f1 50 3b 53 00 bc 3d 1a da 28 be
       -0.16832434 0.0031882226 0.09179749 -0.16489449
