ndp/weights/pretrain-4.pt (torch, 27311 bytes, 5 tensors)

linear_1.weight f4 [64, 64]
000000 4f ea d8 3d 0c 21 5e bd 81 75 1b 3e 16 83 d3 3d
       0.10591566 -0.054230735 0.15181543 0.10327737
000010 73 e1 0f bd fc b0 27 bd b2 47 fd 38 83 76 b1 bd
       -0.035127115 -0.04094027 0.000120773344 -0.086651824
000020 a7 07 7b 3d f7 ec 14 3e a2 d1 ec 3d 6c a3 73 bd
       0.061286595 0.1454352 0.11563422 -0.059482023
000030 1b 32 f3 3d 32 35 09 3e 9b 66 77 bc 45 62 7e 3d
       0.11874791 0.13399199 -0.015100147 0.062105436
000040 bd 9f 79 3d dd 6a 88 3d 48 82 92 bd b7 2d 93 3d
       0.060943354 0.066610076 -0.071537554 0.07186454
000050 0e 44 e1 bb bc f1 5e 3a 83 9d b8 bb e7 6a 17 3e
       -0.006874568 0.0008504649 -0.0056340112 0.14786874
000060 63 9a 94 3b ae f3 a7 3d 21 77 4d bd 3c 2e 6d 3c
       0.004535006 0.08200775 -0.05016244 0.014476355
000070 31 d4 00 3e 3a 7e 8a 3d e7 31 7a bd 26 64 a3 bd
       0.12580945 0.06762357 -0.061082747 -0.07978086
000080 58 27 af 3d 2e 40 92 bb 05 b4 04 3e ee 21 93 bd
       0.08552426 -0.004463217 0.12959297 -0.07184206
000090 ff 74 83 bc 3d ae d5 3b 42 35 93 3d 3c 41 75 3c
       -0.016046999 0.006521015 0.071878925 0.014969166
0000a0 bb 77 71 3d d6 d1 91 bd 65 b5 09 3d 1e a7 0f 3e
       0.058952074 -0.07120101 0.033620257 0.14028594
0000b0 2a c2 94 3d 60 6a ff 3c f0 24 8c bd 44 70 ab bd
       0.07263596 0.031178653 -0.06842983 -0.08371022
0000c0 85 58 ad 3d 5c 58 c1 3b e5 ce 11 3e 53 1b c3 3d
       0.084641494 0.005900426 0.1423908 0.09526696
0000d0 3c f1 6a 3d 94 2e 73 3d 34 20 51 bd ea 0f 1a 3e
       0.057358965 0.059370592 -0.051056102 0.15045133
0000e0 5b 04 e7 3d 07 10 8f 3c 90 71 79 bc 23 9e 9c bd
       0.112801276 0.017463697 -0.015224829 -0.0764735
0000f0 66 41 32 bc bb 59 00 bd 97 b0 8d 3d 09 00 9e 3d
       -0.01087985 -0.031335574 0.069184475 0.077148505
000100 62 48 65 3d 0d 77 13 ba 0e 53 d9 3d b7 2f a7 bd
       0.055977233 -0.0005625345 0.106115445 -0.08163398
000110 5f 33 9c bd 76 fc 90 bd dd d4 eb 3d c7 2a d8 bb
       -0.07626986 -0.07079403 0.1151521 -0.0065968963
000120 a0 be 13 3e 6a 38 c0 3d d7 5e ba 3c 8f b2 2b 3d
       0.14428186 0.0938576 0.022750301 0.041918334
000130 fc 8c 1b bd 9a 6f be 3d ab bc 9b bb c6 6b 9d 3c
       -0.03797625 0.0929863 -0.0047527156 0.01921643
000140 fc f8 ac bd c3 d2 a2 bd ff 1e 33 3d d4 22 00 bd
       -0.084459275 -0.07950356 0.043730732 -0.031283215
000150 2e 41 34 3d cf df ba bd 46 9f 08 3e 30 9f e1 3d
       0.044007473 -0.09124719 0.13342008 0.11016691
000160 35 e6 25 bc 14 36 21 bd 77 86 8b bc 69 e8 54 bd
       -0.010125686 -0.039358214 -0.017031891 -0.051979456
000170 42 85 d6 3c f2 0f 1f 3d 31 94 1b 3c 31 0e 09 bd
       0.02618659 0.038833566 0.009495781 -0.0334608
000180 98 44 0f bd 63 a8 3a bd 3a ea 07 3e 91 f8 ef 3d
       -0.034977525 -0.045570742 0.13272944 0.11717332
000190 f6 21 66 bd 00 2c 23 3e d7 76 79 bd f4 7a d0 3d
       -0.05618473 0.15934753 -0.06090435 0.101797014
0001a0 61 41 bc 3d 3b d4 da 3d c6 37 23 bd 57 05 04 3e
       0.091921575 0.10685011 -0.03984811 0.12892662
0001b0 7a 18 a9 bd 4e 3e 6b 3d 7f aa 9b 3d 9d 39 9d bd
       -0.08256622 0.057432465 0.07600879 -0.076770045
0001c0 a7 34 84 bd 39 cf b0 bd c0 30 05 bd 6d 9f 43 3d
       -0.06455355 -0.086332746 -0.032517195 0.047759462
0001d0 07 15 4c bc 81 ce 13 3c 76 9a 77 3d 46 30 15 3e
       -0.012456185 0.009021402 0.06045004 0.14569196
0001e0 e7 bc 5b 3d d3 05 13 bd 12 44 24 bd fb e7 3a bd
       0.05364695 -0.035894226 -0.04010398 -0.04563139
0001f0 73 56 af bd 0c 56 3f 3d bf 61 19 3e f4 21 f2 3d
       -0.08561411 0.04671292 0.14978693 0.11822882
000200 2b 07 87 bd 79 18 96 bb e8 96 01 3e 51 5b 83 bc
       -0.06593164 -0.004580554 0.12655222 -0.016034754
000210 94 50 35 bd 48 b7 aa 3d 4f 74 34 bd 53 a1 e0 3c
       -0.0442663 0.083357394 -0.044056233 0.027420675
000220 6a 8f ce 3c b7 e8 32 bc a3 f4 44 3d f2 b2 c6 bb
       0.02521487 -0.010919741 0.048084866 -0.0060638124
000230 62 0b 44 bd a4 88 75 bc cc 97 e1 3d ef 5a 01 3e
       -0.047862418 -0.014986191 0.11015281 0.12632345
000240 7a b7 a7 bc 6e e7 b8 bd 1a 3d b9 3d 01 ef b9 bd
       -0.02047323 -0.09028517 0.09044857 -0.090787895
000250 38 7c e5 3d f4 b1 d7 3d bb 01 01 bc 3c e1 cd bd
       0.112053335 0.10531989 -0.007873948 -0.10052726
000260 23 f7 82 3d af 18 0a 3e 3e 84 69 3d d8 1b 90 3c
       0.06394794 0.13485979 0.05701088 0.017591402
000270 f2 e8 07 3e a7 dc 20 3d 82 08 1d 3e a8 64 e1 3d
       0.13272455 0.03927293 0.15335277 0.11005527
000280 67 11 98 bd 03 e7 8b bd c8 c9 81 bd 80 09 19 3c
       -0.07425194 -0.06831171 -0.06337315 0.009340644
000290 1b bc 12 3e 1c 6a 19 3e a8 2d 16 3c 71 64 6a 3d
       0.14329569 0.14981884 0.009166159 0.057224695
0002a0 72 ca 44 bd 2a 68 22 bb f7 d3 b3 bd 9f 4a 83 bc
       -0.04804463 -0.0024781325 -0.087806635 -0.016026793
0002b0 ff 6f 88 bd 71 3c 9b bd 81 8a ab bd 2f ff 9a 3d
       -0.066619866 -0.07579888 -0.08376027 0.07568204
0002c0 4d a3 38 bc 09 de 1a 3e f5 66 d1 3d 33 60 85 bc
       -0.011269403 0.15123762 0.102247156 -0.016281223
0002d0 9a f2 04 3e c5 71 ce 3d 9e 50 76 3c 00 32 91 3d
       0.1298317 0.100802936 0.015033869 0.07089615
0002e0 86 68 bf 3d 17 1a 3f bd 0c db ad bd fa fe cf bc
       0.09346108 -0.04665574 -0.084890455 -0.025390137
0002f0 dd 42 01 3e 55 78 76 3d a1 9b 9f 3d 39 99 06 3e
       0.12623163 0.06017335 0.07793356 0.13144387
000300 a9 df 0e 3d 94 3c 98 3c ae 98 a8 3d 8e 6f 13 bd
       0.034881268 0.018583573 0.08232246 -0.03599506
000310 63 ac 18 3e 9b 8c 9c bb 72 b7 d1 bd 78 9b 0a 3d
       0.1490951 -0.0047775037 -0.102400675 0.033839673
000320 80 7c e1 3b 84 06 32 3c 8a 6a 8f bd 1c 7c a0 3d
       0.0068812966 0.010865811 -0.070027426 0.07836172
000330 ef b3 d3 bb c9 99 63 3d e6 20 94 3d 2c 5e 51 3d
       -0.0064606587 0.055566583 0.072328374 0.0511152
000340 e9 9e db 3d 5c 69 b3 3d 86 b1 e8 3d a0 42 ef 3d
       0.10723669 0.0876033 0.11361985 0.116826296
000350 82 d7 4c bc 38 35 91 bd a7 c3 07 3e 44 36 b2 bc
       -0.012502553 -0.07090229 0.13258229 -0.021754391
000360 21 31 f0 3d c8 f7 d6 3d 05 7a 0c bd f7 cb 8f 3d
       0.117281206 0.10496479 -0.034296054 0.07021325
000370 14 7c ae bd 2d 39 c7 3d fb 06 ec 3d 8b d9 84 bd
       -0.0851976 0.09727702 0.11524769 -0.064868055
000380 99 fb 7c 3d d1 1b eb 3d 9f 3a 4c 3d 91 09 ac bd
       0.06176338 0.11479915 0.049860593 -0.08400262
000390 30 74 be 3d 19 b0 b0 bd b5 ab f1 bc 0b 08 8f 3d
       0.09299505 -0.08627338 -0.029500822 0.06983956
0003a0 f4 fb 2b 3d 2c f5 ec 3a 44 ea 5c bb 64 f7 f2 3d
       0.041988328 0.0018078438 -0.003370897 0.11863592
0003b0 54 68 99 3d 0a 97 f4 3d 6a 6a 20 3b 91 55 a0 3d
       0.07490602 0.11942871 0.002447749 0.078288205
0003c0 0b 07 a0 bc 14 31 f3 3d 64 02 cb bd fc 9a 04 3e
       -0.019534608 0.11874595 -0.09912565 0.12949747
0003d0 67 ca ce 3d 98 3f c8 bc d2 8e 07 3e 29 7f e3 3d
       0.10097199 -0.024444386 0.13238075 0.11108238
0003e0 eb c7 15 bd 8e 6b d8 3d 92 00 e1 3d e7 fa 9e bd
       -0.03656761 0.105673894 0.10986437 -0.077626996
0003f0 fe 59 db 3d f8 19 94 bd b7 fc a9 bd 9f 8f 16 3d
       0.10710524 -0.07231516 -0.08300155 0.03675806

linear_1.bias f4 [64]
000000 77 2d 0b 3e de 92 cf 3b 1b c1 1d 3d 46 fd ab bc
       0.13591562 0.0063346466 0.038514238 -0.020994794
000010 51 d3 07 3e d0 fc ba 3d 34 ab 0c bd f1 fc ad bc
       0.13264205 0.091302514 -0.03434296 -0.021238776
000020 fd 1b f8 3c 61 98 62 bd 03 ae 25 3c b0 ea 44 bc
       0.030286783 -0.0553211 0.010112288 -0.0120188445
000030 6d 11 f6 3d 92 06 1e 3d 9f f4 0a 3e f4 3a 24 bd
       0.120150425 0.038580485 0.13569878 -0.040095285
000040 0a 54 26 3b 16 12 f0 3d 31 62 58 bd f2 cb f0 3c
       0.002537968 0.117221996 -0.052828018 0.029394124
000050 1e d9 9b bd 2a aa 39 bd ea e4 64 3d 2f ab 09 3e
       -0.07609771 -0.045328297 0.055882372 0.13444208
000060 76 ff 9a bd 10 47 e4 bc 1e 92 b6 3d f2 05 b3 3d
       -0.075682566 -0.027865916 0.089145884 0.08741368
000070 59 0d ee 3d a5 35 f6 bc a7 d1 11 3d f1 dd b6 3d
       0.116236396 -0.030054877 0.03560033 0.08929051
000080 f4 ad 6c 3d 9d 52 43 3c 45 42 96 3c 36 16 eb 3d
       0.057783082 0.011921552 0.018342147 0.11478846
000090 1b e8 83 bc 93 a4 0d be 4b bb b7 3d 8d 4f f2 3d
       -0.016101887 -0.13832311 0.0897127 0.11831579
0000a0 4b 82 5e bc 4b 01 9b bd 6c 83 8f bc 1c 88 85 bd
       -0.013580869 -0.07568606 -0.017518722 -0.065201014
0000b0 33 61 02 be 68 1e bf 3c 01 16 87 bc 98 f6 ec 3c
       -0.12732391 0.023329929 -0.016489984 0.028926179
0000c0 35 a9 aa 3d d5 7d b1 bc 0a 80 b3 bc 63 81 08 bd
       0.08333055 -0.021666447 -0.02191164 -0.033326518
0000d0 54 c4 2c 3d b8 e5 e5 3d 7a 93 77 3c c5 f5 fb 3d
       0.04217942 0.11225456 0.015110845 0.12302736
0000e0 1f 19 71 3d ef 9f 08 3c 8c 70 be 3d 42 79 d5 bd
       0.058861848 0.008338912 0.0929881 -0.10423519
0000f0 cb 23 a4 bc be 5f 6b 3d 2c 56 0b bd fe 0d c3 3d
       -0.020036599 0.057464354 -0.034017727 0.09524153

linear_2.weight f4 [32, 64]
000000 80 43 cd 3c 8a 84 8f bd b0 8d 15 3d 0c a8 7a bd
       0.0250566 -0.07007702 0.036512077 -0.06119542
000010 10 f3 ce bc 50 31 98 bc 40 b3 bc bd ee f4 99 bd
       -0.025262386 -0.018578202 -0.09213877 -0.0751742
000020 80 ba 42 bd 80 66 44 bd ea d7 ad 3d e0 10 76 3d
       -0.04754114 -0.047949314 0.08488448 0.060074687
000030 c0 a2 1b 3d 48 c8 b9 bc 8c 5f 56 3d c6 a1 e0 3d
       0.037997007 -0.02267851 0.052337214 0.10968356
000040 6c 2c 85 3d 3e dc fa bd 0a 6a ce 3d 3e 31 ee 3d
       0.065026134 -0.12249039 0.10078819 0.11630486
000050 20 f4 ae 3c e8 04 f1 3c 88 94 20 bd 34 d1 7c bd
       0.021356642 0.029421285 -0.03920415 -0.06172295
000060 98 d2 88 3d b8 cb d2 3d b2 2f bc 3d b8 79 52 3d
       0.066807926 0.102927625 0.09188785 0.05138561
000070 40 2c 5a bb 26 69 ba 3d 40 71 43 3d 62 d3 b2 bd
       -0.0033290535 0.09102087 0.047715425 -0.08731724
000080 10 71 0f bd ce 71 81 bd 98 e6 bf 3d e0 09 ae bc
       -0.035019934 -0.06320535 0.09370154 -0.021244943
000090 9a ea 9d bd 58 7e c5 bd 48 cb b6 bc 96 fd c1 bd
       -0.07710762 -0.09643239 -0.022313729 -0.09472196
0000a0 46 53 b4 bd 5e 55 8f bd 7c 53 41 bd 00 cf f8 bc
       -0.08804946 -0.069987044 -0.047198758 -0.030372143
0000b0 48 f1 20 bd 60 47 86 bb ce 82 bc bd 60 89 42 3d
       -0.039292604 -0.004097864 -0.092046365 0.047494292
0000c0 54 40 64 bd 10 6e 21 3c b6 7b ed bd f8 fd cc bd
       -0.05572541 0.009852901 -0.115958616 -0.10009378
0000d0 00 00 08 ba bc 55 89 bd 40 08 9a bc 5c 84 0f bd
       -0.0005187988 -0.06705806 -0.018802762 -0.035038337
0000e0 c0 be ad 3b 18 f3 7c 3d c0 bc 8f 3c 98 ae 13 3d
       0.00530228 0.06175527 0.017546058 0.036055177
0000f0 a8 8b fb bd 24 78 e1 3d 20 dc 52 bc 64 2e a7 bd
       -0.12282497 0.11009243 -0.012869865 -0.08163145
000100 df ab 29 bd cc 16 41 bd d0 59 ee bd d3 0e d5 3b
       -0.041423675 -0.04714088 -0.11638224 0.0065020113
000110 23 e7 3e 3d 23 14 0a be 16 cf 30 bd f7 85 37 3c
       0.046607148 -0.13484244 -0.043166243 0.011201373
000120 33 95 fd bd d0 d6 08 be e1 6d 08 be bc 29 d4 3d
       -0.12381973 -0.13363194 -0.13323165 0.10359523
000130 22 cb 85 3d a7 06 9d 3d 00 c5 6b bd 15 53 d0 3d
       0.06532885 0.076672845 -0.05756092 0.10172097
000140 13 5b c1 3d 9f 63 8c 3d 6c ea 0a be a9 9d 88 3d
       0.09441199 0.06854939 -0.13565987 0.06670696
000150 65 56 ac 3d 30 da 08 bd d6 83 03 be a9 aa dc 3c
       0.08414916 -0.033411205 -0.1284326 0.026936846
000160 b4 85 67 bd 0c f6 3b 3d ed b3 8e 3d b5 72 7d bc
       -0.056523994 0.045888945 0.06967912 -0.015469243
000170 04 6c 76 3b b7 fb d0 bd a8 9c 88 3d 12 9a 96 bd
       0.0037601003 -0.10204261 0.06670505 -0.07353605
000180 12 99 8e 3d fe b3 7c 3d d9 9f d8 bd 2e 0f d6 3d
       0.069627896 0.06169509 -0.105773635 0.10452114
000190 ed a2 2f bc 16 1a c3 3d 82 6a 85 bb db 55 6b bd
       -0.010719997 0.0952646 -0.0040715346 -0.057454925
0001a0 b6 fc ac bd cf 52 94 3d be 56 5e bd 11 b5 75 3d
       -0.08446638 0.07242357 -0.054281943 0.05998713
0001b0 62 4a a8 3d 58 f7 19 bd 33 62 1e 3d e5 14 45 3d
       0.082173124 -0.0375894 0.03866787 0.04811563
0001c0 ef 3b cd 3d 8f e6 04 be 6f f4 86 3c a7 13 b1 3d
       0.10021197 -0.12978576 0.016473977 0.086463265
0001d0 75 f2 99 bc e6 f3 01 bd 3e 24 13 3d 05 8e b7 3d
       -0.01879237 -0.03172674 0.035923235 0.08962635
0001e0 96 2f 52 3d 1d f6 7f 3d aa 4f b8 3d 19 be e1 3d
       0.051314913 0.06249057 0.0899957 0.110225864
0001f0 58 8c 85 3d ab 96 73 3c 05 2b 0e bd 63 1c 9d 3d
       0.06520909 0.014867465 -0.034708995 0.0767143
000200 49 12 79 3d 94 73 5f bd 04 97 f1 3d f7 8f de 3c
       0.060808454 -0.054553583 0.11796382 0.027168257
000210 1f 1f 78 bd f5 fb e3 3d ba 3b 31 3d c3 74 b8 bd
       -0.060576554 0.11132041 0.04326985 -0.090066455
000220 18 3b 1e 3d 07 d7 f1 bd e4 e2 fb bd c8 6d b4 3d
       0.038630575 -0.11808591 -0.12299135 0.088100016
000230 c5 04 bd bd 69 9e 27 3d 18 5b 00 be 18 e8 dd 3d
       -0.09229425 0.040922556 -0.1253475 0.10835284
000240 b7 47 02 bd 2e 0f 79 bc 00 f0 85 bd f2 e7 db 3c
       -0.031806674 -0.015201373 -0.06539917 0.026843999
000250 00 88 c2 bb 1c 71 5d 3d a4 86 a5 3c f6 d0 3b bd
       -0.0059366226 0.054062948 0.020205803 -0.045853578
000260 d2 67 f7 3d e0 0b f5 bd 15 ff eb 3c c4 49 7a bd
       0.12080349 -0.119651556 0.028808156 -0.061105505
000270 b2 87 d0 3b bc da ab bd 00 ae ac 3c 07 75 4d bb
       0.0063638324 -0.0839133 0.021079063 -0.0031350271
000280 58 1e 2d 3d 95 ff ed 3d 0e 41 97 3d c0 01 68 3c
       0.042265266 0.11621014 0.07385455 0.0141605735
000290 88 24 1b 3d f4 5f ed 3c fe e2 06 3d 36 29 02 be
       0.037876636 0.028976418 0.03293132 -0.12711033
0002a0 c8 f2 2b 3d ee eb 82 3d da 5c 28 3d b8 91 b7 3d
       0.04197958 0.06392656 0.041104175 0.089633405
0002b0 52 ab a0 bd a0 6a 0e 3d b6 3e 23 bb 0c cd 36 bd
       -0.07845177 0.034769654 -0.0024909205 -0.04462914
0002c0 af 79 23 bd 5c 23 bd bc 7b b7 17 3c 55 6e 25 3c
       -0.03991097 -0.02308815 0.009260054 0.010097106
0002d0 8c 94 c1 3d a0 c7 75 bc a4 b4 dc 3d 82 ab 82 bc
       0.09452161 -0.015001208 0.10776642 -0.015950922
0002e0 47 31 5c bd 6d 5a 31 bc b5 7f c2 3d a6 93 d0 3d
       -0.053757932 -0.010824782 0.094970144 0.10184412
0002f0 eb 63 af bd 8d 2c 2e 3d 80 43 d8 bd 09 8c 40 3d
       -0.0856398 0.042522956 -0.105597496 0.047008548
000300 fc 50 14 bc 91 19 98 bd 4c 07 93 bb 6a f9 2d 3c
       -0.009052511 -0.074267514 -0.004486954 0.010618547
000310 3d d0 d0 bd 23 eb 72 bd 9c 98 98 3d 61 ab 75 bd
       -0.10195968 -0.059306275 0.07450983 -0.059977893
000320 50 4d 61 bd c3 3d 8b 3d 9e c6 58 bd 21 9c e3 bd
       -0.05500537 0.067988895 -0.05292379 -0.111137636
000330 13 f4 e3 bd 70 71 51 3c e7 ab 83 bd 25 de c7 bd
       -0.11130538 0.012783393 -0.06429272 -0.097591676
000340 e6 68 c6 bc 26 d7 8c bd 4b 81 07 be 39 13 d5 3c
       -0.024219941 -0.06876974 -0.13232915 0.026010143
000350 25 c2 51 3d ac 65 b7 3d ac fb 75 bd 2f 4c b9 bd
       0.05121054 0.08954939 -0.060054466 -0.09047734
000360 61 0c 85 bd 30 b5 6c bc 33 6f ae bc 18 49 2d 3d
       -0.06496502 -0.014447495 -0.021293258 0.042306036
000370 9a 61 94 3d 9c b0 8c bd c7 21 f0 bd 0d 76 c5 bd
       0.072451785 -0.06869623 -0.117251925 -0.09641657
000380 06 cb 90 3d 4b 39 91 3d af fd ba bc 59 52 be bc
       0.07069974 0.07091006 -0.022826044 -0.023232626
000390 5c 15 46 3c 5a 5b 84 3d e5 92 e9 bc 11 31 c3 3d
       0.012090053 0.064627364 -0.028512428 0.09530843
0003a0 f6 b7 f1 bc 6c 5a c9 3c ff fa b2 3d ca 0c 8b 3d
       -0.029506665 0.02457925 0.0873928 0.06789549
0003b0 0f cc 0b bd de 36 c0 bd 80 1d 07 3d db 41 c9 bd
       -0.034130152 -0.09385465 0.032987118 -0.09827014
0003c0 e2 5c 37 3c 8b 9b e6 3d c8 41 bd 3d 19 e0 b0 bd
       0.011191579 0.11260136 0.092410624 -0.08636493
0003d0 dd b7 71 3d 7c a0 ae 3b 78 21 e5 3d 17 e4 6a bd
       0.059013236 0.00532919 0.11188024 -0.05734643
0003e0 9b 64 1a bd e3 14 86 3d be f4 01 3d b8 d4 82 bd
       -0.0376936 0.065469526 0.031727545 -0.06388229
0003f0 f7 03 95 bd 17 05 c1 bd 77 b7 c0 3d 11 4e c2 bd
       -0.07276147 -0.09424799 0.09409993 -0.09487546

linear_2.bias f4 [32]
000000 b0 a7 58 bc 9f b2 15 bc c6 b9 1f bd 7d cf 68 3d
       -0.013223574 -0.009136825 -0.038995527 0.0568385
000010 d8 5d 2c bc 51 c8 ba 3d 3c 2d a7 3d aa f5 03 3d
       -0.010520421 0.091202386 0.08162925 0.032216705
000020 b1 bf c3 3d 26 48 7d 3d a3 2a b7 3c 52 9d 71 3d
       0.095580466 0.061836384 0.022359198 0.058987923
000030 10 1b f0 3d 18 0b 19 3e fc 86 cc 3d 22 25 ac bd
       0.11723912 0.14945638 0.09986684 -0.0840552
000040 76 32 0e 3e 68 fc 4b 3d f4 e6 1d 3c bd 12 96 bd
       0.13886437 0.04980126 0.009637583 -0.07327793
000050 c2 d9 da 3b cc ce f8 bd ac 19 c1 3d 47 7a 43 3d
       0.006678791 -0.121488184 0.09428725 0.047724035
000060 43 1c b3 bd 04 ba c7 3c d6 9a 72 3c a6 85 ab bd
       -0.08745625 0.024380691 0.014807424 -0.08375101
000070 7c 63 c5 bc 6c 45 16 3e 96 16 8d bb 77 07 ff bd
       -0.02409529 0.1467492 -0.004305671 -0.12452596

linear_3.weight f4 [1, 32]
000000 86 af 02 3e 78 5b a6 bc af 3a e4 bd 32 36 18 be
       0.1276227 -0.020307288 -0.111440055 -0.14864424
000010 15 e6 24 be 33 98 23 3e 0e ab 10 be c9 93 bf bd
       -0.16103394 0.15976028 -0.14127752 -0.0935436
000020 84 3a 1f bc 78 da 3a 3e 3b 25 05 3e 2f 0d 00 3e
       -0.009718541 0.18247402 0.13002484 0.12505029
000030 23 8a 39 3d e3 41 18 3e dc 07 2a be 2c 5b ef bd
       0.045297753 0.14868884 -0.1660456 -0.116873115
000040 55 d1 0c 3e 22 b7 91 bd 31 21 1d 3e e6 8b 48 3d
       0.13751729 -0.07115008 0.15344693 0.048961543
000050 09 03 26 be 33 9a dc bd ae 98 02 3e 00 84 45 3e
       -0.16212095 -0.10771599 0.12753555 0.19288635
000060 27 9c 99 bd 7f fe cc 3d b8 0a 81 bd 91 69 8a bc
       -0.07500487 0.10009479 -0.063008726 -0.016896041
000070 57 ad a8 bd f1 1f c3 3d 61 8b 51 bd 2d 5f 21 be
       -0.08236187 0.09527577 -0.051158313 -0.15758963
