ndp/weights/pretrain-5.pt (torch, 68847 bytes, 5 tensors)

linear_1.weight f4 [100, 125]
0.060436994 0.027727967 0.08145788 0.049333077 0.09301673 -0.0033844416 0.004110122 -0.06497145
0.025450576 -0.024708796 -0.059498508 0.0538794 0.022577284 0.07001755 0.03684961 -0.02700162
-0.024990855 0.0038765138 0.05846307 0.08752273 0.038715784 -0.059163123 0.042919144 -0.07081402
0.026523856 -0.05847498 0.057032235 0.007439251 0.07146931 -0.018743847 0.072727494 0.06473795
0.004870783 -0.04515629 0.010720513 -0.065953314 -0.020002589 -0.06454219 0.0004388213 -0.011866775
0.014689264 -0.030480927 0.07538308 -0.041448284 0.023147736 0.06850245 -0.033433445 -0.03228814
-0.010898329 0.03413182 0.05983071 -0.06529045 -0.014822567 -0.029779507 0.05135714 0.03241868
0.048023336 0.021480123 0.0024432526 0.04062016 0.032745957 -0.07089726 -0.06876632 0.079286315
-0.01896021 0.03739949 -0.03617018 0.022882571 -0.0052393177 0.08992755 -0.045271307 0.09921669
-0.07418372 0.059099734 0.0905757 -0.027816888 -0.0380647 0.08519633 -0.056762453 -0.05459406
0.04294463 0.10054363 0.024166187 -0.0044345697 0.051847342 -0.03974844 0.0604088 -0.0013636604
0.088673875 -0.02119106 0.08685122 -0.043080125 0.07938196 0.09038718 0.024438769 0.09177825
-0.028308427 -0.064864315 0.017998856 -0.016674701 0.09947084 -0.04877492 0.051248305 -0.0338695
0.06866798 0.068471365 -0.058333673 -0.0021107784 0.035557963 -0.050292235 0.0014041727 -0.03486521
0.07898518 -0.060060475 -0.02166918 0.09585928 0.026593948 0.09813077 -0.075837635 0.019736411
-0.07316825 -0.02403209 -0.076457895 -0.068710506 0.056685854 -0.09065389 0.057280146 -0.065340064
-0.04651235 0.009925223 0.018001847 0.03378916 0.047505826 -0.05821468 0.0760901 -0.08540208
0.051410686 0.052741043 0.01107691 -0.08392267 0.072696805 -0.013531769 -0.03376168 0.051426277
0.032086685 -0.042137202 0.06444832 0.06837603 0.01502307 -0.08873233 0.03807146 -0.07765998
0.041726645 -0.014158694 0.070286304 0.0646537 -0.06412775 0.014865942 -0.016214805 -0.040128764
0.014504177 0.0354053 -0.014403791 0.038597826 -0.02410956 -0.027184715 -0.035094656 -0.021922749
0.06563799 0.06336812 -0.038622268 -0.027915364 0.05111338 -0.09208617 -0.017311927 -0.013727964
0.049685825 0.050341953 -0.07610829 0.025997417 -0.09659837 -0.008634299 0.01308505 0.0729836
-0.038590692 0.06617407 0.00074740977 0.07165787 0.011100909 -0.052185174 -0.062882245 -0.09705971
0.03442791 -0.012089185 0.047791377 -0.026379982 -0.03652729 -0.039886467 -0.09034531 0.021105979
0.07485216 -0.074143775 -0.081484795 0.023314297 -0.07839865 0.012387703 0.058952056 -0.01308904
-0.0022904372 -0.02387948 0.055020936 0.019637134 -0.08591025 -0.059608486 -0.005388201 0.07314844
0.06619012 0.035658717 0.05616408 0.0043721655 0.048750665 0.031454932 -0.07234333 0.05499282
-0.06695417 -0.053107645 -0.038349394 -0.013855201 -0.06356993 0.04448081 0.04422668 0.0019156361
0.060823094 0.003442838 0.029440427 -0.07614245 -0.071495526 0.06958476 -0.01007251 -0.06409499
-0.044274397 -0.0753455 -0.08383331 -0.01748973 0.031126535 -0.025748018 0.05582762 -0.08007325
-0.012084575 0.047376573 -0.03964177 -0.0415235 0.085404664 -0.011231175 0.0019522698 0.07628784
00000000: c88c 773d c325 e33c 64d3 a63d 7b11 4a3d
00000010: 8e7f be3d 82cd 5dbb 34ae 863b c00f 85bd
00000020: ba7d d03c 1a6a cabc b5b4 73bd a5b0 5c3d
00000030: fff3 b83c 5c65 8f3d 9eef 163d 8032 ddbc
00000040: 9fb9 ccbc 1c0d 7e3b f976 6f3d 1e3f b33d
00000050: 7194 1e3d 0855 72bd fccb 2f3d f106 91bd
00000060: 8f48 d93c 7683 6fbd a29a 693d f6c4 f33b
00000070: 805e 923d b28c 99bc 27f2 943d 5595 843d
00000080: 179b 9f3b cdf5 38bd 17a5 2f3c 8812 87bd
00000090: 78dc a3bc b22e 84bd 9911 e639 dd6c 42bc
000000a0: 3dab 703c 23b3 f9bc 7262 9a3d adc5 29bd
000000b0: 52a0 bd3c 034b 8c3d 82f1 08bd 9240 04bd
000000c0: e88e 32bc cfcd 0b3d 0c11 753d 00b7 85bd
000000d0: 5ada 72bc 27f4 f3bc dd5b 523d 73c9 043d
000000e0: 1eb4 443d 15f7 af3c fa1e 203b 5361 263d
000000f0: a020 063d 9532 91bd 5bd5 8cbd dd60 a23d
00000100: 7152 9bbc 3530 193d 2f27 14bd 3b74 bb3c
00000110: 95ae abbb ef2b b83d 686e 39bd 1f32 cb3d
00000120: a2ed 97bd 9012 723d c17f b93d 3ee0 e3bc
00000130: bbe9 1bbd 6a7b ae3d bf7f 68bd 059e 5fbd
00000140: b5e6 2f3d d2e9 cd3d 2bf8 c53c de4f 91bb
00000150: e15d 543d 43cf 22bd 386f 773d dabc b2ba
00000160: a69a b53d e098 adbc 0ddf b13d c974 30bd
00000170: 0293 a23d ea1c b93d d033 c83c 3cf6 bb3d
00000180: 13e7 e7bc 95d7 84bd 5672 933c 6299 88bc
00000190: 5eb7 cb3d 36c8 47bd bee9 513d bfba 0abd
000001a0: cca1 8c3d b73a 8c3d 4aef 6ebd fc54 0abb
000001b0: 3aa5 113d 3bff 4dbd 380c b83a d3ce 0ebd
000001c0: fbc2 a13d f901 76bd 9083 b1bc df51 c43d
000001d0: 8ddb d93c c9f8 c83d c350 9bbd 41ae a13c
000001e0: 3cd9 95bd f2de c4bc f595 9cbd 18b8 8cbd
000001f0: 6d2f 683d bfa8 b9bd 969e 6a3d 03d1 85bd
00000200: bc83 3ebd 679d 223c 9c78 933c 8166 0a3d
00000210: 7895 423d 8472 6ebd 20d5 9b3d 49e7 aebd
00000220: 0394 523d fe06 583d ee7b 353c a6df abbd
00000230: 10e2 943d 5ab4 5dbc b049 0abd 5ca4 523d
00000240: 546d 033d 0f98 2cbd 7bfd 833d bb08 8c3d
00000250: 5323 763c 4cb9 b5bd d2f0 1b3d 320c 9fbd
00000260: 8fe9 2a3d def9 67bc 44f2 8f3d 2969 843d
00000270: 6955 83bd 4890 733c e9d4 84bc 0f5e 24bd
00000280: eda2 6d3c 2605 113d e1fd 6bbc c118 1e3d
00000290: 6981 c5bc 7bb2 debc 6abf 0fbd 5697 b3bc
000002a0: 366d 863d 25c7 813d 6232 1ebd c3ae e4bc
000002b0: 435c 513d ad97 bcbd bed1 8dbc 41eb 60bc
000002c0: 5d83 4b3d 5d33 4e3d aade 9bbd 89f8 d43c
000002d0: 5ed5 c5bd e076 0dbc ad62 563c 6d78 953d
000002e0: 4611 1ebd 4586 873d d2ed 433a 5dc1 923d
000002f0: 96e0 353c 1fc0 55bd 68c8 80bd 3ec7 c6bd
00000300: 4804 0d3d b811 46bc e4c0 433d d51a d8bc
00000310: a49d 15bd fe5f 23bd f606 b9bd 72e6 ac3c
00000320: 174c 993d b1d8 97bd 80e1 a6bd a0fd be3c
00000330: 798f a0bd cbf5 4a3c b677 713d 6a73 56bc
00000340: 291b 16bb e69e c3bc a25d 613d 0ede a03c
00000350: b7f1 afbd 0728 74bd 828f b0bb d9ce 953d
00000360: b08e 873d e00e 123d 4e0c 663d 6244 8f3b
00000370: c7ae 473d e3d6 003d bd28 94bd 2740 613d
00000380: 451f 89bd 6787 59bd 4114 1dbd ed00 63bc
00000390: f430 82bd 8331 363d 0927 353d 1516 fb3a
000003a0: a321 793d 3da1 613b 0d2d f13c 93f0 9bbd
000003b0: 3f6c 92bd 7482 8e3d 2b07 25bc 3c44 83bd
000003c0: 1259 35bd be4e 9abd ccb0 abbd 9f46 8fbc
000003d0: 13fd fe3c 82ed d2bc 81ab 643d 72fd a3bd
000003e0: 62fe 45bc f00d 423d 695f 22bd 8c14 2abd
000003f0: a4e8 ae3d f602 38bc 4ee3 ff3a cd3c 9c3d

linear_1.bias f4 [100]
0.012411123 -0.090053804 0.07616371 -0.052482083 -0.0073740515 0.050988656 -0.0011104514 0.04024664
-0.03517893 -0.06854881 0.075788625 -0.047241803 -0.03474933 -0.061431095 -0.0055780495 0.016992584
0.08949905 -0.024166944 0.046083774 -0.037984896 -0.008131361 -0.012983155 0.010160979 -0.05485134
0.08514102 0.07669746 0.037443493 -0.029556423 -0.07100901 -0.014218844 -0.05844318 -0.04175187
-0.022822121 -0.040176913 0.08246414 -0.0045018704 0.047661945 -0.014242052 0.06409999 -0.04542383
-0.091041945 -0.024228746 -0.072662346 -0.03158348 -0.045148402 -0.041444995 0.062183235 0.093923725
0.05866461 0.075232185 -0.04345419 0.076123856 -0.049237512 -0.06805295 -0.062770605 0.05565901
-0.02724647 -0.06278198 -0.06255724 0.06737024 -0.03965513 0.07347824 -0.065694146 0.104881085
-0.013429185 0.009156311 0.032038625 0.047074232 0.042287365 -0.047088187 -0.028080955 0.066200785
0.01943467 0.073389344 0.06072589 -0.02648427 0.046364754 0.015446867 0.07316155 0.05034902
0.04534072 0.0515735 0.090628035 0.04062314 -0.045656428 0.11201561 0.014362522 -0.040640146
0.09161113 -0.048449203 0.02437675 -0.027683362 0.06753627 0.074755855 0.018306708 -0.01982838
-0.07613643 0.051509414 0.016048972 -0.021216806
00000000: 0658 4b3c 216e b8bd b8fb 9b3d 74f7 56bd
00000010: 07a2 f1bb 7bd9 503d 918c 91ba a9d9 243d
00000020: c817 10bd 5263 8cbd 1137 9b3d 9f80 41bd
00000030: 5055 0ebd 2c9f 7bbd 12c8 b6bb 0834 8b3c
00000040: 474b b73d c1f9 c5bc 57c2 3c3d 0d96 1bbd
00000050: 6639 05bc 4db7 54bc 3c7a 263c ccab 60bd
00000060: 6a5e ae3d 8f13 9d3d 595e 193d 5020 f2bc
00000070: 2c6d 91bd 27f6 68bc 1e62 6fbd 0204 2bbd
00000080: 75f5 babc 8c90 24bd f6e2 a83d 6d84 93bb
00000090: 2c39 433d 7f57 69bc db46 833d 570e 3abd
000000a0: 3374 babd 5d7b c6bc ffcf 94bd ae5d 01bd
000000b0: 88ed 38bd 3ac2 29bd d9b3 7e3d 155b c03d
000000c0: 4d4a 703d 5513 9a3d 05fd 31bd d3e6 9b3d
000000d0: 46ad 49bd 585f 8bbd e08d 80bd b4fa 633d
000000e0: fd33 dfbc d793 80bd 031e 80bd 69f9 893d
000000f0: 6b6d 22bd c27b 963d a78a 86bd e5cb d63d
00000100: 1606 5cbc 5a04 163c ef3a 033d e9d0 403d
00000110: 8435 2d3d 8bdf 40bd 080a e6bc 4794 873d
00000120: 7535 9f3c 274d 963d b6bb 783d 8af5 d8bc
00000130: f8e8 3d3d db14 7d3c b9d5 953d c63a 4e3d
00000140: 31b7 393d bc3e 533d 319b b93d 7364 263d
00000150: 3c02 3bbd 7168 e53d c950 6b3c 4876 26bd
00000160: 9e9e bb3d ac72 46bd c0b1 c73c 38c8 e2bc
00000170: 7550 8a3d 9919 993d f3f7 953c 206f a2bc
00000180: 6bed 9bbd 89fb 523d 2279 833c dece adbc

linear_2.weight f4 [40, 100]
-0.047433242 -0.002434808 0.05025109 0.002141203 -0.004331316 0.01993412 0.01865487 0.08925564
-0.032818597 -0.045991257 -0.022422107 -0.046229895 0.060160983 -0.043304272 0.0068059135 -0.054559514
-0.035362396 -0.010481891 0.09715502 0.026990553 0.0745529 0.053546894 -0.04006268 -0.008631703
0.0008184697 0.112875484 -0.008985968 -0.032982856 0.036695387 0.12005724 0.08336244 0.053053454
0.032666408 -0.0680807 -0.007678039 -0.06200074 0.004001925 -0.02717239 0.08946938 0.09240947
-0.030961487 0.06975509 -0.023393374 0.03596037 -0.04248332 0.0983289 0.019616872 -0.008046962
0.0073360526 0.042414602 0.12116082 -0.009457156 0.11218243 0.053330768 -0.010973254 0.015121774
0.07949462 0.041663248 0.03759857 0.06022067 -0.04851737 -0.058995154 0.063518584 0.06392381
-0.052161954 -0.059059177 -0.0823629 -0.0563487 0.09747563 0.0071448716 -0.006064951 -0.081255205
-0.036334462 -0.041583 -0.004339364 -0.010884889 -0.07914617 -0.03646546 -0.052419197 0.12224439
0.02938077 -0.03833018 -0.06380733 -0.028511843 0.07881333 0.07743397 0.040746436 0.019044954
0.116310425 -0.06782599 0.10809123 0.11726159 0.009332698 0.09458669 0.051157948 0.06637314
0.013310156 0.011057198 0.08776655 -0.04421006 0.06937712 0.014404913 -0.08583954 0.07855792
0.06178482 0.07861623 0.018323159 0.022249786 0.024949688 0.054178067 0.024390996 0.07899753
-0.019456867 -0.020928968 -0.03164319 -0.008840974 0.05490401 -0.087853886 0.09379791 0.03160177
0.049183916 -0.018928684 -0.049568746 -0.025841258 -0.08159597 -0.027474007 -0.0010644024 0.041580945
-0.07649238 0.011284685 0.015450263 -0.047417134 0.08845989 0.0876703 -0.041773453 -0.04758513
0.08804219 0.08938725 0.015458553 -0.061982892 -0.005754381 0.05047839 -0.070862435 0.019652732
-0.009956615 -0.02124857 -0.033117134 -0.026887933 0.027438171 0.07375665 -0.054010414 0.0734908
0.021082254 -0.01684618 -0.011632107 -0.07149282 0.040165145 -0.0064851632 0.0633363 0.028245157
-0.10122955 -0.016398696 0.069163464 -0.08685623 0.07813312 -0.08041493 0.08563265 0.042346135
-0.103699796 0.025001122 -0.029723348 0.01661437 -0.087498866 0.053888272 0.058408275 -0.06401341
0.05229429 -0.006519025 -0.0057161343 -0.076274596 -0.090026915 0.017079806 -0.01280999 0.054862574
-0.0026427875 -0.08482416 0.04248389 6.6337125e-05 0.007306117 0.015239407 0.016558966 0.015269414
-0.08024114 0.06616894 -0.07566828 -0.08682337 0.090648115 0.028126609 0.07460001 -0.08672265
-0.029500958 -0.053366486 -0.10316339 0.064977564 -0.053867042 -0.046593897 -0.02110231 0.037597705
0.029024744 -0.07710369 0.08760182 0.07484504 -0.106102064 -0.08132996 -0.062082022 0.088798985
-0.06853345 -0.03129202 0.051362146 -0.066100985 0.09138185 -0.009073842 -0.061996516 0.06967993
0.013241967 -0.039380312 0.018173281 -0.013044968 0.052838326 -0.06575777 -0.09022788 -0.04751518
0.06376223 -0.09538508 -0.04877172 0.0010427387 0.074646056 0.038296256 -0.08701986 -0.038780205
0.0018042694 0.08812835 -0.0020066034 -0.058992326 -0.0044589555 0.071648516 -0.06830887 -0.015730109
0.010743082 0.05361128 -0.08382637 -0.021186076 0.084731676 0.03324797 -0.028419692 0.0005625441
00000000: 5c49 42bd 4d91 1fbb 16d4 4d3d 6d53 0c3b
00000010: b6ed 8dbb e14c a33c 19d2 983c a9cb b63d
00000020: cb6c 06bd 5461 3cbd 91ae b7bc 8f5b 3dbd
00000030: 5d6b 763d d25f 31bd 2404 df3b cc79 5fbd
00000040: 29d8 10bd 3dbc 2bbc 36f9 c63d 4b1b dd3c
00000050: 31af 983d fd53 5b3d c418 24bd fd6b 0dbc
00000060: 928e 563a 432b e73d e239 13bc 0819 07bd
00000070: e74d 163d 92e0 f53d edb9 aa3d 944e 593d
00000080: 36cd 053d e56d 8bbd 0f98 fbbb 7df4 7dbd
00000090: 9422 833b a298 debc b93b b73d 2d41 bd3d
000000a0: f2a2 fdbc c2db 8e3d 76a3 bfbc 2e4b 133d
000000b0: fd02 2ebd aa60 c93d 90b3 a03c 68d7 03bc
000000c0: 4563 f03b efba 2d3d 2a23 f83d 30f2 1abc
000000d0: e7bf e53d 5d71 5a3d 2ac9 33bc 51c1 773c
000000e0: 13ce a23d 15a7 2a3d f500 1a3d f3a9 763d
000000f0: 26ba 46bd e7a4 71bd 0816 823d 7dea 823d
00000100: c6a7 55bd 09e8 71bd e1ad a8bd e5cd 66bd
00000110: 4ea1 c73d 871f ea3b 7fbc c6bb 2169 a6bd
00000120: 72d3 14bd f052 2abd 3931 8ebb 8956 32bc
00000130: 6317 a2bd ce5c 15bd 83b5 56bd 445b fa3d
00000140: f1af f03c 1b00 1dbd 6bad 82bd ab91 e9bc
00000150: e268 a13d b495 9e3d bce5 263d 2a04 9c3c
00000160: 2934 ee3d 5ae8 8abd ef5e dd3d d826 f03d
00000170: 2ce8 183c abb6 c13d ff8a 513d a4ee 873d
00000180: d712 5a3c 4029 353c f3be b33d 9c15 35bd
00000190: 9715 8e3d 9602 6c3c a4cc afbd fae2 a03d
000001a0: 1412 7d3d 8c01 a13d 731a 963c 2f45 b63c
000001b0: 4a63 cc3c d2e9 5d3d a0cf c73c 75c9 a13d
000001c0: 0264 9fbc 3a73 abbc 4a9c 01bd bcd9 10bc
000001d0: 07e3 603d bdec b3bd 1e19 c03d dc70 013d
000001e0: 1375 493d 5410 9bbc 9908 4bbd 0cb1 d3bc
000001f0: ca1b a7bd 2b11 e1bc 6b83 8bba c850 2a3d
00000200: 09a8 9cbd 66e3 383c 1a23 7d3c 7838 42bd
00000210: 752a b53d 7c8c b33d a41a 2bbd a0e8 42bd
00000220: 774f b43d aa10 b73d df45 7d3c c6e1 7dbd
00000230: 3f8f bcbb 6ec2 4e3d 5320 91bd c4fe a03c
00000240: 1221 23bc 7b11 aebc d5a5 07bd 1544 dcbc
00000250: 04c6 e03c ba0d 973d 063a 5dbd 5882 963d
00000260: b1b4 ac3c 0001 8abc 9894 3ebc d46a 92bd
00000270: 3584 243d 7e81 d4bb 76b6 813d 6362 e73c
00000280: 7051 cfbd 8f56 86bc 93a5 8d3d aee1 b1bd
00000290: 4204 a03d 95b0 a4bd 2c60 af3d 2473 2d3d
000002a0: 8f60 d4bd 27cf cc3c 617e f3bc dc1a 883c
000002b0: 9b32 b3bd f3b9 5c3d 843d 6f3d 7619 83bd
000002c0: 8a32 563d 8c9d d5bb 694e bbbb db35 9cbd
000002d0: 0860 b8bd f3ea 8b3c fee0 51bc 94b7 603d
000002e0: 9e32 2dbb 4ab8 adbd 9603 2e3d 791e 8b38
000002f0: 2768 ef3b b5ae 793c aba6 873c 902c 7a3c
00000300: 7855 a4bd 9583 873d f9f7 9abd 73d0 b1bd
00000310: b8a5 b93d c669 e63c e4c7 983d a59b b1bd
00000320: feab f1bc d196 5abd 5447 d3bd f512 853d
00000330: b0a3 5cbd 3ed9 3ebd c0de acbc 0d00 1a3d
00000340: 4dc5 ed3c 8ae8 9dbd 9568 b33d 5b48 993d
00000350: 0a4c d9bd 5290 a6bd b849 7ebd 3edc b53d
00000360: 445b 8cbd 102c 00bd 1d61 523d f45f 87bd
00000370: 6826 bb3d 74aa 14bc 0ff0 7dbd 5ab4 8e3d
00000380: d6f4 583c 404d 21bd 22e0 943c 90ba 55bc
00000390: 006d 583d 02ac 86bd 65c9 b8bd 479f 42bd
000003a0: c695 823d 4159 c3bd dbc4 47bd 81ac 883a
000003b0: 08e0 983d 89dc 1c3d 7837 b2bd fed7 1ebd
000003c0: 3c7d ec3a a37c b43d 3881 03bb f0a1 71bd
000003d0: 6e1c 92bb 75bc 923d 85e5 8bbd 6edc 80bc
000003e0: c003 303c 8097 5b3d 29ad abbd 6c8e adbc
000003f0: cd87 ad3d 062f 083d 6ad0 e8bc b277 133a

linear_2.bias f4 [40]
-0.071969256 0.083603494 0.0052065793 -0.09801782 -0.016922744 0.030229524 0.098822124 0.0987968
0.0616764 0.009835801 -0.027391028 -0.010857379 0.036398806 0.017325047 -0.039944038 0.09063797
-0.0019544882 0.022829197 0.03192781 0.06857742 -0.028166013 0.064572036 0.059361722 0.020236505
-0.075669944 -0.07704933 0.052191854 -0.021118581 0.11223246 -0.039574564 -0.0355298 0.045147277
-0.03829985 0.06859105 0.028442098 -0.07599098 -0.014391884 0.010691369 -0.07049986 0.04284811
00000000: 9e64 93bd 4f38 ab3d f49b aa3b 91bd c8bd
00000010: 91a1 8abc e8a3 f73c 4163 ca3d fa55 ca3d
00000020: 65a0 7c3d 5726 213c 2663 e0bc 26e3 31bc
00000030: ea16 153d 42ed 8d3c 5c9c 23bd 66a0 b93d
00000040: df16 00bb 4c04 bb3c bcc6 023d 5272 8c3d
00000050: 69bc e6bc 583e 843d 4725 733d 07c7 a53c
00000060: d8f8 9abd 0acc 9dbd 20c7 553d e000 adbc
00000070: 22da e53d f018 22bd b287 11bd 5aec 383d
00000080: 4ee0 1cbd 7779 8c3d 67ff e83c 29a1 9bbd
00000090: f0cb 6bbc da2a 2f3c 3b62 90bd 8081 2f3d

linear_3.weight f4 [1, 40]
0.084444456 -0.103918135 -0.072441 -0.062229667 -0.13686046 -0.14613192 0.166384 0.16466177
0.15525784 -0.044898774 0.122321784 0.10245358 0.063915625 0.14483355 0.11377515 0.045596905
0.049954847 -0.011992955 -0.11915527 -0.050694566 -0.013029433 0.118293084 0.057333983 -0.078142375
-0.09922219 -0.043591633 -0.118695736 0.030741485 0.019286504 0.05131594 0.15606175 -0.0066888575
-0.05438475 -0.020581232 0.113061495 0.060060404 -0.04946032 0.11102989 0.09602841 -0.00564343
00000000: 37f1 ac3d 08d3 d4bd f25b 94bd 89e4 7ebd
00000010: 2625 0cbe 9ba3 15be 9160 2a3e 189d 283e
00000020: e9fb 1e3e c7e7 37bd d883 fa3d 2fd3 d13d
00000030: 32e6 823d 3f4f 143e f202 e93d d2c3 3a3d
00000040: 749d 4c3d 197e 44bc ae07 f4bd 1ba5 4fbd
00000050: 6779 55bc a543 f23d 0ad7 6a3d 1c09 a0bd
00000060: 0135 cbbd 248d 32bd c016 f3bd 91d5 fb3c
00000070: bbfe 9d3c aa30 523d a7ce 1f3e 342e dbbb
00000080: 8bc2 5ebd f999 a8bc c98c e73d e601 763d
00000090: e896 4abd a463 e33d 8baa c43d 86ec b8bb
