ndp/weights/pretrain-2.pt (torch, 3951 bytes, 5 tensors)

linear_1.weight f4 [16, 8]
0	0x3e0619b3	0.13095741
1	0x3e8d1d49	0.27561405
2	0xbe2838e5	-0.16427954
3	0x3d48f811	0.0490647
4	0xbe1ee000	-0.15515137
5	0x3ed17d44	0.40915883
6	0xbe67b15e	-0.22626254
7	0x3ec11a2e	0.37715286
8	0x3cd37d20	0.0258165
9	0xbec7dd02	-0.39035803
10	0x3e080443	0.13282876
11	0xbc3f1d3b	-0.011664684
12	0x3d2fcdc6	0.04292085
13	0xbcf9f69c	-0.0305131
14	0xbd9d2c38	-0.0767445
15	0x3de0d232	0.109775916
16	0xbe69520f	-0.22785209
17	0xbe2fbec3	-0.17162614
18	0xbe537a40	-0.20652103
19	0x3dc09091	0.09402574
20	0x3cd5e577	0.026110394
21	0xbe954239	-0.29152086
22	0x3e18a4ee	0.14906666
23	0x3d968d9b	0.07351228
24	0x3e08f7ec	0.13375825
25	0x3d64536f	0.05574363
26	0xbe083141	-0.13300039
27	0x3bb7e476	0.0056119515
28	0xbcfd9bdb	-0.030958107
29	0xbe0ce448	-0.13758957
30	0x3cadc5fe	0.021212574
31	0x3ec29738	0.38005996
32	0xbd1572be	-0.03648638
33	0xbc0b3350	-0.008496121
34	0xbe4327d0	-0.19058156
35	0xbe8599c3	-0.26093873
36	0x3e9cfad1	0.30660108
37	0x3caf3c47	0.021391047
38	0xbe5124c1	-0.20424177
39	0xbea6dfc0	-0.32592583
40	0x3e9d1c06	0.30685443
41	0xbe2004d4	-0.15626842
42	0x3ec5e4c3	0.38651094
43	0x3e71392c	0.23556966
44	0xbdd29fc6	-0.102843806
45	0x3db04806	0.086074874
46	0xbe561eac	-0.20910138
47	0x3eabdb61	0.3356581
48	0x3d9890b9	0.07449479
49	0x3ed4498d	0.41462365
50	0xbe0125e9	-0.12612118
51	0x3dc495c2	0.095988765
52	0xbdb5c4d2	-0.08875431
53	0x3db631fc	0.088962525
54	0x3ee50267	0.44728395
55	0xbe34cfc0	-0.17657375
56	0xbe321fa6	-0.17394885
57	0x3e673bd6	0.2258142
58	0xbeb1678b	-0.3464931
59	0xbe964a4a	-0.29353553
60	0xbd7abf11	-0.06121737
61	0xbe3f067e	-0.1865482
62	0xbe9717c3	-0.29510316
63	0xbe964d22	-0.29355723
64	0xbe61fd1f	-0.22069214
65	0xbea1e751	-0.31621793
66	0x3b2236f7	0.0024752
67	0x3e45a578	0.19301403
68	0xbe12f82e	-0.14352486
69	0xbe482057	-0.19543587
70	0xbe440b9c	-0.19145054
71	0xbe543fe3	-0.20727496
72	0x3e282b38	0.16422737
73	0xbe6054fb	-0.21907417
74	0xbe50a0ef	-0.20373891
75	0x3d11c5e8	0.03558913
76	0xbdb3f09d	-0.08786128
77	0xbde08fc1	-0.10964919
78	0xbe9eceb9	-0.31017092
79	0xbb875799	-0.0041303155
80	0xbe3d76c1	-0.18502332
81	0xbe37ca9e	-0.17948386
82	0xbebaa70c	-0.36455572
83	0x3db02a76	0.08601849
84	0xbe9b0e77	-0.30284473
85	0xbe2d9e0f	-0.16954826
86	0x3e9d92bf	0.3077602
87	0x3ba39015	0.004991541
88	0x3ea26761	0.31719497
89	0x3ed3b1fb	0.41346726
90	0x3d9db29e	0.07700084
91	0xbd772c79	-0.060345147
92	0x3e88c9cf	0.26716468
93	0xbe021f03	-0.12707143
94	0x3ec4a05d	0.38403597
95	0xbd4542d6	-0.048159443
96	0xbe069fed	-0.13146944
97	0x3d8268ac	0.06367621
98	0xbe36811f	-0.17822693
99	0xbe03c4ee	-0.12868091
100	0xbe27a615	-0.16371949
101	0x3eca4cb2	0.3951164
102	0x3ed1cd35	0.40976873
103	0x3e8e896b	0.27839217
104	0x3cc5eb82	0.02416015
105	0x3be32365	0.0069317096
106	0x3de4506b	0.11148151
107	0xbbca6dd7	-0.0061776447
108	0x3ea023f3	0.31277427
109	0x3d2276e2	0.039664157
110	0x3ee2e17f	0.44312665
111	0x3c276ee8	0.010219313
112	0x3e82ec10	0.25570726
113	0x3e6808a6	0.22659549
114	0x3db5c6b6	0.08875792
115	0x3db8f758	0.09031552
116	0x3eb1bb3f	0.3471317
117	0xbe03bdf5	-0.12865432
118	0x3e66f0e8	0.22552836
119	0xbe2dd663	-0.16976313
120	0x3d8d938c	0.06912908
121	0xbe3d69f7	-0.18497454
122	0x3e7eda64	0.24887997
123	0x3ef498f9	0.4777296
124	0x3d8959ac	0.06706557
125	0x3d965465	0.07340316
126	0xbe10f03f	-0.14154147
127	0x3eb15ad2	0.34639603

linear_1.bias f4 [16]
0	0x3ee77ab3	0.452108
1	0x3d85f2f4	0.0654048
2	0xbe7ab755	-0.24483998
3	0xbe4c6c4d	-0.19963188
4	0xbd96b9da	-0.07359667
5	0x3edadffe	0.42749017
6	0x3e0c596d	0.13705988
7	0xbc94dc08	-0.018171325
8	0xbd0daa01	-0.034585956
9	0x3e6a3f45	0.22875698
10	0xbe81eb14	-0.25374663
11	0xbde7b8fa	-0.11314578
12	0x3ee843e8	0.45364308
13	0x3dd997b6	0.1062464
14	0x3daeca40	0.0853467
15	0x3ea14d09	0.31504086

linear_2.weight f4 [16, 16]
0	0x3e9fa77f	0.31182477
1	0xbda27fa8	-0.07934505
2	0xbb652d00	-0.003496945
3	0x3ea158d4	0.31513083
4	0xbd3df2b7	-0.04637405
5	0x3e740376	0.23829445
6	0x3bd3a6a5	0.0064590746
7	0x3e726540	0.23671436
8	0xbe6f2990	-0.23355699
9	0xbdc9f041	-0.09860278
10	0xbe12523c	-0.14289182
11	0x3dba046d	0.090828754
12	0xbd4be5b0	-0.049779594
13	0x3ddefc57	0.10887974
14	0x3ebbd325	0.36684528
15	0xbbfcbffb	-0.0077133155
16	0x3d0b9e60	0.034086585
17	0xbbd9d9c0	-0.0066482723
18	0xbddadf14	-0.1068708
19	0xbc8a39c0	-0.01687324
20	0xbd91e2e0	-0.07123351
21	0xbe18229e	-0.14856955
22	0xbddaddbc	-0.10686824
23	0x3e32828c	0.17432612
24	0xbe52446c	-0.20533913
25	0x3d351440	0.044208765
26	0xbe7dbbb6	-0.24778637
27	0x3dbe5dd4	0.0929524
28	0x3c689f20	0.014198095
29	0x3e673ca0	0.2258172
30	0xbe6c3362	-0.23066476
31	0xbe3b4232	-0.1828697
32	0x3d984bb8	0.07436317
33	0x3e538fea	0.20660368
34	0x3e1452ee	0.1448476
35	0xbdb5764c	-0.08860454
36	0xbd5d5258	-0.054033607
37	0xbe21ae16	-0.15789065
38	0xbcc40090	-0.02392605
39	0xbe70d36c	-0.23518151
40	0x3e682c18	0.2267307
41	0x3e72bf5e	0.23705813
42	0xbe64ee7e	-0.22356603
43	0xbe7d35e0	-0.24727583
44	0xbda15fcc	-0.078796
45	0xbdf02768	-0.11726266
46	0x3b825540	0.0039774477
47	0xbdf7def8	-0.12103075
48	0x3eba3557	0.3636882
49	0xbd70f154	-0.0588239
50	0xbe2a9954	-0.16660053
51	0x3eaaed46	0.3338415
52	0x3de1f767	0.110335164
53	0xbd940d0c	-0.07229051
54	0x3e8f7ec1	0.28026393
55	0xbe5eaadf	-0.2174487
56	0x3dfc85cc	0.12330207
57	0xbd377ec0	-0.044798613
58	0x3e5a114d	0.21295662
59	0x3e8b4b8d	0.27206078
60	0x3e125954	0.14291888
61	0x3e42c5da	0.19020787
62	0x3dddfa24	0.10838726
63	0x3ea875e7	0.32902452
64	0xbd699fa0	-0.057036996
65	0xbdc3f9ab	-0.09569105
66	0x3d4f99a8	0.050683647
67	0x3e3287a8	0.17434561
68	0xbd551069	-0.052017603
69	0x3da5a5b8	0.08088249
70	0x3e49638d	0.19666882
71	0x39183f72	0.00014519485
72	0x3d970f00	0.07375908
73	0xbe3a8363	-0.18214183
74	0xbdca4966	-0.09877281
75	0x3e357ccd	0.17723389
76	0x3e01e408	0.12684643
77	0x3b5d5498	0.0033772346
78	0x3ebecc8f	0.3726544
79	0x3e0d426f	0.13794874
80	0x3e90ce0f	0.2828221
81	0xbda812cc	-0.0820671
82	0x3e39ecde	0.18156764
83	0x3d599441	0.0531199
84	0xbe689c81	-0.22715952
85	0x3eb00f68	0.34386754
86	0xbda792f7	-0.08182328
87	0x3dc693fe	0.09696196
88	0x3e76c22e	0.24097511
89	0xbd99c1cc	-0.07507667
90	0xbd038205	-0.03210642
91	0x3ec67a98	0.38765407
92	0x3dbe5079	0.09292693
93	0x3e94c87d	0.2905921
94	0x3e0d7d46	0.1381732
95	0x3eaf4351	0.34231046
96	0x3e36d002	0.17852786
97	0x3dbce7ab	0.09223875
98	0xbe245d28	-0.16051161
99	0x3e32266f	0.17397474
100	0x3d5098f9	0.050927136
101	0xbd308a01	-0.04310036
102	0xbe7e14b3	-0.24812584
103	0xbdf6df84	-0.12054351
104	0xbe4edf7e	-0.20202443
105	0x3dfe6d6f	0.124232166
106	0x3df75d7e	0.12078379
107	0x3dd8db10	0.10588658
108	0xbd626f38	-0.055281848
109	0xbe20fe19	-0.1572193
110	0x3d40708e	0.04698234
111	0xbe0422d7	-0.12903915
112	0xbe07bebf	-0.13256358
113	0xbe5f5bd7	-0.21812378
114	0xbb657d00	-0.0035017133
115	0xbe4898ac	-0.1958949
116	0xbd23c0f0	-0.03997892
117	0xbe32b22e	-0.17450783
118	0x3d90bb40	0.07066965
119	0x3b9f8a80	0.0048688054
120	0x3dffae18	0.124843776
121	0x3d72f579	0.059316132
122	0xbd78c88a	-0.060738124
123	0xbe3db7fd	-0.18527217
124	0x3e3ce193	0.18445425
125	0xbe6859eb	-0.22690551
126	0xbe276ec0	-0.16350842
127	0xbe4196fe	-0.18905255
128	0x3d1d01a7	0.038331654
129	0xbbc062fd	-0.0058711753
130	0xbd53c1e0	-0.051698565
131	0x3ddf8e9e	0.10915874
132	0x3dc4e173	0.096133135
133	0x3de05127	0.109529786
134	0x3ebb08de	0.36530203
135	0x3e09de29	0.13463654
136	0xbd3025d8	-0.04300484
137	0xbc6faceb	-0.014628629
138	0x3db4fce9	0.08837301
139	0x3dc24b41	0.0948701
140	0x3dc477a1	0.0959313
141	0x3ec630b2	0.38709027
142	0x3e1e911f	0.15485047
143	0x3d4b1027	0.04957595
144	0xbcad77ea	-0.021175344
145	0x3d3a5301	0.045489315
146	0x3e68680c	0.2269594
147	0xbe39cd9e	-0.18144843
148	0xbd4874f6	-0.048939668
149	0x3df5276b	0.11970409
150	0xbd5d0ede	-0.053969257
151	0x3da67634	0.08128014
152	0xbe4de85a	-0.20108166
153	0xbdf1860b	-0.11793145
154	0xbe2d66ae	-0.169337
155	0x3da6c103	0.08142283
156	0xbe73cc94	-0.23808509
157	0x3cbad98d	0.022808814
158	0xbd81145f	-0.063027136
159	0xbe506cf3	-0.20354061
160	0x3ca70480	0.020387888
161	0x3e3692ae	0.17829391
162	0x3d555268	0.05208054
163	0x3dab8060	0.08374095
164	0xbaaecbb3	-0.0013335854
165	0xbe0b4d92	-0.1360381
166	0x3e09b44e	0.13447687
167	0x3ced5626	0.028971743
168	0x3d18b398	0.03728065
169	0xbc9fdd58	-0.019514725
170	0x3c621ed7	0.013801298
171	0x3e0e2567	0.13881455
172	0xbe5d6dd9	-0.21623935
173	0xbd027937	-0.03185388
174	0xbe273282	-0.16327861
175	0x3d0f8ece	0.0350483
176	0x3df830dc	0.12118694
177	0xbdbec348	-0.09314591
178	0xbd1a8420	-0.03772366
179	0xbe713b4e	-0.23557779
180	0x3cebb340	0.028771996
181	0xbe15a2a0	-0.14612818
182	0x3e75082e	0.23928902
183	0x3d9e3218	0.077243984
184	0xbdd2b954	-0.10289255
185	0xbe05099e	-0.1299195
186	0x3db9d5b4	0.09073964
187	0x3dd6c35c	0.104864806
188	0x3d55bef0	0.052184045
189	0xbe4096f4	-0.18807584
190	0xbe28a74e	-0.16470072
191	0xbdf37694	-0.11887851
192	0xbd56d578	-0.052449673
193	0x3da3ed58	0.08004254
194	0xbe4cb852	-0.19992188
195	0x3d371428	0.044696957
196	0xbd819864	-0.06327894
197	0xbe128374	-0.14307958
198	0x3e640e86	0.22271165
199	0xbdcf8c18	-0.10134143
200	0x3e7ffe76	0.24999413
201	0x3e00ac6c	0.12565774
202	0xbe1e0942	-0.15433219
203	0xbdf611e0	-0.12015128
204	0xbd711e68	-0.05886689
205	0xbcd12690	-0.025531083
206	0x3d426a98	0.047464937
207	0xbdd5cb44	-0.104391605
208	0x3e07cd86	0.13261995
209	0x3e12bfe3	0.14331011
210	0x3de48894	0.11158863
211	0x3e620daa	0.22075525
212	0x3d2ef9e1	0.04271877
213	0xbd1731d0	-0.03691274
214	0x3db47fe4	0.08813456
215	0xbbb0facd	-0.0054009915
216	0x3c095960	0.008383125
217	0x3d090163	0.033448588
218	0x3e682d03	0.2267342
219	0x3e31e65d	0.17373033
220	0x3eb44902	0.3521195
221	0xbda73a1a	-0.08165379
222	0x3dcb66bd	0.09931705
223	0x3e7ea5a3	0.24867873
224	0x3e2a6271	0.16639115
225	0xbebdafff	-0.37048337
226	0xbd409110	-0.047013342
227	0xbeb0601d	-0.3444833
228	0x3d91bf16	0.07116525
229	0x3cd7613b	0.02629148
230	0x3ea8a5b6	0.32938927
231	0x3e31f787	0.1737958
232	0xbda221ac	-0.07916579
233	0xbc9ee261	-0.019395055
234	0xbe653de5	-0.22386892
235	0x3de16956	0.11006419
236	0xbb17d75e	-0.002316914
237	0xbd991f0f	-0.07476627
238	0x3e15e98f	0.14639877
239	0xbdfd75ee	-0.12376009
240	0x3e58a8b7	0.2115811
241	0x3e5a88c0	0.21341228
242	0x3e7b487c	0.2453937
243	0x3e51494c	0.20438117
244	0x3dc608a0	0.09669614
245	0xbe2096a6	-0.15682468
246	0xbbee19a4	-0.00726624
247	0xbe4d484c	-0.2004711
248	0x3dfecd8c	0.12441549
249	0xbe81fadb	-0.253867
250	0x3e20548e	0.15657255
251	0xbe19cc44	-0.15019327
252	0x3c4dbb9b	0.012556936
253	0xbe50c90e	-0.20389196
254	0xbe5eba92	-0.21750858
255	0x3e0f10c6	0.13971242

linear_2.bias f4 [16]
0	0x3e2844ed	0.16432543
1	0xbe510ffc	-0.20416254
2	0xbe39220a	-0.18079391
3	0x3df5d45c	0.12003395
4	0x3e9d33b8	0.3070352
5	0x3da86736	0.08222811
6	0xbd07c4e9	-0.033146773
7	0x3e377ff5	0.17919905
8	0x3e128bd7	0.14311157
9	0x3ca317d7	0.019908829
10	0x3da7be91	0.081906445
11	0xbe72ce5c	-0.23711532
12	0xbda4bb34	-0.08043519
13	0x3e275f48	0.1634494
14	0xbd3c5947	-0.04598358
15	0xbe4f0722	-0.20217565

linear_3.weight f4 [1, 16]
0	0x3e78cad9	0.2429613
1	0xbc849480	-0.016184092
2	0x3e427ba2	0.18992475
3	0x3e31af51	0.17352034
4	0x3e836853	0.2566553
5	0x3e50ebc5	0.20402439
6	0xbcad0db0	-0.02112469
7	0xbcd9a75f	-0.026569067
8	0x3ebc111a	0.36731797
9	0xbde21d1a	-0.11040707
10	0xbe13fc2a	-0.14451662
11	0x3e2d5ed8	0.16930711
12	0x3d1845c0	0.037175894
13	0x3e3a7e9d	0.18212362
14	0xbe65560f	-0.2239611
15	0xbc986dcf	-0.018607048
