ndp/weights/pretrain-2.pt (torch, 3951 bytes, 5 tensors)

linear_1.weight f4 [16, 8]
000000 9d 68 d0 3d 16 35 9f bd 75 5e f5 bd ff 30 92 bb
       0.101762034 -0.07773797 -0.11980907 -0.004461407
000010 f1 77 68 be c9 7b 90 be ff c7 7d be c8 0c 11 be
       -0.22702004 -0.2821944 -0.24783324 -0.14165032
000020 09 b5 5b be 65 13 aa 3e ec c1 74 3e 1d 7c ad bd
       -0.21455778 0.33217922 0.239021 -0.08470938
000030 2c 00 49 3e 5c 85 c3 3e 6b 97 14 3d ca 61 2a 3e
       0.19628972 0.38187683 0.036277216 0.16638866
000040 6a a9 4b be 9c 0f 5f bd 64 d8 a7 3d 1a f5 d6 bd
       -0.19888845 -0.054458246 0.0819557 -0.10495968
000050 3b 68 88 3e 79 d6 7e 3e 9b 7a 2e 3e f6 29 07 3d
       0.26642022 0.24886502 0.17038958 0.032999
000060 3d 2d 33 3e f6 c2 07 3e b1 44 09 bd a4 c6 85 3c
       0.17497726 0.13257965 -0.033512775 0.01633007
000070 b6 45 53 bc d6 a6 52 be d3 72 7b be cd b5 23 be
       -0.012895038 -0.20571455 -0.2455552 -0.1598732
000080 2d 09 b5 3e d3 c4 b7 bd 45 6a 87 3e 33 c6 66 bd
       0.35358563 -0.08973088 0.26448265 -0.05634136
000090 9f d8 4d be 23 8a a6 3d ea 01 ca bc 2d 74 88 bc
       -0.20102166 0.08131816 -0.024659116 -0.01665696
0000a0 d8 62 3d be a8 c2 04 3e 9f 6a 4e bd e4 de 3d bc
       -0.18494737 0.1296488 -0.05039465 -0.011588786
0000b0 56 ee 7d be a8 4e 12 3e 92 dd df 3e d9 ff 9a 3d
       -0.24797949 0.14287817 0.43723732 0.0756833
0000c0 79 05 26 bd 20 08 1f bd 1b 2f 9b be 0b 3f e1 3d
       -0.040532563 -0.038826108 -0.30309376 0.109983526
0000d0 c8 70 a1 bd e0 5a b1 3e fa a2 7f be e1 74 be bd
       -0.078828394 0.34639645 -0.24964514 -0.09299637
0000e0 e1 43 7f 3e 27 1c 59 3e aa 48 e7 bc c9 94 85 bd
       0.24928237 0.21202146 -0.028232891 -0.06522519
0000f0 1c c1 7e be d0 fc e6 3d 02 fa 36 bd c3 86 92 3e
       -0.24878353 0.11278689 -0.04467202 0.2861844
000100 a1 8e 01 3e 72 41 1e 3e 59 59 37 3e cd 49 48 bd
       0.12652065 0.15454653 0.17905177 -0.048898507
000110 b8 a0 93 be fc 8e d9 bc cc 2d ca bd eb d2 48 bd
       -0.28833556 -0.026557438 -0.09872016 -0.049029272
000120 3c fd 98 3e e0 8f 80 3d 1e 49 f9 bd 2f 71 2d 3e
       0.29880702 0.06277442 -0.12172149 0.16937707
000130 d6 38 92 bc d3 f2 65 bd 47 09 b8 be a6 0c f0 3d
       -0.017849367 -0.05613978 -0.35944578 0.117211625
000140 ae bb ae bd c4 07 9c 3e 60 09 08 be 7a ab e8 3e
       -0.08531891 0.30474675 -0.13284826 0.45443326
000150 3f f4 b8 3e 87 ad bf 3d f1 d1 a5 3d ea 93 8c 3e
       0.36123845 0.093592696 0.08096684 0.274566
000160 25 7c 5d 3e 4b 3d a0 3e 41 86 bf be 68 07 2b be
       0.21629389 0.31296763 -0.37407115 -0.16702044
000170 6b cf ba 3c ee 32 61 be c7 5c 3c 3e 7d 52 a9 be
       0.022803983 -0.21992084 0.18394767 -0.33070746
000180 34 e2 b6 3e 06 4a 86 bd 46 e8 b1 3e 88 0f 1f bd
       0.35719454 -0.065570876 0.34747523 -0.03883317
000190 31 57 87 3e ae 9f 22 bc f3 8e dd bd 98 16 e9 3d
       0.2643371 -0.009925766 -0.10818281 0.113812625
0001a0 cd b3 56 3e ec bf d1 3d 42 40 bf 3e 40 04 61 be
       0.20967026 0.10241684 0.37353712 -0.21974277
0001b0 62 df bb 3e 18 e4 c0 3e 43 a3 d1 bd c4 5f 38 bd
       0.36693865 0.37674022 -0.10236218 -0.045013204
0001c0 19 14 87 be 28 40 18 3e 91 df 56 3e 31 dc b4 3e
       -0.2638252 0.14868224 0.20983721 0.35324243
0001d0 a1 cd bd 3d 7b 3c 86 be d9 05 65 3c 0b b3 ba 3e
       0.09267736 -0.26218018 0.013978445 0.36464724
0001e0 e3 4a 51 3e 4e ed 28 3e 0e 4c 3a be 10 e3 3e 3e
       0.20438723 0.16496775 -0.18193075 0.18641305
0001f0 2c 0e 6d bd eb 65 ba bd 68 f8 b6 3e 7a 95 5c 3d
       -0.057874843 -0.091014706 0.35736394 0.05385349

linear_1.bias f4 [16]
000000 f6 17 97 3d e4 6f 42 be fd 71 b9 3e 9d ec 48 be
       0.07377617 -0.18987995 0.3621978 -0.19621511
000010 f7 d2 0a 3e 83 76 af bd 65 6f ab be 96 57 7a bd
       0.13557039 -0.08567526 -0.33483425 -0.061118685
000020 f8 32 9e be f3 0b 8f 3e 58 87 c8 3e c6 31 8b 3e
       -0.3089826 0.27938804 0.3916576 0.27186412
000030 ab f4 d5 bd 74 e0 20 be 21 70 d2 3e 53 33 ac 3e
       -0.10447057 -0.15710622 0.41101173 0.33632907

linear_2.weight f4 [16, 16]
000000 fe 3c d4 bd f6 ed 75 be b3 43 74 be 97 21 9b 3c
       -0.10363196 -0.24016556 -0.2385395 0.018936915
000010 65 f0 0d 3c 22 eb 83 3d a0 99 cf 3d 25 21 1e 3d
       0.008663272 0.064413324 0.101367235 0.038605828
000020 1d 76 0d 3e f9 7a af bd ce 1f 79 bd 49 8a 3e 3e
       0.13814588 -0.08568377 -0.060821347 0.18607439
000030 23 c3 ed 3d 58 51 40 be 15 66 fd bb 65 6b 65 bd
       0.11609485 -0.1878103 -0.0077331164 -0.056010623
000040 b8 22 c2 3d 3f d7 82 bd a6 31 97 bb 20 34 57 3c
       0.09479278 -0.06388711 -0.004614073 0.013134986
000050 cd 4f 9a be 66 24 06 3e 56 91 33 be be 1c 88 3d
       -0.30139008 0.13099822 -0.1753591 0.06646107
000060 5e 7d 25 3e 13 49 fe bd 01 84 b4 3c cc 66 db bd
       0.16161105 -0.124162816 0.0220356 -0.10712966
000070 15 31 18 be 90 1e 2c 3e c7 3c bf bd cb c7 8d 3d
       -0.14862473 0.16808534 -0.09337764 0.06922873
000080 1f bd 10 3e bb c5 1a be 40 8c 84 bd 0d 21 28 be
       0.14134644 -0.1511449 -0.06472063 -0.16418858
000090 6e 36 7d 3e 65 73 b5 3d 64 cc 62 be c4 e6 10 3d
       0.24727795 0.088599004 -0.22148281 0.035376325
0000a0 57 b2 15 3b ac fe de 3d 7e 07 8d 3e eb ad 2c be
       0.0022841895 0.108884186 0.2754478 -0.1686322
0000b0 a3 22 9d 3e 00 b2 b9 3a 97 cf 11 3d 3a 94 ef 3c
       0.30690488 0.0014167428 0.035598364 0.029245485
0000c0 43 82 4c be 01 e3 73 3c f1 4c 23 3e b0 fe 23 3c
       -0.19971566 0.014885665 0.1594732 0.010009453
0000d0 aa b8 6a 3e 00 bd 8c 3e f8 eb c5 bd d4 99 2f 3e
       0.22922006 0.27487946 -0.09664148 0.17148525
0000e0 02 ca 20 bd b7 1c 8a 3e 2c b7 1b bd a5 93 80 bd
       -0.03925515 0.26975033 -0.038016483 -0.06278161
0000f0 09 99 9b 3e bc 80 ea 3d 9b 2f 9f bc 8f 90 10 3e
       0.30390194 0.114503354 -0.01943188 0.14117645
000100 2e 26 03 3e 13 9a 61 bd ce 23 f6 3d b8 f4 22 3e
       0.12807533 -0.055078577 0.12018548 0.15913665
000110 e3 43 a4 3d 05 8a a5 3d 70 b6 b8 bc 1d 94 2e 3e
       0.08020761 0.08082966 -0.02254793 0.17048688
000120 55 34 8f 3c bf 7d ce bd eb 45 e6 bc ae 86 8e bd
       0.017481009 -0.10082578 -0.028109511 -0.06959282
000130 44 49 2b 3e 30 00 27 3e 80 b5 a6 bd 63 eb 64 3e
       0.16727167 0.16308665 -0.08140087 0.22355418
000140 6d be 2d 3e d9 df bf bd 94 cd a0 3e 4c aa fb 3d
       0.16967173 -0.093688674 0.31406844 0.12288341
000150 59 22 84 3e 5f 77 c7 3e d4 1d ac bc 95 e1 d1 3c
       0.25807455 0.3895826 -0.021010317 0.025620261
000160 71 87 37 be b2 28 ce bd 67 ef 42 3c eb 7e 7c 3e
       -0.1792276 -0.10066356 0.011897898 0.2465779
000170 85 18 c9 3c 19 36 72 3e 70 da 30 3e 37 22 2f bd
       0.024547825 0.23653449 0.17270827 -0.04275724
000180 64 23 5b bc c9 9c 87 3e b3 03 92 3e b3 04 37 be
       -0.013375137 0.26486805 0.28518447 -0.17872886
000190 d8 2f 7b bd ee a1 a0 bd 88 2d f7 3d fa 86 85 3e
       -0.061324924 -0.07843386 0.12069231 0.2607954
0001a0 e5 62 02 3e 5b dd 05 3e 7d 92 14 3e db 2c 13 3e
       0.12733038 0.13072722 0.14509006 0.1437258
0001b0 d3 f7 92 3e 1b 28 db 3d 49 e8 81 bd 48 88 9e 3e
       0.287047 0.10701009 -0.06343133 0.3096335
0001c0 9c cc a4 3d b2 76 8b 3e bd 45 9c 3e fd eb 5c 3e
       0.08046839 0.27238995 0.30521956 0.21574397
0001d0 d8 47 e0 bd c2 b7 e8 3d 4d 6f 7a 3d 27 af 9e bd
       -0.10951203 0.11363174 0.0611413 -0.077482514
0001e0 43 37 0f 3e 41 13 10 be 67 b2 15 3e bc ad 35 3e
       0.13985924 -0.14069845 0.14618836 0.17742056
0001f0 c4 bb 11 3e a3 56 89 3e 27 95 f8 3c f7 03 78 3e
       0.14231783 0.2682391 0.030344559 0.24220262
000200 d1 0b f5 3d 5c 75 0d bd 17 f1 17 bd d0 d1 ab 3c
       0.119651444 -0.03453575 -0.037095156 0.02097407
000210 3e 23 70 3e a5 52 d1 3e 39 13 09 3e b2 01 53 3e
       0.23450944 0.40883365 0.13386239 0.20606115
000220 fa 58 54 3d 1a 85 f6 bd 33 32 05 3e dd f6 ea bc
       0.051842667 -0.12037106 0.1300743 -0.028682167
000230 a3 b8 08 3b f2 90 f6 bc be c6 23 3e 27 8d db 3d
       0.0020862005 -0.030098412 0.15993783 0.10720282
000240 e7 b8 e6 bd e1 67 99 be 79 0e 82 3d 50 5f 15 3e
       -0.11265736 -0.29962066 0.06350417 0.1458714
000250 46 b1 64 be 05 5a ef 3d 8b f9 25 be 4b db 4e be
       -0.2233325 0.11687092 -0.16208474 -0.20200841
000260 96 65 12 3e 3a fd 41 3e 4f 79 01 3e 52 31 90 bc
       0.14296564 0.18944255 0.12643932 -0.017601643
000270 22 ce ca 3c 00 04 83 be 0e 95 5b be 13 59 16 be
       0.024756495 -0.2558899 -0.21443579 -0.14682417
000280 4e 2a 0b 3e eb 63 80 3d 79 6a b8 bd ac e4 a2 3d
       0.13590357 0.06269058 -0.09004683 0.07953772
000290 5b 79 ed bc 84 4e d9 bd c2 ad 60 be b8 4f 0b 3e
       -0.02898853 -0.10610679 -0.21941283 0.13604629
0002a0 b5 5f 75 be 07 5f 32 be c5 f0 cb 3a 08 51 55 3e
       -0.2396229 -0.17419063 0.0015559426 0.20831692
0002b0 1f 43 68 3c 7d f3 4c 3e e9 f6 2d be 22 89 44 be
       0.014176159 0.20014758 -0.1698872 -0.19192937
0002c0 e0 af 71 3e 30 44 58 bd 05 d7 d6 3d a9 1d 12 be
       0.23602247 -0.052799404 0.104902305 -0.14269127
0002d0 eb 90 f9 bc 05 44 ce 3d 3d 14 99 3d 61 2b d2 bb
       -0.03046461 0.100715674 0.07474563 -0.0064138626
0002e0 1b 7a dc 3d f2 ed 91 3e 47 ca 5f 3e 25 d1 19 bd
       0.10765477 0.2850185 0.21854506 -0.03755297
0002f0 db 78 37 3e 67 8d 6d bd 09 e3 95 3e fd 76 1c 3c
       0.17917196 -0.05799618 0.29274777 0.009549853
000300 fe 67 ba 3b 27 97 16 be 37 10 0a bb 1f aa 1d 3d
       0.0056886664 -0.14706098 -0.0021066794 0.03849232
000310 d4 23 2e 3e 64 40 8c 3e c5 4d 55 be a9 31 8c bb
       0.17005855 0.27392876 -0.20830448 -0.004278381
000320 cd 66 6a 3e ca 15 18 be f3 ff 4c 3e 2a d4 02 3e
       0.22890778 -0.14852062 0.20019512 0.12776247
000330 cc 84 f7 3d fd 2a 88 3e c4 0d 96 3e 11 7d 05 3e
       0.12085876 0.26595297 0.29307377 0.1303599
000340 4b db a9 3d a8 e0 3c 3d eb 1f 57 3d 81 1a 2f 3e
       0.0829378 0.046112686 0.052520674 0.17099954
000350 2e 7a 53 bd 0e c9 87 3e 4c 95 bd 3d d2 ad 76 3e
       -0.05163019 0.2652058 0.09256992 0.24089745
000360 28 0f e1 bd b0 b2 b3 3c d7 ed 76 3d 30 64 a1 bc
       -0.10989219 0.02193579 0.060285416 -0.019701093
000370 c2 d9 e7 3d 32 a4 e1 3d 35 8f 57 3e 0c 5d 95 3d
       0.11320831 0.11017646 0.21050723 0.07293138
000380 b8 c2 d4 3d ff b0 56 be cc 1f 3e 3e 54 e1 53 be
       0.10388702 -0.20965956 0.18566817 -0.20691425
000390 34 ad ee bd a0 d3 82 3c c0 bf 10 3d 54 33 5c 3e
       -0.116541296 0.015970051 0.035339117 0.21503955
0003a0 b4 36 26 be 95 87 08 be 3f d1 80 bd 2b 7d 53 be
       -0.16231805 -0.1333297 -0.062899105 -0.20653217
0003b0 a1 2e 66 be 47 e0 16 be 5c 1e 3f be dc f1 6f be
       -0.22478725 -0.14733993 -0.18663925 -0.23432106
0003c0 02 95 3b 3e 7d 9f 63 be 67 2a 10 3e e9 7a d8 bd
       0.1831856 -0.22228809 0.14078675 -0.10570318
0003d0 d3 69 08 3e e5 83 28 be 60 9f 80 3d a9 8e 72 3d
       0.13321619 -0.16456564 0.06280398 0.059218083
0003e0 e7 fa 77 3e 41 86 56 3d f3 8d 0b be 64 e1 2d 3e
       0.24216805 0.05237413 -0.13628368 0.16980511
0003f0 5d 31 08 3d b1 c3 c9 bd 29 21 82 3d ea f9 0d 3e
       0.0332502 -0.09851778 0.06353981 0.13864866

linear_2.bias f4 [16]
000000 0a a7 dc 3d 47 69 2f bc 7b 8c 62 3d 7c 16 dc 3d
       0.10774048 -0.010706252 0.055309754 0.10746476
000010 9f c4 71 3e c2 07 cb 3d 05 64 e9 bd bd 7f 82 3e
       0.23610161 0.09913589 -0.1139603 0.25488082
000020 d0 14 03 3e 3c ec 44 3e b7 8d 4d 3d ea 57 2e be
       0.12800908 0.19230741 0.050183978 -0.17025724
000030 07 0b 51 bd 48 aa 54 3e 10 d5 07 3e 8f 7a e6 bd
       -0.051035907 0.20768082 0.1326487 -0.11253845

linear_3.weight f4 [1, 16]
000000 7b b5 b9 ba 95 9b c3 bd 49 23 75 3e aa 11 73 3e
       -0.0014168465 -0.09551159 0.23939241 0.23737207
000010 28 dd 00 3e 29 c3 a8 3e a6 b3 9a 3e 7b 17 3f 3e
       0.12584364 0.32961395 0.30215186 0.18661301
000020 2a ad 64 3e 9a 5a 42 be 51 ce 41 be d7 a3 35 3e
       0.22331682 -0.18979874 -0.1892636 0.17738281
000030 fb a2 4c 3e 0d 47 20 3e b6 a4 21 bc 04 15 d3 bd
       0.19984047 0.15652104 -0.00986593 -0.10306743
