ndp/weights/pretrain-7.pt (torch, 316143 bytes, 5 tensors)

linear_1.weight f4 [196, 343]
000000 31 42 dc 3c 10 3b 33 bd cf 1d 2a 3d c5 61 09 3d
       0.026887031 -0.0437575 0.041532334 0.033540506
000010 fd 3b 08 3d 49 44 4b 3d c6 25 5d 3d 09 e9 1b 3d
       0.033260334 0.04962567 0.0539911 0.038064037
000020 d1 94 70 3d bc 71 c0 bc 9c d6 59 3b b6 2e ab 3c
       0.058735672 -0.023491733 0.003323949 0.020896297
000030 bf 49 45 3d f8 8b 6f bc 53 86 28 bc f7 0f 5b 3c
       0.048166033 -0.0146207735 -0.010285932 0.0133705055
000040 74 8d 88 bc d0 e1 ca 3c 41 3f 0b 3d 6a 32 df bc
       -0.016669013 0.024765879 0.03399587 -0.027245719
000050 a7 d2 3f 3d 21 2a c5 bc f3 39 72 3d 00 90 1d 3d
       0.046831753 -0.02406794 0.059137296 0.038467407
000060 f5 63 28 3d 76 0a 9a bc 71 7f 5a 3c 79 1a 58 3d
       0.04111095 -0.018803816 0.013336048 0.05275962
000070 5c 55 4f 3d 7a a4 53 3d d7 6d 8e 3c e0 76 64 3d
       0.050618514 0.05167053 0.01738636 0.05577743
000080 40 6e 42 3d fb 09 f7 3c 37 7b 0a bd 34 e3 2b bc
       0.047468424 0.030156126 -0.033808913 -0.010491181
000090 43 2e 34 3b e7 f2 9d bc 4d a4 10 3d 93 b9 17 bd
       0.0027493394 -0.019280864 0.03531294 -0.03704221
0000a0 9e 71 64 3d b3 d0 ac bb 2f 4c fb 3b f4 8a 7c 3d
       0.055772416 -0.0052739023 0.007668994 0.061655954
0000b0 25 33 9d bc 6b e3 c9 bc 05 6e 05 3d 6c 57 0c bd
       -0.019189427 -0.024644574 0.032575626 -0.03426306
0000c0 89 3d 55 3d 0c c4 a1 bb 8b 79 e2 bc 0c 66 80 3b
       0.052060638 -0.0049367007 -0.027645847 0.003918415
0000d0 9f c9 2b 3d e7 bc 7c bb 43 8c 28 bc 4d 69 10 bc
       0.041940328 -0.0038564743 -0.010287347 -0.008814168
0000e0 8d 0a 39 3d 4b 55 89 3c 8a 59 10 3d 63 94 0c 3d
       0.045176078 0.016764304 0.03524164 0.0343212
0000f0 c5 19 c6 3b 8f 88 3f 3d 6d 68 55 3b 20 9a 84 3c
       0.0060455524 0.04676109 0.0032563463 0.016186774
000100 91 fd 17 bd 6d 28 38 bc de 79 e1 3c 7d 52 b8 bc
       -0.037107054 -0.011240107 0.027523931 -0.022500271
000110 0d d2 4c 3d a3 fd bf 3c ea b0 a9 3c 1f 46 25 bd
       0.050005008 0.023436373 0.020714242 -0.040350076
000120 50 83 64 3d 9f 22 63 3d a2 88 86 bc 39 0f 62 bc
       0.05578929 0.05545294 -0.016422573 -0.013797575
000130 bb cb 63 3d 99 ca c5 3c 3b 61 70 3a ff 18 33 bc
       0.055614214 0.024144458 0.0009169762 -0.0109312525
000140 21 1b 7b 3d 72 ee 26 bd 99 81 0f 37 f3 1d a6 bc
       0.06130517 -0.040754743 8.5536385e-06 -0.020277953
000150 21 ba c2 3c e0 44 04 3d e6 db 84 3c 9a 92 5b 3d
       0.023770394 0.032292247 0.016218137 0.053606607
000160 3e f7 38 bb 27 91 8b bc 42 a5 18 bd 5f 33 d1 bb
       -0.002822354 -0.017036987 -0.037266977 -0.0063842977
000170 d2 18 d8 bc 94 15 32 3d d6 ce ad bc 9a 39 fb bb
       -0.026379023 0.04347761 -0.021216791 -0.0076667788
000180 ac 84 ba bc 71 b9 2e bc 0f 3d 8f bb f8 d0 aa bc
       -0.022768341 -0.01066433 -0.0043712924 -0.020851597
000190 c1 23 db 3b 25 ca 2a bc f7 d6 19 bd 9d a0 50 3d
       0.006687612 -0.010424172 -0.037558522 0.050934423
0001a0 a6 46 5f 3d 9a 28 3c 3c 30 f7 66 3d d0 8f 82 3c
       0.054510735 0.01148429 0.05638808 0.015937716
0001b0 ec ac 36 3c 0e c3 0c bd af 53 da 3c dd 34 61 3d
       0.011149626 -0.034365706 0.026651232 0.054982055
0001c0 b2 69 1c 3d ec 28 f2 3c c2 3d 94 bc 9c 9e 59 3c
       0.038186736 0.029560529 -0.018095855 0.013282444
0001d0 f0 63 01 bd fd 1a 1b 3d f7 8c 1c 3d 53 17 2e bd
       -0.03158945 0.037867535 0.038220372 -0.042502712
0001e0 89 88 2b bd b0 d3 cc 3c eb 31 d3 3c 51 99 00 bd
       -0.041878257 0.025003284 0.025780639 -0.031396214
0001f0 e6 f1 93 bc 03 19 24 bc f1 f8 67 3d 0b 7b 24 3d
       -0.018059682 -0.010015729 0.056633893 0.040156405
000200 7a 1e f0 3c 28 f6 79 bc 6c 8a 1a 3d ba 60 da 3b
       0.029311407 -0.015256442 0.037729666 0.0066643627
000210 ac f8 ab bc 6f 65 69 3d 1c 50 e5 3c 9f 52 4d bc
       -0.0209926 0.0569815 0.0279923 -0.012531905
000220 eb a3 2b bd 9f a6 b4 bc f0 13 df 3c 14 71 0a bd
       -0.04190437 -0.022052107 0.027231187 -0.033799246
000230 6d b6 32 bd 92 14 31 bd 46 4f 91 bc 39 0b c2 3c
       -0.043631006 -0.043232508 -0.017737996 0.023686992
000240 d1 13 37 3b c8 94 3c 3c fa 46 31 3d 8e e6 ee ba
       0.0027935395 0.011510082 0.04328058 -0.001822667
000250 3d 19 34 3d 8d 16 a1 3a 1a f5 13 bc e3 57 89 3c
       0.04396938 0.0012290046 -0.009030605 0.01676554
000260 73 14 1c bd 6c 98 f5 bc bb 75 6b 3d 43 3d 64 3d
       -0.03810544 -0.029979907 0.057485323 0.055722486
000270 3e 94 da bc 6d 18 84 3c 67 46 a9 bc fb b3 02 3d
       -0.026682016 0.016124928 -0.020663453 0.031909924
000280 b6 45 64 bc b9 91 f4 3c e9 77 ee 3b 1c 71 29 bd
       -0.013932636 0.029854642 0.007277478 -0.041367635
000290 9f c0 41 3d 5d b9 a8 3c 24 e3 85 3c 0c d7 b4 bb
       0.04730284 0.0205962 0.01634366 -0.0055187996
0002a0 4f 5e e9 3c 14 de 5a 3d 6e bb 10 bd 80 fa 26 bd
       0.028487353 0.053434446 -0.035334997 -0.04076624
0002b0 87 2e 3f 3d 1d 32 30 3d ae 90 c6 3c 6e b1 34 3d
       0.04667523 0.04301654 0.02423891 0.044114523
0002c0 ac ac 1a 3d fa 69 03 bc db a4 1e bd 21 be 0b 3c
       0.03776233 -0.008020872 -0.038731437 0.008529217
0002d0 5a 79 42 3d 5a 3e df 3c 3f 46 5d 3d 16 af 21 3d
       0.04747901 0.027251411 0.05402207 0.039473616
0002e0 92 22 64 3c 3a 43 9b 3c fc 73 44 bc 04 1a 18 ba
       0.013924258 0.018952955 -0.011990543 -0.00058022165
0002f0 73 8a a7 ba 3f d5 a9 bc 32 ef 98 bc a3 06 4f 3d
       -0.001278235 -0.020731566 -0.018668745 0.05054344
000300 05 ee b6 3c 06 91 3e 3d 6e bd 34 bd 85 46 32 3d
       0.022330293 0.046525024 -0.044125967 0.043524284
000310 cc 5e 21 bb 9a b1 e0 bc 44 14 e6 bc d9 44 ac 3c
       -0.0024623154 -0.027428437 -0.028085835 0.021028923
000320 89 93 31 bb de 9c 71 ba b8 47 ae 3b f3 8a 5d 3d
       -0.0027095994 -0.00092167954 0.005318608 0.05408759
000330 1f cc 04 bc 6c 67 8e bb dd b5 a6 bb 2f 8e 25 bd
       -0.008105307 -0.004345825 -0.0050875978 -0.0404188
000340 39 60 c9 bc e4 35 03 3d 79 ed e7 3c 65 b0 db 3c
       -0.024582015 0.032033816 0.028311478 0.02681751
000350 68 be f6 ba 10 41 43 bb 89 86 80 3d 28 6d 13 3d
       -0.0018825056 -0.002979342 0.062756605 0.03599277
000360 b5 51 ff 3c d8 74 36 3d 92 6d 53 3c 95 34 ef 3c
       0.03116689 0.044545025 0.012904542 0.029199878
000370 85 5f 32 bd 47 8e a2 3b 57 ca 54 3d 43 c1 a5 3c
       -0.043548126 0.0049608084 0.05195078 0.020233756
000380 16 5b 3e 3d 20 57 85 bb a2 ff 27 3d 51 c2 45 3b
       0.046473585 -0.004069224 0.041015275 0.0030175636
000390 f1 1d be bb a2 67 1b bc c5 fd 43 3d 04 0c d6 bc
       -0.005801909 -0.009485157 0.047849435 -0.026128776
0003a0 65 b8 4c bb 69 61 ba bc 82 94 9c bc 99 34 4b 3d
       -0.0031237837 -0.022751527 -0.019113783 0.049610708
0003b0 bb 11 ae bc e2 28 6f bb 4b e9 43 3d 80 ed c3 3c
       -0.021248689 -0.0036492874 0.047829907 0.02391696
0003c0 70 84 32 3d b2 46 2d 3c 03 f3 78 3d 56 0d 06 3d
       0.043583333 0.010575937 0.06077863 0.032727562
0003d0 45 fc 3e 3d a5 13 56 bb e5 f4 70 3d 75 2e 63 bc
       0.0466273 -0.0032665518 0.0588273 -0.013866057
0003e0 3c b0 d3 3c a4 80 20 3c 61 9f 3d 3d 87 db 31 bd
       0.025840871 0.009796295 0.046294574 -0.04342225
0003f0 87 39 c9 3b 4e 56 17 3d da 4c 70 bc fd 63 45 3d
       0.006140891 0.03694754 -0.01466676 0.04819106

linear_1.bias f4 [196]
000000 02 9b 64 3d bf 46 47 3c f2 b6 21 3d 22 27 96 3c
       0.05581189 0.012162863 0.03948111 0.018329207
000010 47 01 33 3d 96 00 ba bb 61 2f 60 bd 77 e8 e9 39
       0.04370239 -0.0056763394 -0.054732684 0.00044614423
000020 c8 b9 65 3d 07 7e 2f 3d 4c 5b 1e 3d 11 46 6f 3d
       0.056085378 0.0428448 0.038661286 0.05841643
000030 a4 c9 db bb 72 95 f4 bb 29 65 00 bc 85 01 3d bc
       -0.006707387 -0.0074641043 -0.007836618 -0.011536007
000040 72 19 ef 3c 33 1f 6f 3d 2f fc 86 3d ec 93 34 bb
       0.029186938 0.058379363 0.06591069 -0.0027553989
000050 47 52 84 bc d9 de 15 3d 4f 6d c1 bb 01 ba a9 3a
       -0.016152514 0.036589477 -0.005902923 0.001294911
000060 cf 8f 86 bc 0e 1a 1f 3d ec ae 4b 3d bd fd 0a 3d
       -0.016425995 0.038843207 0.049727365 0.03393339
000070 9c a8 68 3d 77 12 65 3d a5 26 40 3d e7 3f 37 bd
       0.056801423 0.055925813 0.046911854 -0.044738676
000080 48 4e 6b 3d 9c de 90 3b d1 33 81 3c 99 9a e1 bc
       0.0574477 0.0044210684 0.015771778 -0.027539538
000090 50 04 82 3d 1d d5 11 bd 87 b3 d1 3c 0f d9 91 3b
       0.06348479 -0.03560363 0.0255983 0.004450924
0000a0 eb 35 11 bd 32 52 7c 3d 72 ad 48 3d f5 24 83 3d
       -0.03545181 0.061601825 0.048993535 0.06403533
0000b0 90 cf ba bc 63 cf 41 3d 57 ba d6 3c 43 c6 a6 3c
       -0.022804052 0.04731692 0.0262119 0.02035821
0000c0 e3 5b 62 3d ca fb 00 3c 78 61 ba 3c cb 49 1f bd
       0.05526341 0.007872531 0.022751555 -0.038888734
0000d0 eb 3c c0 bb c8 4d 38 3d 7d ee ef bc 01 58 7c 3d
       -0.005866637 0.044996053 -0.029288525 0.061607365
0000e0 0b 2e 7a 3d 74 e3 76 3d 59 d4 73 3c 4a 5a 18 bc
       0.061079066 0.06027551 0.014882171 -0.00929887
0000f0 58 cf 37 bd af 42 2d 3d 2b b0 47 bc 84 f1 02 bd
       -0.044875473 0.042299923 -0.012187998 -0.03196861
000100 b9 7c f2 3c dd 94 81 3c bd 26 08 3c c0 3b 95 bc
       0.029600488 0.015818054 0.008310017 -0.018216968
000110 c3 4c 68 bd 4f 91 e8 bc 24 87 14 bd 47 68 00 bd
       -0.05671383 -0.028389601 -0.036261693 -0.031349447
000120 d8 2c 3b bd 86 31 dc bc 32 ba 53 bd 60 d7 a3 3c
       -0.045697063 -0.026879083 -0.05169124 0.02000016
000130 20 98 3d bc 96 d4 a3 3c d2 ff e2 bb f0 33 0c bc
       -0.011571914 0.01999883 -0.006927469 -0.008557305
000140 49 d8 36 3d 94 51 ef bb 59 20 02 3d 99 d7 52 3d
       0.04463986 -0.007303426 0.03176913 0.05147514
000150 df e2 4c bd ce 97 55 bd a7 87 73 bc 0f fb e3 3c
       -0.05002105 -0.052146725 -0.014863885 0.027829675
000160 e0 15 20 bd 25 b3 e4 3c 63 8e 47 bb 02 dc 0c bd
       -0.03908336 0.027917454 -0.003044986 -0.034389503
000170 7b c8 43 bd 7c f8 ec 3c 1f af 06 3b 1c 9a 43 3c
       -0.047798615 0.02892708 0.0020551158 0.011938598
000180 be a0 b6 3c ce 15 9e bc 98 93 49 3c 5e d3 bc 3c
       0.022293445 -0.019297507 0.0123032555 0.023050006
000190 f4 c1 7c 3c c1 03 09 3d 3a 31 39 bd f3 e7 d3 bc
       0.015427101 0.033450846 -0.04521296 -0.025867438
0001a0 33 fb 63 3d 3b 94 43 bd 85 e4 0e 3d 52 cc 84 3d
       0.055659484 -0.047748785 0.034885902 0.064842835
0001b0 d8 b4 0b bd ee b4 25 3d f2 ed d6 3c c7 ad 84 3d
       -0.034108013 0.04045575 0.026236508 0.06478458
0001c0 5e 82 cb 3b 5f 4d a1 3c b1 8b 4a 3d d9 51 c5 3b
       0.0062106093 0.019690214 0.049449626 0.00602172
0001d0 00 81 82 bc f5 99 a6 3c 86 03 32 bb fe a0 67 3c
       -0.015930653 0.020337084 -0.0027162745 0.014137505
0001e0 b7 40 2d bb df 18 c1 bc db 68 dd bc 6a 1c 43 3d
       -0.0026436278 -0.02357143 -0.027027538 0.04763452
0001f0 84 03 08 3d 97 54 23 3d a2 1b 54 bd a3 30 16 bc
       0.033206478 0.039875593 -0.051784165 -0.009166869
000200 88 dc 29 3d 41 b3 f7 bc 01 b7 4b bd 5b 26 cf 3c
       0.04147008 -0.030236842 -0.049735073 0.025286844
000210 48 b3 be 3c 1a db 26 bd f6 17 4c 3d 90 03 89 3c
       0.023278847 -0.040736295 0.04982754 0.016725332
000220 c1 d2 32 3d 13 89 e9 39 d4 32 21 3d 26 ad 51 3d
       0.04365802 0.0004454335 0.039355114 0.051190518
000230 b5 f3 15 3d 78 d8 e4 bc fc f5 11 3d 49 77 cd bc
       0.03660937 -0.027935252 0.03563498 -0.025081294
000240 70 aa 3f 3d 27 38 09 3c 55 a6 30 3b e6 a1 b1 3c
       0.0467934 0.008375204 0.002695461 0.021683645
000250 70 2a a3 bc a5 64 2d 3d 89 c9 9a bc ea ba 80 3d
       -0.019917697 0.04233231 -0.018894928 0.06285651
000260 ba 86 27 bd 75 19 ab 3b d5 16 42 bc fc aa 05 3d
       -0.04089997 0.0052215406 -0.011846264 0.032633767
000270 32 86 3d 3d 40 c4 ba 3c ba 15 04 bd ab 73 13 bc
       0.046270557 0.022798657 -0.032247283 -0.008999745
000280 b6 14 36 3d 89 de 0a 3d ca 14 8d 3c 0f e6 8d 3c
       0.044453345 0.033903632 0.017221827 0.017321615
000290 4f 5b 22 3d 0b 81 1b bd cf 28 bb 3c 1a 89 dc bc
       0.03963786 -0.03796486 0.022846607 -0.026920844
0002a0 f4 88 41 3d ff c6 07 bd 77 60 c3 3c 2f 76 4f 3d
       0.04724975 -0.03314876 0.023849709 0.050649818
0002b0 b8 85 3d 3d 5a 2e 2f 3d 6c bc dc 3c 52 27 ea bc
       0.046270102 0.042768814 0.026945315 -0.028583203
0002c0 88 44 40 3d d0 d4 93 3c 49 8d 7f 3d de 7e 9a 3c
       0.046940356 0.018045813 0.0623906 0.018859323
0002d0 02 8c de 3b e4 f5 06 3d cf 6a 19 bb 44 12 5c bd
       0.0067915926 0.032949343 -0.002340961 -0.053728357
0002e0 91 b6 18 3b 95 db 1c 3d 20 aa 9f 3c be 93 41 3c
       0.0023302177 0.038295347 0.019490302 0.01181501
0002f0 ac d7 18 3d 8b fb cc 3c 3a d6 13 bd 5a 2b 3c 3d
       0.037315056 0.025022289 -0.036092974 0.04593978
000300 24 c5 00 bd a3 94 28 3d 79 28 1d 3d f2 df 1a 3c
       -0.031438008 0.041157376 0.038368676 0.009452807

linear_2.weight f4 [56, 196]
000000 db 14 38 bd dc 92 9d 3b 9f 50 9a bc 78 72 60 bd
       -0.044941764 0.004808767 -0.018837271 -0.054796666
000010 f5 e2 1c 3d a8 a8 93 bc b3 3d 43 bc e6 8f 7e bd
       0.03830238 -0.018024758 -0.011916566 -0.06214895
000020 e5 a9 68 3b 89 df 45 bd 10 d9 6f 3d 12 56 8e bb
       0.0035501656 -0.048308883 0.058556616 -0.0043437565
000030 a8 7c b3 3c 1c a4 49 3d 19 68 25 3d ff c2 30 bc
       0.021910027 0.049228773 0.04038248 -0.010788678
000040 2f 4e ce bc 25 d0 cb bb 38 1a e2 3b 60 59 7b bd
       -0.025183765 -0.006219881 0.006900098 -0.06136453
000050 95 1e 22 bc 41 7d aa bc ee af a2 bb dc 4e 2a 3d
       -0.009894987 -0.020811679 -0.00496482 0.041579112
000060 89 b1 9c 3c 23 49 80 3d 67 00 4b 3d dd e9 eb 3c
       0.019127624 0.0626395 0.04956093 0.028798038
000070 d7 c5 52 3d cc 75 50 3d 71 29 4d 3d 4d 76 d4 3c
       0.051458206 0.05089359 0.05008835 0.025935316
000080 a8 fa 27 bd 66 7a 2e bc 75 51 66 3d 73 76 bb bc
       -0.04101053 -0.010649299 0.056230027 -0.02288363
000090 24 54 9e bd ee ab 35 bd 2e 8e a2 3b e0 55 9b bc
       -0.07730892 -0.044353418 0.004960797 -0.018961847
0000a0 4e 18 50 bc 62 ca cf bc c2 81 64 bd 67 0c 41 3c
       -0.012701107 -0.025365058 -0.05578781 0.011782742
0000b0 b2 a2 ab 3c ea 40 3e 3d 73 cb 2b 3d 65 ba 39 bc
       0.020951603 0.046448626 0.04194207 -0.011335944
0000c0 88 b4 90 3c 41 3e 5b bd 43 3d fc bc 5a a0 10 3d
       0.017664209 -0.053526167 -0.03079093 0.035309173
0000d0 19 19 53 3d ab 8c 1a bb 7f 90 5e 3d 8f bb 40 3c
       0.051537607 -0.002358238 0.05433702 0.011763467
0000e0 38 c3 35 3c f5 37 53 3d 99 da 79 3d 8e 9d df 3c
       0.011093907 0.051567037 0.060999487 0.027296808
0000f0 c3 02 37 bd b5 94 31 bd 24 52 14 3d a8 fe 80 bc
       -0.04468037 -0.04335471 0.036211148 -0.01574643
000100 c8 bc 3c 3d 52 2a 1e bd 2e f8 82 bd d4 cd 82 3c
       0.046078473 -0.03861458 -0.06394993 0.015967287
000110 25 d9 de 3c ff 19 09 3d b5 39 7e 3d 29 51 cf ba
       0.027203152 0.033472057 0.062066752 -0.0015817034
000120 d0 ab 31 3d e0 0f cf 3c 2e 31 a9 3c a3 cf ad bc
       0.043376744 0.025276124 0.020653334 -0.021217173
000130 cf 10 af 3a cb 3c f9 3b a8 cd 86 bd 04 6c 2a bc
       0.001335645 0.007606124 -0.065821946 -0.0104017295
000140 d1 e4 96 bd 01 3b 99 bd db eb da bb 3b 4e 27 bd
       -0.07367862 -0.07481957 -0.006680948 -0.04084609
000150 af 65 01 3d 20 28 ce 3c 2a 23 bd 3c 63 6d 49 bd
       0.031591114 0.025165617 0.023088057 -0.049176585
000160 0e 3e 8b 3d 8f 51 13 bd d1 e7 3e bd 01 f4 5a 3d
       0.06798945 -0.035966452 -0.046607796 0.053455357
000170 d8 9b 52 3c 30 0b 7e 3c aa 18 66 3c c4 2d 7a 3c
       0.012854539 0.015505597 0.014043966 0.0152697
000180 80 cf 7a 3d 4f c1 18 3d 63 3e 61 bd de 67 1d 3d
       0.061233044 0.03729373 -0.054991137 0.038429134
000190 95 03 de bc ff e0 a2 bc a3 74 69 bc eb 17 55 3d
       -0.027101317 -0.019882677 -0.014249 0.052024763
0001a0 6f 32 95 bc 37 ba 1b 3d d0 dd 8e 3d ca 87 15 3b
       -0.018212525 0.038019385 0.06975901 0.0022816532
0001b0 07 1f 99 bd 9a 64 1b 3b 76 1c 0c 3c d8 cc 37 3d
       -0.07476621 0.0023711086 0.0085517075 0.04487309
0001c0 2e 7d 92 bd 8b c3 1c bd 45 3a 9b bd 6f e3 0a 3d
       -0.071527824 -0.03827242 -0.075794734 0.033908304
0001d0 43 80 9e 3b 60 74 46 bd 80 e2 02 bc 05 97 80 3c
       0.0048370673 -0.048450828 -0.007988572 0.015697012
0001e0 ca 01 47 3d e3 b5 de bc 34 ff a8 bc 24 d3 9b bd
       0.04858569 -0.02718634 -0.020629503 -0.07608631
0001f0 bf 4a 10 bd 21 f2 6e bd 69 f7 27 bd 22 d3 80 bc
       -0.035227533 -0.05833638 -0.041007433 -0.015725676
000200 7f 57 7a bd bf 03 7b 3c 5a 75 93 3b 44 22 41 3d
       -0.0611186 0.015320717 0.0045000734 0.04715182
000210 7c 0e b5 bc 17 e6 ad bc 54 7c 19 3d 78 f9 50 bc
       -0.022101633 -0.02122788 0.037472084 -0.0127547905
000220 f3 38 b4 3c 2d 13 e5 bc f9 0c 1a bd 15 4f 3b bd
       0.021999812 -0.027963245 -0.037610028 -0.045729715
000230 1b 3a 88 bd 0d 1b dc bc 1e 9a 94 bd 5e 6a 6b bd
       -0.06651708 -0.026868368 -0.07255958 -0.057474487
000240 8c ba 81 bd fb 96 78 3a 7f 09 6a bd f9 bd cb bc
       -0.06334409 0.0009482947 -0.057137962 -0.02487086
000250 84 b4 54 3c c8 3d 55 bd 14 38 05 3c 06 c9 39 3d
       0.012982491 -0.052060872 0.008131046 0.045357727
000260 47 8f 62 bc 98 df 8e 3c 68 1f 4d bd 18 8c ef bb
       -0.013828105 0.017440602 -0.05007878 -0.0073104016
000270 12 5c 19 bd 47 46 5a bb da c7 9c 3b 24 02 61 3b
       -0.03744132 -0.0033306049 0.0047845664 0.0034333551
000280 b1 c9 bd 3c 2f 6f 9d bb eb 42 0c bd e1 9b eb 3c
       0.023167463 -0.004804514 -0.034243505 0.028760852
000290 86 6e 7d bc 92 e6 b8 bc ad 95 9e bd eb 55 4d 3d
       -0.015468245 -0.022570882 -0.07743392 0.050130766
0002a0 6e 63 0e 3b 99 1c 41 3c be df ad bc 2a 8c 1d 3d
       0.0021726745 0.011786603 -0.021224853 0.03846375
0002b0 8c 80 34 bd ac ee 6f 3d 4d 7b 68 3c 79 30 4e 3d
       -0.044067904 0.058577225 0.014189553 0.050339196
0002c0 6d 0c aa bc 33 44 73 3c 4c 6b 82 3d be fd 75 3d
       -0.020757878 0.014847803 0.063681215 0.06005644
0002d0 ee 0d 88 bd 74 19 13 3d d9 4a 49 3d ee d4 86 bd
       -0.06643282 0.035912946 0.049143646 -0.06583582
0002e0 78 d2 58 3d de da c2 3c 08 5a 5a bd bb d2 90 3d
       0.052935094 0.023786005 -0.053308517 0.07071444
0002f0 ee 1a 47 bd b6 66 1f bd 89 bb 2a bd 60 2e 73 bc
       -0.048609667 -0.038916312 -0.041682754 -0.0148426
000300 03 8a 4e bb 18 63 22 3d ee fb 90 bd 4c 33 6a 3d
       -0.0031515367 0.039645284 -0.07079302 0.057177827
000310 bb 81 87 3b 4b 30 b7 bb 3d 39 30 bc ba 38 15 bd
       0.004135338 -0.005590474 -0.010755834 -0.03643105
000320 47 11 93 3d 5a 0c 6a bc 8f 57 42 bd 49 97 93 3b
       0.0718103 -0.014285171 -0.047446784 0.0045041186
000330 02 98 86 3d ba 83 51 bd d3 d7 2a 3d 56 dd 70 bc
       0.06571962 -0.051151015 0.041709732 -0.014701208
000340 73 8d 1f 3c 1d 58 13 3d 73 31 ea bb 25 0b 0c 3c
       0.009738314 0.035972703 -0.007147008 0.008547579
000350 a5 27 b4 bb b8 1c b6 3c ec 8d 27 bc af fe 90 3c
       -0.00549789 0.022230491 -0.010226708 0.017699568
000360 ae bb ed 3c 91 a7 2d 3d de 85 6b 3c c0 02 54 bc
       0.029020157 0.042396132 0.014375178 -0.012940109
000370 c4 b0 9d 3d e7 d9 90 b9 ae b6 86 3d e1 6b a3 3c
       0.07699731 -0.0002762817 0.06577812 0.019948902
000380 e6 b0 97 3d b8 e5 b5 3c b0 20 72 3d 6f b9 dc 3c
       0.074067876 0.022204265 0.059113204 0.02694389
000390 d3 75 92 bc 99 27 8b bc c6 e2 15 bd 81 51 5e bc
       -0.017878449 -0.016986655 -0.03659322 -0.013569237
0003a0 c6 a3 4e bd f1 27 3f bd 34 18 a1 bc 44 9b 9e 3d
       -0.050449155 -0.04666895 -0.019664861 0.07744458
0003b0 c9 02 55 3d 96 39 49 3c f7 ae a1 3d d0 72 95 3d
       0.05200461 0.012281796 0.078947 0.07297289
0003c0 24 09 97 3d 90 20 49 bd c2 51 2e bc 1e c2 9b bc
       0.0737479 -0.04910332 -0.01063961 -0.01901346
0003d0 55 11 6f 3c 72 8b 85 bb 80 9c c5 bb dd fb 3e 3d
       0.014591535 -0.004075461 -0.006030619 0.046626914
0003e0 52 84 0c 3c 88 b2 9a 3d 09 2d 5a bc 73 26 7d 3d
       0.0085764695 0.075535834 -0.013316401 0.061804246
0003f0 d2 2e 58 ba 4d be de bc 45 c0 89 3d 94 32 0c bd
       -0.0008246723 -0.027190352 0.06726126 -0.034227923

linear_2.bias f4 [56]
000000 0f 7a 72 bd 0f bf 68 3d 5e ec 27 bd f8 ec 5f 3d
       -0.059198435 0.056822833 -0.0409969 0.05466935
000010 55 44 42 bd 0f f6 1f 3d a7 da 17 3d 42 c3 59 3d
       -0.047428448 0.03905302 0.037073757 0.053164728
000020 31 f3 47 3b 3d 60 67 bb 1e 3b 53 bd 48 3c 74 3d
       0.0030509944 -0.0035305165 -0.05157005 0.0596278
000030 80 44 a7 bc 6b be 22 bd 20 4e 69 bc 37 d7 bc b7
       -0.020418406 -0.039732378 -0.014239818 -2.2511564e-05
000040 b5 70 63 3d 1d 06 3c bd 58 3e 76 bd e3 41 42 3d
       0.055527408 -0.045904268 -0.06011805 0.047426116
000050 69 1b 3b bd bb 1e 94 bb 22 ed 3a bd fb 9d 82 3d
       -0.045680437 -0.004520265 -0.045636304 0.06377789
000060 4c f8 25 bd 4f b0 80 3d e0 42 6a bd c9 0c 95 3d
       -0.040519997 0.06283628 -0.057192683 0.07277829
000070 4f 18 b5 3c 1c 41 95 3d 9d ba a0 bc 89 0b 58 bc
       0.022106318 0.07287809 -0.019620234 -0.013186344
000080 4e ed 12 3d a7 27 4c 3b b0 6d 25 3d 3a 07 7d 3d
       0.035870843 0.0031151564 0.04038781 0.06177447
000090 51 05 8e 3d 4f 3e 1a bb ab 4e 9f bc 58 2a 39 3d
       0.06934608 -0.0023535674 -0.019446691 0.045206398
0000a0 85 41 2f 3d 6c 78 6e 3d 83 eb 82 3d e7 ea 66 bc
       0.042787094 0.058220312 0.063925765 -0.014094091
0000b0 82 f3 02 3d 25 8c 15 bc 03 f0 79 3d d1 2a 8e 3c
       0.03197051 -0.009127651 0.06101991 0.0173544
0000c0 75 24 24 bd c9 c2 27 bc 4b c4 93 bd 56 1f d8 bc
       -0.04007383 -0.0102393115 -0.07215174 -0.02638213
0000d0 48 f3 fd 3b 8f 68 12 bd 2e a2 8d bd f2 67 96 bb
       0.0077499487 -0.035744246 -0.06915699 -0.004590028

linear_3.weight f4 [1, 56]
000000 bb 16 18 bc 76 f6 fe 3d 4c d0 ab 3c d0 49 90 3c
       -0.009282763 0.124493524 0.020973347 0.017613322
000010 bc de 00 be e1 5b f7 3c 31 86 74 bd 52 e4 4a bd
       -0.12584966 0.030195178 -0.059698287 -0.04953415
000020 51 27 28 bd bf e2 f5 bc ca 7c d7 3d 92 ea 05 3e
       -0.04105312 -0.030015348 0.105218485 0.13077763
000030 70 16 09 3e 4c 0f e6 bd 04 f0 3b 3d c3 10 b6 3d
       0.13387465 -0.112333864 0.045883194 0.08889916
000040 69 a2 0f 3d a7 eb 4e bd 56 73 d1 bd a5 ee d4 3c
       0.035066996 -0.050517704 -0.10227077 0.0259927
000050 78 95 05 be 21 41 fc 3c ad e5 06 3e c4 1e 2c bd
       -0.13045299 0.030792775 0.13173552 -0.042021528
000060 c5 4e 7e bc 93 68 75 3d 65 5f 22 bd d0 96 f5 3d
       -0.01552171 0.059914183 -0.039641757 0.11991656
000070 e7 00 f3 3d 7b 9e 78 3d 4d 80 ce bd 31 21 a0 3d
       0.118654065 0.060698014 -0.10083065 0.07818831
000080 50 f9 73 bc 00 35 04 3e 6e 86 48 bd ea a0 7b bd
       -0.014890984 0.12910843 -0.048956327 -0.061432756
000090 ff 3b ab 3d a5 74 cc bd 1c 33 14 bd 04 fc f7 bd
       0.08361053 -0.09983186 -0.036181554 -0.12108615
0000a0 00 23 53 3c bf ae f1 bd a8 f3 57 bd eb 6b e7 3d
       0.012886763 -0.11800908 -0.052722603 0.112998806
0000b0 f0 dc 69 bd 06 8c 07 bd 1c 25 4e bc 84 c8 c1 3d
       -0.057095468 -0.03309252 -0.01258209 0.094620734
0000c0 c3 46 dc 3d c5 22 56 3c 9c 41 d6 bd 11 bd 82 3d
       0.10755684 0.013069813 -0.10461733 0.06383718
0000d0 27 53 0b 3e bf 13 5b bd ab e2 3b bd 3d 01 a2 3d
       0.13605939 -0.05348563 -0.045870464 0.079103924
