ndp/weights/pretrain-5.pt (torch, 68847 bytes, 5 tensors)

linear_1.weight f4 [100, 125]
00000000: 0541 c93d ab7d cc3d d38e 863d 321c 28bc
00000010: d4f6 00bd c4e8 8e3c 5595 3cbd 3ad9 47bd
00000020: 0de2 363c 58ac efbc 70a4 de3c f85e 963b
00000030: 2092 6d3d de63 61bd 3a75 51bd 201b 9f3c
00000040: ff64 813d e448 8ebd 7e36 c43d 1508 963d
00000050: 7ec2 273d 3667 913d e7f6 c93d 1a49 8cbd
00000060: 0a02 fc3c 3f27 b63d 15fe 713d 03ba 4f3d
00000070: 8861 b73b 155a f03c e3aa b23d 4c75 2e3c
00000080: 6be3 633d 7555 bb3d b91e 343b b7cd d73c
00000090: e22d 223c 6b1c 6fbc 6ab8 3f3c 6e60 58bd
000000a0: 0fda b5bc fd04 33bd ac17 78bd 30e1 80bd
000000b0: 7213 d53d 67f5 d0bc 7c0c 2bbc 5e59 c43d
000000c0: 43c6 6f3d 9950 893d 3856 0b3d afd7 163d
000000d0: f06f b23d b5f9 5abd 196e 8fbc 5d13 7c3d
000000e0: 2719 0fbd 717e cebb 7c0f bf3c 9a18 ec3a
000000f0: 8629 b53d ba82 7cbc dc7c 1c3d 4da1 9fbb
00000100: f278 76bd f9e2 a0bc 5c01 ba3d 0ec0 21bd
00000110: 7758 f53c bcd6 03bd 5887 16bd e5bb 85bc
00000120: ff12 4f3d be2a 6bbc aa00 193d f791 643d
00000130: 24e2 21bd 6223 cf3d a42e 973d 7e4f 81bd
00000140: 5aa0 293c b7d2 023d 4b40 4e3d be88 21bd
00000150: 14f8 963d 6290 213c bf81 f7bc 7d9a efbc
00000160: 1da6 013d 7a77 b43d 2ec3 d2ba 274f 423c
00000170: 4190 ddbc 4495 be3c 043d d83d 9e83 b83d
00000180: 73eb af3d f61f 3abc a478 043d e352 8d3d
00000190: b524 a2bc 0ee3 c4ba a305 06bd 4af4 32bd
000001a0: 2ebe 25bd 9f03 763d 2c0f c83d 52f1 b53d
000001b0: c34d 06bd 672f d53d 19be ba3d ebc2 593d
000001c0: e7f4 813d aae4 d13d 663f c33d b8e7 c13b
000001d0: 36db 503d 5152 9e3d 70d8 d43d 46d4 d63d
000001e0: 5602 3a3c 706d c43d b983 12bd 9cbb 2dbd
000001f0: 5748 91bd b176 a5bb 3c78 3b3d fe81 4d3b
00000200: 4638 9b3d 7b7b 4d3d 1113 d5bc c493 b33d
00000210: f143 9dbc 089f 8ebd 41fb 903d 6b6f b13d
00000220: 3899 57bd 634e d33d 566f 553d f913 c13d
00000230: 5bc8 9e3d ec11 c33c e0f3 77bc c043 5d3d
00000240: a756 96bb 4f93 8ebc 46bc 9a3d 04c0 873d
00000250: 8c0f 6d3d 7923 81bd 99cb 273d 14aa ab3d
00000260: 420d 053c d637 d63b d406 75bd 2c78 cf3d
00000270: 9b5a e33c fc78 19bc f466 a73d f092 6d3d
00000280: e1c6 5f3d 9a94 483d 1ae5 7b3d 2723 52bd
00000290: c23e 57bd 514e 473d 6588 0dbd 56b7 913d
000002a0: 74d3 a63d 6112 74bd 519a 723c cd42 aa3d
000002b0: efe8 2c3d 1c8c 543d f2c0 c33c ceec 253d
000002c0: dc5a d9bc 4281 be3d 7c01 7d3c d5e7 cc3b
000002d0: aac0 1b3d 1cb5 c43d 2a36 81bd 5a48 05bd
000002e0: ba46 683d 8387 9ebc c4cf f0bc 9760 2abc
000002f0: a919 a83d e61a 0d3d 8e8b 3cbc 8385 8ebc
00000300: 6ab2 a73c 1c21 ce3d 7050 1f3d 79cb 66bd
00000310: eb86 8ebb a0ff cfbc 5206 b4bb 3406 80bd
00000320: 6ced 8cbd 8f46 67bd 9b59 9d3d b419 3dbc
00000330: b938 9cbb a9b4 273d c958 06bc 238a 5cbd
00000340: 00a8 2d3d 463b 9f3d 5448 973d d6bc 223d
00000350: ab51 2cbd 37b0 57bd 98b7 8cbd bd40 71ba
00000360: 54f2 ca3d ba54 5cbd 2001 e1bc d07e 22bd
00000370: b164 943d 5db6 8ebd 4091 bf3d 82d1 103d
00000380: 069f 013d a546 7e3d 1c14 243d a41f 93bd
00000390: df72 dc3c 5e40 093c bccf 0e3d 3a89 33bd
000003a0: df51 873d 31d7 2fbd 17fa e3bc 3a5c 683d
000003b0: 83c3 3c3d 297a c03d 9f4d 263c 64ae 45bd
000003c0: def2 2abd a195 5e3c f244 173b c650 6e3d
000003d0: c160 eaba 2506 883d 252e 383d da49 8fbc
000003e0: 81f5 443d 02c7 bf3d c470 823d f00a 853d
000003f0: 0470 01bd 1556 133c e493 95bd 53f1 92bb
0.098268546 0.09984907 0.0657021 -0.010260629 -0.031485394 0.017444976 -0.04604085 -0.048791148
0.011162293 -0.029256985 0.02717802 0.004588958 0.058000684 -0.05502688 -0.051137187 0.019422114
0.063180916 -0.069474965 0.09580706 0.0732576 0.040956967 0.07099764 0.09861546 -0.068498805
0.030762691 0.08894204 0.059080202 0.050714504 0.0055963434 0.02933983 0.08724 0.010648083
0.055636805 0.09147159 0.0027484132 0.02634321 0.009898635 -0.014594178 0.011701683 -0.052826338
-0.022198705 -0.04370593 -0.06056945 -0.06292951 0.104040995 -0.025507642 -0.010439988 0.09587358
0.058538686 0.06704826 0.03401777 0.036826786 0.08712757 -0.053460795 -0.017508553 0.061541904
-0.034936097 -0.006301694 0.023322813 0.0018012703 0.088458106 -0.015412027 0.038205013 -0.0048715235
-0.060173936 -0.019639479 0.090822905 -0.0394898 0.02994941 -0.03218721 -0.036750168 -0.016324947
0.050555225 -0.014353452 0.03735415 0.055803265 -0.039522305 0.101141706 0.07381943 -0.0631399
0.010353172 0.031939235 0.050354283 -0.039437048 0.07371536 0.009861084 -0.030213235 -0.02924847
0.03165256 0.08811851 -0.0016079897 0.011859692 -0.027046325 0.023264535 0.10558513 0.09009479
0.0858983 -0.011360159 0.032341614 0.06900575 -0.019792894 -0.0015021281 -0.03272022 -0.043690003
-0.040464573 0.060062047 0.09768519 0.08883919 -0.032789003 0.10409432 0.091182895 0.053164404
0.063455395 0.10248692 0.09533577 0.0059175156 0.050990306 0.07730544 0.10392845 0.10489707
0.011353096 0.09591186 -0.03577015 -0.042415246 -0.07093876 -0.0050495495 0.04576896 0.0031358
0.07579093 0.05016659 -0.026010068 0.087684184 -0.019197436 -0.069639266 0.07079173 0.086638294
-0.052636355 0.103176855 0.05210813 0.094276376 0.077530585 0.023812257 -0.015133828 0.05401969
-0.0045879665 -0.017404227 0.075554416 0.06628421 0.057876155 -0.06305594 0.04096565 0.08382049
0.008120837 0.006537418 -0.059820965 0.10130343 0.027753165 -0.009367224 0.081739336 0.05800146
0.054633025 0.048969842 0.061497785 -0.051303055 -0.052550085 0.048658673 -0.034553904 0.07115047
0.081458 -0.05958784 0.0148073 0.083135225 0.04221433 0.05189143 0.023895714 0.040509038
-0.026532583 0.09301998 0.015442248 0.0062532225 0.038025536 0.09604856 -0.06309159 -0.032539703
0.056708075 -0.019351726 -0.029395945 -0.010399005 0.08208019 0.03444948 -0.011507882 -0.017397648
0.020470817 0.10064909 0.03889507 -0.05634639 -0.0043495796 -0.025390446 -0.0054939175 -0.06251183
-0.06881222 -0.056463774 0.076831065 -0.011541773 -0.004767504 0.040943775 -0.008199879 -0.053842675
0.042396545 0.077749774 0.07386842 0.03973087 -0.042070072 -0.052658286 -0.06870955 -0.0009203067
0.09909502 -0.05379174 -0.027466357 -0.03967172 0.07245768 -0.06968377 0.09353876 0.035356052
0.031645797 0.06207909 0.04005824 -0.07183769 0.026910244 0.008377163 0.03486608 -0.04383204
0.066074125 -0.042929832 -0.027829213 0.05672858 0.046084892 0.093983 0.010150342 -0.048262015
-0.041735522 0.013585479 0.0023081866 0.0581825 -0.0017881618 0.06641797 0.04496588 -0.01749127
0.048085693 0.093641296 0.063691646 0.06496227 -0.031600967 0.0089926915 -0.073035985 -0.0044843345

linear_1.bias f4 [100]
00000000: 99e7 c63d 8ad8 67bd b95b 4dbd d440 283c
00000010: b07e 0a3d 88a5 f6bc 68d9 0abb cf99 4e3b
00000020: 9942 793c 2bbe 51bd 874a 4bbd b73d 8d3c
00000030: 18b7 b83d ad71 373d 0f91 7a3c 7273 b53d
00000040: 0432 7b3d ab59 60bd e8e2 073d 8b8a 62bd
00000050: 7daf 51bd e540 b0bd 1cfe a4bd 3f1f 92bd
00000060: 041f 333d 46f8 843d 3abe 633d df75 84bc
00000070: 4c28 133d bf53 913d 3c86 b03d 5640 b83d
00000080: e005 a33d fed9 d53c 1637 74bd 77cb 62bd
00000090: 9504 a23d 250f 95bd b123 8abc 19f6 653d
000000a0: c98e eb3c 981f b7bc 6e91 a5bd d874 45bd
000000b0: 7af8 803d 1461 e0bc 8ce8 113d 2298 943d
000000c0: c417 f9bc fdf8 a1bd 7939 66bc 0af9 21bd
000000d0: bb59 09bd f74e 733d 46f2 50bd 291b ad3d
000000e0: 7990 87bd a851 383d 9b37 883d 98ee 03bd
000000f0: fe8e 583d b544 923d e226 8a3d 315b b2bc
00000100: 05f2 f8bc e4f8 e93b 63b0 823d 7e18 b0bd
00000110: bfb6 91bd 393a da3b 3e78 20bd 6438 80bd
00000120: 0e15 d53d 6471 0b3d 898e b93d 97a0 273d
00000130: df31 423d e863 7ebd 5366 1b3d 74a3 983d
00000140: 2d87 543d e513 323d d261 f4bc 2866 723d
00000150: 5b9c e53c ab7f 3bbd 2c63 32bd 66fb 87bd
00000160: ae81 a0bc 06b9 c83d 62c2 7b3c 4f57 62bd
00000170: 989d d8bc 7e9b 383d 2e4a 973d 3687 c43d
00000180: 3827 273a f422 5bbd 03c5 263c 5aa3 7fbd
0.097121425 -0.056602992 -0.0501363 0.0102693625 0.033812225 -0.030108228 -0.0021186713 0.0031524783
0.015213632 -0.05120675 -0.04963162 0.017241342 0.09019297 0.044786144 0.015293374 0.0885991
0.061326995 -0.054773014 0.03317538 -0.055307906 -0.05119275 -0.08606128 -0.0805628 -0.07134866
0.04373075 0.06492667 0.055601336 -0.016169487 0.035927102 0.070960514 0.08619353 0.08996646
0.07960105 0.026104923 -0.059622847 -0.05536982 0.0791103 -0.07278279 -0.016862722 0.0561429
0.028754609 -0.022353932 -0.08084379 -0.048207134 0.06297393 -0.02739004 0.035622165 0.072555795
-0.03040684 -0.07908819 -0.0140517885 -0.039544143 -0.03353284 0.05940148 -0.0510123 0.08452446
-0.06619353 0.04499975 0.06651231 -0.032209963 0.052870743 0.07142011 0.067456976 -0.021772
-0.030388841 0.007140266 0.06381299 -0.085984215 -0.07114934 0.0066597727 -0.039177172 -0.06260756
0.104044065 0.034043685 0.090603895 0.040924635 0.047410842 -0.062106997 0.03793938 0.07453051
0.051886726 0.043476004 -0.0298318 0.059179455 0.028028658 -0.04577605 -0.04355161 -0.06639747
-0.019593086 0.098009154 0.015366169 -0.055259045 -0.026442334 0.045070164 0.073871955 0.09596102
0.00063763885 -0.05350013 0.010178807 -0.062411644

linear_2.weight f4 [40, 100]
00000000: 9a82 9d3d 9ded 8c3d ec41 e03d 7dbf bd3d
00000010: b136 28bd f1ad 5f3d 8bef 01bb 5951 883d
00000020: b4f2 463d da1a 9abd 5651 47bd d12a 3fbc
00000030: 9906 603d 311a b73d 3019 c43d e329 793d
00000040: f8a2 b73b 95f1 8bbd 6dbe 1bbd 78f8 c2bc
00000050: 514f 82bd 20ce 86bd 9afb 8f3d a059 1c3d
00000060: f853 7e3d b9fe 063d df99 a8bc fdcb 9e3d
00000070: 3dcc 9b3c 5fb1 a0bd bf36 c33c 809e ce3d
00000080: 6f14 bb3d 27da c03d 7151 a6bb 83cd 83bd
00000090: 87a5 4bbd fb76 b03c 643b 09bb 1e8e be3d
000000a0: 891d 7ebb e03b 95bd f5e6 143d 076a 07bd
000000b0: bde5 803d 12c7 91bd 46e4 96bd f45f e53d
000000c0: 6f21 b13d bc61 a63d 7143 ab3d 3678 d03d
000000d0: 3264 073d fa05 ee3d 1656 acbd 8a66 a23d
000000e0: bfcd 413d a9ca 213c f888 f53c e2e8 95bd
000000f0: 663c 08bd 27ba b13d 5e61 a43c 3f1b 93bd
00000100: f381 a13d 99c9 1cbc 0af0 893d 68b7 03bd
00000110: da9c 143d 75ec 813d b97c 773d 3fae e43c
00000120: eaaa 503d ac19 88bd 4e6f 22bd 0eae 633d
00000130: b63f 14bd aa01 6fbd 7e52 38bd dfff 83bc
00000140: 3461 d43d 10cc db3c 23a4 65bc 5105 423d
00000150: 6834 d53d 92d0 303c 5292 b53d ad0b 373d
00000160: 13b3 1b3d 17a6 a7bd 281c ae3c 5f59 993d
00000170: 57e3 533c 9c18 de3d 7c4b 8b3d 7e89 bc3d
00000180: 52f0 903c cf12 b53d 7d7b 8a3d fa82 a5bd
00000190: 10bb cd3c 2137 e5bc 6968 14bd b32f 863d
000001a0: 6534 c73d bef7 c33d a47f 7c3c 0553 b1bd
000001b0: 749a c7bd d790 3a3d 6af1 51bd 6f6b 533d
000001c0: 9932 793d a023 963c 72cd 023d 08e1 6b3d
000001d0: 15fe c03c f8ef 20bd 85ec a5bd 957c 83bd
000001e0: 6edf b9bb b9b0 d23d 9796 9c3d bb84 e13c
000001f0: ee67 aebd db86 4b3d 4e67 2e3d c04a 143c
00000200: 214c ecbc 132d b13d 2637 93bd 593a b83d
00000210: 67d0 8a3d 41b3 a6bd c1a2 ffbc 31b7 9bbc
00000220: c175 593d d05c d4bc 356a bf3d 9f74 793c
00000230: 9133 39bc 3620 643d f38a 853d cbb5 bd3d
00000240: 7d5d 243c 47f4 8dbd f8dd 2abd 0e27 0ebd
00000250: 6861 843c a3e4 833d 0993 06bd c8cb 7a3d
00000260: 81af 93bd b277 63bd e3e4 1e3c 90fa f0bc
00000270: 7631 a53c 9a9c 343d f141 9dbd 8cd3 82bd
00000280: 389a 6dbd f4b8 e33c 4225 72bd 2093 2c3c
00000290: 52ef 9cbd 103a 14bd ae92 be3d c60b 85bd
000002a0: 3a90 8abc fe2c 1a3d 2d50 66bd 9f5f 763d
000002b0: db9a ad3d 27c6 01bd 1a0b 623d be5c a23d
000002c0: 0156 6e3c c44b 27bd d766 c63d ee2c b43d
000002d0: 3d73 df3d 3e9c 2dbd 10b1 843d e5a8 29bd
000002e0: 0513 67bc 9ed6 b13d a3b6 6d3d 47c0 53bd
000002f0: 06ca e33c f4ec b93d a50f 263d 6d9a 933d
00000300: 77a5 5ebd 4d64 a9bd 51ef d2bc dc0d 653d
00000310: 3f7b 97bc 6caf 393d 0229 683d b3b4 d63d
00000320: c15c 373d 2c79 ed3d a038 f73b ca51 b33d
00000330: 82ff 523d d563 09bd ace2 ddba b159 c2bc
00000340: 23dd 113d 1744 483c 2cc0 2d3d a8b0 a73d
00000350: 9f17 da3d 3ec1 8ebd 9f18 963d 39ca 3a3d
00000360: 1311 c63d dfc2 31bd c944 683d ae24 3fbd
00000370: 1cb4 9a3d 99bf 5ebd 28ce 2ebd 0a57 6e3d
00000380: 68a4 76bd a5c9 8e3d ea5a e6ba b12e d63d
00000390: 2bb4 3dbb b546 d73d 7124 463d 62d5 14bc
000003a0: f80b 933d fe1c 2fbd 55f8 1bbd b263 bb3d
000003b0: 40a1 a73d 9336 a53d 5a99 913d 4c7d 6b3d
000003c0: b182 0dbd e56c 7f3d c3b9 663d 0891 c13d
000003d0: 4008 dc3d 6552 963d f715 463d 797d a7bc
000003e0: 70db dc3d e036 b1bd 1111 63bd 612f 36bc
000003f0: 1ef7 5a3d da97 09bd 0ab3 07bc 1f82 b83c
0.07690926 0.06881259 0.109500736 0.09265039 -0.041067783 0.054609243 -0.0019826617 0.06656141
0.048571303 -0.07524653 -0.048661552 -0.011667923 0.054693792 0.089405425 0.09575117 0.060830962
0.005604144 -0.068331875 -0.0380234 -0.02380012 -0.06362785 -0.06582284 0.07030411 0.03817141
0.062091798 0.032957766 -0.020581184 0.077537514 0.019018287 -0.07846331 0.023829816 0.10088825
0.09134757 0.09416609 -0.0050756265 -0.064356826 -0.049718406 0.02154111 -0.002093994 0.093044505
-0.0038774929 -0.07286811 0.03635307 -0.0330601 0.06293819 -0.07118048 -0.073677585 0.11199942
0.08648955 0.0812411 0.08362473 0.101791784 0.033054538 0.11622234 -0.08414857 0.07929714
0.047315355 0.009874978 0.029972538 -0.073198095 -0.033260725 0.08678084 0.02006596 -0.07182931
0.07886114 -0.009569549 0.06735237 -0.03215733 0.036282398 0.06343929 0.06042168 0.027915118
0.050944246 -0.066455215 -0.03965693 0.055585913 -0.036193572 -0.058351196 -0.045000546 -0.01611322
0.103701025 0.026830703 -0.014016184 0.04736835 0.10410386 0.010791915 0.08865799 0.04468887
0.038012575 -0.08185976 0.02125366 0.07487749 0.01293262 0.108445376 0.06801507 0.09205912
0.017692719 0.08841478 0.06761835 -0.080816224 0.025113612 -0.02798039 -0.036232386 0.06552067
0.0972679 0.095687374 0.015411291 -0.08658413 -0.097462565 0.045548286 -0.05125562 0.05161613
0.06083927 0.018327534 0.03193421 0.057587653 0.023558656 -0.039291352 -0.08101753 -0.064202465
-0.005672387 0.102876134 0.0764591 0.027529111 -0.08515917 0.049689155 0.042578988 0.009051025
-0.028844895 0.08651175 -0.07188253 0.08995504 0.06778031 -0.08139659 -0.031205537 -0.01900825
0.053090815 -0.025923163 0.09346429 0.015225559 -0.011303798 0.05569478 0.06520643 0.0926319
0.010032055 -0.06931358 -0.041715592 -0.034705214 0.016159728 0.06440093 -0.032855067 0.061229497
-0.07211209 -0.055534072 0.0096981255 -0.029416353 0.020165186 0.04409466 -0.07678593 -0.063880056
-0.058008403 0.027798153 -0.059117563 0.010533124 -0.07662834 -0.036188185 0.09305321 -0.06496386
-0.016914476 0.037640564 -0.056228805 0.060149785 0.08476802 -0.031683113 0.05518637 0.079278454
0.014546872 -0.04084374 0.09687584 0.08797632 0.10910652 -0.042385332 0.064790845 -0.041420836
-0.014103656 0.08683513 0.058035504 -0.05169704 0.027806293 0.09078398 0.040542264 0.07207189
-0.05435702 -0.08271084 -0.02574888 0.05592142 -0.018491386 0.04533331 0.056679733 0.104836844
0.04476619 0.11595377 0.007544592 0.087558344 0.051513202 -0.033542473 -0.0016928515 -0.023724409
0.035611283 0.012223265 0.042419598 0.081879914 0.106490366 -0.06970452 0.07328915 0.04560301
0.096712254 -0.043398734 0.056706224 -0.04666584 0.075538844 -0.05438194 -0.042677075 0.058188476
-0.060215384 0.069720544 -0.0017574702 0.104581244 -0.00289465 0.10511533 0.048374597 -0.009084078
0.07180017 -0.04275226 -0.038078625 0.09149875 0.08185053 0.0806705 0.071093276 0.05749254
-0.034548465 0.06235971 0.0563295 0.09451491 0.10743761 0.07339934 0.04836079 -0.020445572
0.10784042 -0.08653045 -0.055436198 -0.011119694 0.053458326 -0.033592083 -0.008282432 0.022522984

linear_2.bias f4 [40]
00000000: ea49 02bd ecea 82bd 64a3 ec3c c91e 49bc
00000010: 0874 94bd 608b e83d afa2 f73c 0206 99bd
00000020: 1fb3 433d c7f0 e03c 17c2 94bd a8a7 c9bd
00000030: 396d 8b3c e326 5cbd 360f 603d ad22 5fbd
00000040: 3690 4a3d 6c0a b03d 9824 b2ba 2ff4 07bd
00000050: ec54 833d 6a84 ac3d 24d1 aabc 12cb b4bd
00000060: d6ba 1a3d 8d99 753d 54b7 a03d 2734 b13d
00000070: ac71 1e3d 7f4a fa3a 95d9 ba3d bbd8 ca3d
00000080: 0988 a13d 6922 f8bb b277 8bbd 4a88 61bd
00000090: afdc 8bbd fc00 61bd bc9f a83d b3a0 d83d
-0.03180877 -0.06392464 0.028886504 -0.012275406 -0.07248694 0.11354709 0.03022894 -0.07471849
0.047778245 0.027458562 -0.07263582 -0.09846431 0.017019855 -0.053748023 0.054702006 -0.05447643
0.049453937 0.08595738 -0.0013591228 -0.033191856 0.06412682 0.084236935 -0.02085168 -0.08827795
0.037775837 0.05996089 0.07847467 0.086525254 0.038682625 0.0019095688 0.09123532 0.09904619
0.07887275 -0.0075724614 -0.068099394 -0.055061616 -0.068292014 -0.05493258 0.08233592 0.10577526

linear_3.weight f4 [1, 40]
00000000: db25 943d 7ed0 f63c d285 913d 6db1 dfbc
00000010: c33a f3bd 5057 2d3e 3470 d8bc 119a 5fbd
00000020: fa99 f53d 2b2b 0a3e 3ebd 993c 81ad 09be
00000030: 0970 033d e0c6 93bc 71af 0e3e 256f fbbd
00000040: 1695 073e 905b 203e 640c 233e efa2 1d3d
00000050: ac69 343d c99d fc3d 5334 0abe f0a1 eebd
00000060: f56b e13d 58bf 15be 7958 2bbd c712 2c3e
00000070: f094 05be faa2 c8bd 1724 323d 01c3 1d3e
00000080: 3ef9 2a3e f98f fe3d a779 fabd 3e11 b93c
00000090: 29e7 37bd 7fe9 f33d d8e6 ce3c 36c0 b33d
0.07233783 0.030128714 0.07105602 -0.027306283 -0.11876442 0.16927838 -0.02642069 -0.05459029
0.11992259 0.1349303 0.018766996 -0.13445093 0.032089267 -0.018039167 0.13934113 -0.122770585
0.13240466 0.15659928 0.15922695 0.038485464 0.04404609 0.12334783 -0.13496523 -0.11651981
0.11006919 -0.14623773 -0.04183242 0.16804038 -0.13045096 -0.0979671 0.04349145 0.1540642
0.16696641 0.12429804 -0.122302346 0.02259123 -0.044898186 0.1190977 0.02525656 0.08776896
