ndp/weights/pretrain-7.pt (torch, 316143 bytes, 5 tensors)

linear_1.weight f4 [196, 343]
-0.02741489 -0.055213843 0.0069089495 -0.017491367 -0.00057913316 0.005948194 -0.010904386 -0.051494457
-0.029751448 0.019046731 0.012491835 -0.04998676 0.025200848 -0.006450186 -0.020404086 0.046156075
-0.0031429657 0.00995306 -0.03089981 -0.053229034 -0.05290239 0.018588565 -0.050788086 0.029563827
0.030251617 -0.005016819 -0.0020089292 0.036008842 0.015552521 0.04434146 0.0015598921 0.027822543
0.007890674 0.016714776 0.011582073 -0.028225344 0.00349344 -0.017035902 -0.050053295 0.014448205
0.04500084 -0.014230964 0.028433176 0.0061002313 0.016617093 -0.028425977 -0.007871453 -0.011281428
-0.029613482 0.03179132 -0.035901975 0.043476406 -0.026256226 0.002832349 -0.033738058 -0.027282646
-0.02069519 -0.045822658 -0.037859064 -0.024170972 0.027513254 0.0104611525 0.012973953 -0.037635196
0.009321627 0.03692626 0.010190323 0.034936015 0.0013129488 0.038747232 -0.033793464 0.040959615
0.024604917 -0.00034032765 -0.028977046 -0.032708526 -0.0035425713 0.041397307 0.0454476 -0.051218256
0.03391674 -0.05606167 0.0005098723 0.0018906284 -0.031172186 0.010104299 -0.039744895 -0.0055690627
0.014364297 -0.007728809 -0.039030485 -0.015257986 0.049059857 -0.053106464 0.016979111 0.024853285
0.014573454 -0.021664456 0.026099356 0.028018277 0.0057604806 -0.045187976 0.030035477 0.04189495
-0.0079824645 -0.010843353 -0.048273165 -0.020285439 0.013485503 0.011629819 0.039910488 0.032230448
-0.05737511 0.0121165775 0.037981458 -0.039102178 0.025297316 -0.04839078 -0.052649736 -0.015130026
0.02528578 -0.021698508 -0.017972339 -0.015897235 -0.014362697 -0.004011874 0.0055528916 -0.046023097
-0.001957835 -0.057030894 0.028599951 0.046198644 0.026723223 0.035773758 -0.0035474924 0.016583137
0.022018358 -0.0547959 0.020898636 0.016453147 0.042354956 -0.03872257 -0.053345032 -0.047229525
-0.0037826244 0.04032972 0.044628497 0.039351754 0.039535247 0.02509276 -0.014821283 0.018078107
-0.025873903 0.04790966 0.0047937743 -0.023506755 0.033163305 0.023572575 -0.024055382 0.04761737
0.044346966 0.0048079956 0.035130683 -0.011919179 -0.02380332 0.034022495 -0.010340273 0.02787766
0.009267304 -4.1376396e-05 -0.037002742 -0.041060094 -0.012265769 -0.03592427 -0.022219334 0.033523664
0.03999327 0.03642994 0.018926077 -0.014198252 -0.0016008272 0.047170404 0.010505259 0.046330366
-0.042360082 -0.017677015 -0.0266822 -0.031273797 0.018050244 -0.044422854 0.025924565 -0.032948684
0.047355324 0.038183972 0.018741045 0.006999135 -0.035760213 -0.03214595 -0.042581137 0.026393313
0.01600246 0.027299855 -0.045303773 -0.045002606 -0.032729007 0.047696568 0.04048043 -0.05357755
-0.009797478 0.0197932 0.020755047 -0.05323203 -0.013494848 -0.016793108 -0.024148315 0.040782213
-0.013512631 -0.0051312847 0.024490347 -0.02284107 -0.042218942 0.036333904 0.0204527 0.0025858977
-0.058314152 -0.02328964 -0.050724175 -0.01589049 -0.014798455 0.04575937 0.027702542 0.04393137
0.012676731 -0.00943823 -0.031932462 0.039550345 -0.05121491 -0.05173319 -0.01821669 -0.023294868
-0.005113814 -0.010297304 0.017473849 -0.055532828 -0.045902453 -0.044860788 -0.02571222 -0.005950906
0.018509539 -0.051645637 -0.04042398 -0.030064078 -0.049477816 0.02965566 -0.039825793 -0.021530163
00000000: 3195 e0bc e927 62bd 7864 e23b 0e4a 8fbc
00000010: f8d0 17ba 11e9 c23b 4fa8 32bc daeb 52bd
00000020: 4fb9 f3bc e407 9c3c 8eaa 4c3c ebbe 4cbd
00000030: 0272 ce3c 155c d3bb 7826 a7bc 270e 3d3d
00000040: 37fa 4dbb 2912 233c 9921 fdbc b006 5abd
00000050: 2db0 58bd 0c47 983c 2b07 50bd d72f f23c
00000060: 3dd2 f73c 2164 a4bb 3da8 03bb 027e 133d
00000070: 00d0 7e3c 649f 353d 4b75 cc3a 1aec e33c
00000080: e347 013c 6ded 883c bcc2 3d3c d638 e7bc
00000090: 33f2 643b e08e 8bbc af04 4dbd 2ab8 6c3c
000000a0: cd52 383d fd28 69bc b1ec e83c 73e4 c73b
000000b0: 9220 883c 98dd e8bc 44f7 00bc bdd5 38bc
000000c0: f997 f2bc 9d37 023d f30d 13bd 5114 323d
000000d0: 4c17 d7bc ee9e 393b eb30 0abd db7f dfbc
000000e0: f688 a9bc 8ab0 3bbd 1b12 1bbd 3402 c6bc
000000f0: 7a63 e13c 4165 2b3c b490 543c 5d27 1abd
00000100: bdb9 183c fd3f 173d 50f5 263c 1119 0f3d
00000110: 4017 ac3a 6bb5 1e3d 046b 0abd 45c5 273d
00000120: 4090 c93c 016e b2b9 4561 edbc 60f9 05bd
00000130: 7c2a 68bb 3990 293d 4327 3a3d 3cca 51bd
00000140: 48ec 0a3d eca0 65bd f3a8 053a f6ce f73a
00000150: d05c ffbc 808c 253c 8bcb 22bd af7c b6bb
00000160: 3a58 6b3c f341 fdbb 6ede 1fbd a2fc 79bc
00000170: fdf2 483d 2a86 59bd c717 8b3c 1e99 cb3c
00000180: 7fc5 6e3c a879 b1bc 51ce d53c 9686 e53c
00000190: 6ac2 bc3b 0717 39bd f60c f63c 0a9a 2b3d
000001a0: e2c8 02bc 52a8 31bc 15ba 45bd a62d a6bc
000001b0: 4df2 5c3c ff8a 3e3c 2e79 233d 1304 043d
000001c0: 2a02 6bbd 9c84 463c 7292 1b3d 9b29 20bd
000001d0: 513c cf3c 6935 46bd 40a7 57bd eee3 77bc
000001e0: 2024 cf3c 12c1 b1bc ba3a 93bc eb3a 82bc
000001f0: 8451 6bbc 0a76 83bb 08f5 b53b b782 3cbd
00000200: 054f 00bb 3a99 69bd 724a ea3c ca3a 3d3d
00000210: a9ea da3c 8187 123d 0c7d 68bb 5cd9 873c
00000220: d85f b43c aa71 60bd 9e33 ab3c c0c8 863c
00000230: 647c 2d3d 8f9b 1ebd 5280 5abd bf73 41bd
00000240: e8e5 77bb c730 253d 5fcc 363d 4e2f 213d
00000250: b6ef 213d 558f cd3c f7d4 72bc 8a18 943c
00000260: 82f5 d3bc eb3c 443d 1815 9d3b 3d91 c0bc
00000270: 3fd6 073d 461b c13c cb0f c5bc 6e0a 433d
00000280: 2aa5 353d 648c 9d3b 31e5 0f3d a948 43bc
00000290: 2eff c2bc 2c5b 0b3d 406a 29bc b15f e43c
000002a0: e4d5 173c 918b 2db8 3090 17bd a12e 28bd
000002b0: 5df6 48bc 5425 13bd 5205 b6bc 1c50 093d
000002c0: fccf 233d 9037 153d dc0a 9b3c c99f 68bc
000002d0: d9d2 d1ba c135 413d 401e 2c3c e9c4 3d3d
000002e0: c481 2dbd 63cf 90bc a194 dabc f418 00bd
000002f0: 1bde 933c bdf4 35bd c15f d43c 33f5 06bd
00000300: a8f7 413d cc66 1c3d d286 993c 0059 e53b
00000310: 4d79 12bd 79ab 03bd 8f69 2ebd ca36 d83c
00000320: 9717 833c f2a3 df3c 7390 39bd a754 38bd
00000330: da0e 06bd 7a5d 433d cfce 253d 2274 5bbd
00000340: 9a85 20bc 5925 a23c 7d06 aa3c d409 5abd
00000350: 7f19 5dbc b391 89bc b0d2 c5bc 400b 273d
00000360: 1564 5dbc 5624 a8bb fb9f c83c 321d bbbc
00000370: c5ed 2cbd dcd2 143d 6c8c a73c 2a78 293b
00000380: d2da 6ebd eac9 bebc 27c4 4fbd c62c 82bc
00000390: 3875 72bc 2d6e 3b3d 71f0 e23c 61f1 333d
000003a0: 10b2 4f3c cea2 1abc 9dcb 02bd 8bff 213d
000003b0: bac6 51bd 2ee6 53bd 2b3b 95bc e1d4 bebc
000003c0: c891 a7bb 06b6 28bc 5125 8f3c 6476 63bd
000003d0: 3604 3cbd f2bf 37bd 6fa2 d2bc d1ff c2bb
000003e0: 51a1 973c 608a 53bd 9e93 25bd f148 f6bc
000003f0: 40a9 4abd 6df0 f23c 5f20 23bd 0660 b0bc

linear_1.bias f4 [196]
-0.050896484 0.004380962 0.013659832 0.0384153 0.036465574 0.0064297454 -0.0019180871 0.023275444
0.035509042 -0.046141516 0.030372081 0.052909587 0.0065231863 0.023132946 -0.028879836 0.0029185084
0.03517809 0.009757509 -0.0580335 0.025108527 0.004533304 -0.05247617 -0.037117418 -0.032024853
0.032475073 -0.009193239 0.042824138 -0.01432468 -0.04349542 0.01901191 0.040459566 0.039973486
-0.002204682 -0.0059547266 0.04309762 -0.030462224 -0.0064989277 0.055466354 0.05782493 0.050403744
-0.002526566 -0.034327276 -0.027090041 0.0065068835 0.0018592187 0.040358137 0.04139895 0.0012323349
-0.055717632 -0.031891257 -0.022726046 -0.028979845 -0.03916067 0.0039160694 -0.035303626 -0.0033580037
-0.026339017 -0.027046194 -0.040887173 -0.016499264 0.061007537 0.030151706 -0.050203674 0.04717711
-0.014395295 0.013560665 -0.02909887 -0.007888938 0.0281242 0.027766202 -0.024594294 -0.033882644
-0.006907066 -0.033522073 0.058125675 0.058348298 -0.0035936863 0.042457152 -0.05582105 -0.01621822
0.03705624 -0.011189895 0.04277046 -0.03401214 0.053803924 0.023871081 -0.0041949484 0.043889023
-0.045928024 -0.043383222 -0.010577278 0.048069395 0.03991107 0.053594183 0.008982799 -0.026433421
0.008172864 0.054051097 0.030641975 0.03257235 0.039189782 0.0038878787 0.044821154 0.021382691
-0.019577833 0.04635879 0.04487282 0.015708746 0.032670144 -0.013850274 0.027599545 -0.042382155
0.0079059 0.02793083 0.030373937 -0.054678563 0.026082473 0.027515344 0.053216875 -0.010856802
-0.023997098 0.035105783 -0.012338653 0.01363792 -0.040834114 -0.026285816 -0.0347828 0.047772724
-0.043708522 0.051471666 -0.04786682 -0.021140637 -0.026754482 -0.0004233628 0.010733574 -0.0027227306
-0.01057407 -0.050493788 -0.04864945 0.048567932 -0.045596458 0.0020145716 0.02128494 -0.024328405
-0.038833935 -0.00448008 0.040734254 0.004521744 0.04147139 0.032073367 0.0056396355 0.05982321
0.042968176 -0.036377106 0.049003903 -0.03153315 -0.008408778 -0.031749893 -0.020565156 -0.0003107567
0.0054698954 -0.03264633 0.009743868 0.039957713 0.035377223 -0.022836527 0.048782356 0.00959755
-0.03774154 0.024131684 0.03021413 0.025659332 0.00957074 0.06087729 -0.027248977 -0.013348009
0.011594259 0.033431776 0.010530892 -0.040991023 -0.032734197 0.020797687 -0.01621823 0.028011698
0.009750046 -0.012693484 -0.003417147 0.022076437 0.042124797 0.017738381 0.02497101 -0.028808514
0.009975303 0.034058277 -0.009957049 0.027838988
00000000: d578 50bd 2c8e 8f3b 7dcd 5f3c 5d59 1d3d
00000010: ed5c 153d 9db0 d23b 5368 fbba 25ac be3c
00000020: ee71 113d e3fe 3cbd dfce f83c b9b7 583d
00000030: 74c0 d53b 4e81 bd3c 6895 ecbc 7244 3f3b
00000040: e716 103d f6dd 1f3c 89b4 6dbd 66b0 cd3c
00000050: 1c8c 943b 41f1 56bd 6f08 18bd 7e2c 03bd
00000060: 9504 053d 3d9f 16bc 5d68 2f3d 10b2 6abc
00000070: 4128 32bd ddbe 9b3c eeb8 253d 3dbb 233d
00000080: 6d7c 10bb de1f c3bb 2187 303d ea8b f9bc
00000090: f5f4 d4bb b030 633d d5d9 6c3d 2874 4e3d
000000a0: be94 25bb c29a 0cbd efeb ddbc b237 d53b
000000b0: 07b1 f33a 934e 253d f291 293d 4c86 a13a
000000c0: 2c38 64bd 68a0 02bd f92b babc 2467 edbc
000000d0: f066 20bd 5f52 803b 899a 10bd f411 5cbb
000000e0: ecc4 d7bc fb8f ddbc 4f79 27bd 7729 87bc
000000f0: 0ae3 793d b600 f73c 5ea2 4dbd c93c 413d
00000100: 3eda 6bbc 8d2d 5e3c c160 eebc 9b40 01bc
00000110: b964 e63c f275 e33c f979 c9bc 87c8 0abd
00000120: ab54 e2bb 714e 09bd 3015 6e3d a0fe 6e3d
00000130: 0d84 6bbb 8de7 2d3d 9da4 64bd 13dc 84bc
00000140: 49c8 173d d255 37bc 1430 2f3d 5050 0bbd
00000150: 8161 5c3d 498d c33c c775 89bb fac4 333d
00000160: 061f 3cbd 9bb2 31bd 524c 2dbc 6ae4 443d
00000170: ca79 233d 9385 5b3d 972c 133c e78a d8bc
00000180: 7ae7 053c af64 5d3d e104 fb3c 966a 053d
00000190: 7785 203d c8cb 7e3b 6396 373d c12a af3c
000001a0: b161 a0bc b7e2 3d3d 90cc 373d a1af 803c
000001b0: 21d1 053d 42ec 62bc 7118 e23c e998 2dbd
000001c0: bf87 013c 32cf e43c c3d2 f83c a1f6 5fbd
000001d0: e9aa d53c dc67 e13c f0f9 593d bae0 31bc
000001e0: 9095 c4bc 15cb 0f3d 1028 4abc 9571 5f3c
000001f0: ac41 27bd 5a55 d7bc 6978 0ebd 55ad 433d
00000200: b507 33bd f4d3 523d 0010 44bd 212f adbc
00000210: 372c dbbc cbf6 ddb9 dfdb 2f3c d76f 32bb
00000220: dd3e 2dbc 93d2 4ebd a544 47bd 2bef 463d
00000230: 5ac3 3abd e706 043b c15d ae3c 5d4c c7bc
00000240: 5510 1fbd a3cd 92bb f6d8 263d 232b 943b
00000250: e7dd 293d 5d5f 033d b1cc b83b 2f09 753d
00000260: 66ff 2f3d 2900 15bd 51b8 483d e728 01bd
00000270: f9c4 09bc 2d0c 02bd 4278 a8bc 0fed a2b9
00000280: cf3c b33b 28b8 05bd bfa4 1f3c b3aa 233d
00000290: b5e7 103d ab13 bbbc 02d0 473d 0b3f 1d3c
000002a0: e096 1abd cfaf c53c a083 f73c 8533 d23c
000002b0: 98ce 1c3c 775a 793d 3f39 dfbc 9cb1 5abc
000002c0: d9f5 3d3c c2ef 083d c389 2c3c 34e6 27bd
000002d0: 4b14 06bd e95f aa3c 18dc 84bc ca78 e53c
000002e0: a8be 1f3c 55f8 4fbc 37f2 5fbb a5d9 b43c
000002f0: 0d8b 2c3d 1550 913c 0190 cc3c d5ff ebbc
00000300: 746f 233c b180 0b3d e422 23bc 970e e43c

linear_2.weight f4 [56, 196]
0.038490705 -0.027140398 -0.031750493 -0.046573464 -0.013577879 -0.060912985 0.069827184 0.016056504
0.012581588 -0.019048631 -0.043904018 -0.014538978 -0.023043165 0.032122444 0.046923 -0.03972694
0.0054377234 0.05102215 0.049165644 -0.034086537 -0.0659131 0.053109292 0.014573668 -0.018297553
-0.019599106 -0.02743825 -0.042694733 -0.03899239 -0.06639371 -0.011183909 -0.015685465 -0.015595743
0.016746743 -0.003954649 -0.02308012 0.028630514 0.057758838 0.070060134 -0.0068459515 -0.019026458
0.04287318 0.062449433 -0.041794583 0.012480515 -0.059388988 0.06512218 0.048786785 -0.057997257
0.054582216 -0.04046011 -0.02980963 0.06599012 -0.02192155 0.005383892 -0.05894372 -0.03448186
0.015503135 -0.016349334 -0.07084008 0.025279565 0.051861886 -0.015461207 -0.007795479 -0.057615496
-0.008660343 -0.007215228 -0.016570067 0.022747185 -0.026004571 -0.04290908 0.04934846 -0.0023371663
-0.064003065 -0.00029007878 -0.005228111 -0.0427007 -0.025222082 -0.06335322 -0.06157946 -0.061501462
-0.028966965 -0.037898242 0.019943118 0.010809711 -0.02815738 -0.035921242 -0.051818553 -0.063823596
-0.052021336 0.03750923 0.070174694 0.014769845 0.046951305 0.03504274 0.028568389 0.01784208
0.06207825 0.0033361146 -0.011630791 -0.0055196797 -0.062436208 -0.036640126 -0.011683848 -0.0039445334
-0.049379427 -0.049498167 0.021384103 0.015518402 -0.011845044 -0.059527997 0.012313026 0.032855622
0.0005379575 -0.034908764 -0.05936754 0.0231178 0.0072323345 0.030422399 -0.03140352 -0.021495394
-0.045111608 -0.062204253 0.06321999 -0.015555911 -0.004622315 -0.049105708 0.05131737 0.014826681
-0.06533959 0.03580892 -0.002928538 -0.032103743 -0.061842684 0.06379358 0.004990493 0.0047921455
0.041910965 0.055637933 0.013944814 0.03521923 -0.054200746 0.03079567 0.0012552057 0.05280521
-0.060163092 0.02772288 0.061751097 -0.027627852 0.031766586 -0.06595285 -0.04668453 -0.062158518
-0.06282411 -0.048600104 -0.04603352 -0.037741527 -0.023789484 0.0053082113 0.042774033 0.065953344
0.00029940266 0.009008382 0.04557448 0.06569919 -0.033878464 -0.025518155 -0.048602916 -0.008345868
-0.02080524 0.06036861 -0.02876797 -0.015648136 0.008325705 -0.033099115 -0.06339757 0.025518708
0.05247714 -0.006756928 -0.05933582 0.010662395 -0.05447142 0.03145298 -0.04142041 -0.056016915
-0.024339907 0.02568332 -0.044546418 0.002512702 0.0064852326 -0.06084267 -0.026160521 0.052956752
-0.00429334 -0.035008807 0.004691984 -0.06378076 -0.050534025 -0.020292608 0.005415532 -0.049840692
0.061836604 0.012836776 0.06043602 -0.01301822 0.07618434 -0.0015421833 -0.007476899 0.013867666
0.06251262 0.075355045 0.005490412 0.03153002 0.04737223 0.030672556 -0.0050520618 -0.040450588
-0.04562788 -6.34264e-05 0.050841678 0.010514856 0.053264007 0.057366874 0.07130204 0.026276454
0.07049042 0.044183463 0.054756243 -0.03863718 0.07744397 0.012159734 -0.032047197 0.06521106
-0.011046114 0.07851222 0.05664489 0.04408226 0.059363753 0.0291722 -0.06584011 0.04339711
0.06658152 0.076374866 -0.039254904 0.013439099 0.018866159 0.013716974 0.05629011 0.0489417
-0.06574613 -0.047465574 -0.042048275 0.047864765 0.050584238 -0.06356561 0.028662462 -0.054811407
00000000: 6ea8 1d3d 8a55 debc ce0c 02bd d1c3 3ebd
00000010: c175 5ebc e57f 79bd 8e01 8f3d ee88 833c
00000020: 0123 4e3c e00b 9cbc b3d4 33bd e534 6ebc
00000030: 05c5 bcbc d392 033d 5532 403d b7b8 22bd
00000040: ee2e b23b 9afc 503d ea61 493d 539e 0bbd
00000050: 73fd 86bd 2189 593d 65c6 6e3c c0e4 95bc
00000060: 4e8e a0bc 2ec6 e0bc ace0 2ebd 7cb6 1fbd
00000070: 6df9 87bd b73c 37bc ce7e 80bc 4a85 7fbc
00000080: 7730 893c 0096 81bb 8512 bdbc 8a8a ea3c
00000090: 8894 6c3d b07b 8f3d 0154 e0bb 60dd 9bbc
000000a0: ca9b 2f3d faca 7f3d cc30 2bbd 137b 4c3c
000000b0: de41 73bd c75e 853d a7d4 473d 888e 6dbd
000000c0: 9a91 5f3d 80b9 25bd 5333 f4bc d425 873d
000000d0: d394 b3bc 5c6b b03b f86e 71bd da3c 0dbd
000000e0: dc00 7e3c 0aef 85bc 9b14 91bd 1717 cf3c
000000f0: 216d 543d 0151 7dbc 3871 ffbb 3afe 6bbd
00000100: 1ce4 0dbc b86d ecbb f3bd 87bc 4e58 ba3c
00000110: 8a07 d5bc 6ec1 2fbd 9c21 4a3d 252b 19bb
00000120: 0a14 83bd b715 98b9 9350 abbb eee6 2ebd
00000130: 8a9e cebc 55bf 81bd be3a 7cbd f5e8 7bbd
00000140: 214c edbc 303b 1bbd c05f a33c 371b 313c
00000150: 4eaa e6bc 2722 13bd b13f 54bd f2b5 82bd
00000160: 5314 55bd 47a3 193d c0b7 8f3d 38fd 713c
00000170: 0350 403d fa88 0f3d 4108 ea3c 8e29 923c
00000180: c345 7e3d b7a2 5a3b 138f 3ebc 6ede b4bb
00000190: 1cbd 7fbd f513 16bd 9c6d 3fbc 2541 81bb
000001a0: 1542 4abd 97be 4abd b72d af3c e540 7e3c
000001b0: b711 42bc a1d3 73bd 93bc 493c 9e93 063d
000001c0: b705 0d3a 7efc 0ebd 612b 73bd 8a61 bd3c
000001d0: 38fd ec3b 6538 f93c faa0 00bd 1c17 b0bc
000001e0: f3c6 38bd e3c9 7ebd 7b79 813d 38de 7ebc
000001f0: ca76 97bb 1123 49bd 2a32 523d 9ceb 723c
00000200: c3d0 85bd 60ac 123d b7ec 3fbb 377f 03bd
00000210: c14e 7dbd 35a6 823d 4a87 a33b 6e07 9d3b
00000220: d5aa 2b3d 9ae4 633d ca78 643c 0a42 103d
00000230: 9a01 5ebd 3347 fc3c b785 a43a 474a 583d
00000240: 936d 76bd 181b e33c b8ee 7c3d ce53 e2bc
00000250: ae1d 023d 4a12 87bd 4738 3fbd ee99 7ebd
00000260: eda9 80bd e710 47bd a58d 3cbd dc96 1abd
00000270: 2ae2 c2bc 81f0 ad3b d333 2f3d 8c12 873d
00000280: 25f9 9c39 e597 133c 4eac 3a3d 4c8d 863d
00000290: 25c4 0abd 730b d1bc da13 47bd 1cbd 08bc
000002a0: c06f aabc 1345 773d ceaa ebbc 8530 80bc
000002b0: 8a68 083c f092 07bd 96d6 81bd 9c0c d13c
000002c0: 45f2 563d 3869 ddbb 1e0a 73bd 53b1 2e3c
000002d0: 6c1d 5fbd d7d4 003d 73a8 29bd fe71 65bd
000002e0: 7c64 c7bc d365 d23c 4e76 36bd 25ac 243b
000002f0: 1382 d43b 2a36 79bd 974e d6bc 2ee9 583d
00000300: 25af 8cbb 6565 0fbd 37bf 993b 7d9f 82bd
00000310: c4fc 4ebd af3c a6bc c674 b13b c125 4cbd
00000320: 6148 7d3d 5751 523c c38b 773d 5f4a 55bc
00000330: 8906 9c3d 1623 caba c600 f5bb 3535 633c
00000340: 9e06 803d bf53 9a3d eae8 b33b 9f25 013d
00000350: 6209 423d 0345 fb3c c48b a5bb 84af 25bd
00000360: 4de4 3abd ca03 85b8 5d3f 503d 8146 2c3c
00000370: 5c2b 5a3d 87f9 6a3d ce06 923d b841 d73c
00000380: 485d 903d b8f9 343d 1548 603d 0542 1ebd
00000390: f29a 9e3d 9f39 473c ec43 03bd 608d 853d
000003a0: c3fa 34bc 04cb a03d 7904 683d 9a8f 343d
000003b0: 6827 733d 8afa ee3c 2ed7 86bd 2bc1 313d
000003c0: e45b 883d 6d6a 9c3d c0c9 20bd ab2f 5c3c
000003d0: 348d 9a3c 29bd 603c 7590 663d 1877 483d
000003e0: e8a5 86bd 436b 42bd d03a 2cbd d80d 443d
000003f0: 6b31 4f3d b02e 82bd 8acd ea3c ed81 60bd

linear_2.bias f4 [56]
0.034445185 0.037138894 0.028283246 -0.021340918 -0.05599103 -0.0258371 -0.02883468 -0.0056242147
-0.07149698 0.03653124 -0.043747324 -0.006123925 0.036953345 -0.046686824 0.054402612 0.009672697
-0.02409712 0.035911188 0.037501786 -0.071699515 -0.036119968 0.06039488 0.013957962 0.007551833
0.026894357 0.05394132 0.026902108 -0.03319273 -0.028568465 0.005285305 -0.024918465 0.05426017
-0.028520968 -0.03806853 -0.012269179 0.02976539 0.0709411 -0.036076352 0.06226346 -0.047408916
0.06617217 0.045276146 -0.028174328 -0.02551612 -0.014558357 -0.07391403 -0.04464324 -0.06503566
0.022613766 -0.071852215 -0.06330249 0.07265862 0.078312546 -0.042661447 -0.055845723 0.037403356
00000000: 6516 0d3d f41e 183d 44b2 e73c 26d3 aebc
00000010: da56 65bd 53a8 d3bc b536 ecbc 554b b8bb
00000020: 026d 92bd c8a1 153d 6530 33bd 35ab c8bb
00000030: 645c 173d af3a 3fbd 46d5 5e3d 3b7a 1e3c
00000040: 5367 c5bc 9c17 133d 799b 193d 32d7 92bd
00000050: 88f2 13bd 9f60 773d f0af 643c 5e75 f73b
00000060: 8e51 dc3c 93f1 5c3d cf61 dc3c 1af5 07bd
00000070: 6a08 eabc 5a30 ad3b cf21 ccbc e93f 5e3d
00000080: cea4 e9bc bfed 1bbd ab04 49bc 8cd6 f33c
00000090: 9149 913d ccc4 13bd f807 7f3d da2f 42bd
000000a0: 4685 873d 7b73 393d d9cd e6bc 2f07 d1bc
000000b0: 2d86 6ebc 3d60 97bd d4db 36bd 6b31 85bd
000000c0: 8140 b93c 4127 93bd bca4 81bd 0bce 943d
000000d0: 5462 a03d c5bd 2ebd 7cbe 64bd 4334 193d

linear_3.weight f4 [1, 56]
0.074044794 0.1241151 0.134114 -0.06666674 -0.09088218 -0.11338565 -0.035495874 0.114224076
-0.07266828 0.038029492 0.0499028 -0.07102925 0.10656153 0.107147776 0.1382575 0.09680643
0.012627146 -0.09788184 -0.11517539 -0.068401024 0.104178995 -0.120655045 0.06786223 0.07729962
0.119746365 0.053215116 0.100659534 -0.03682379 -0.08821155 -0.035967365 0.10594905 0.07535749
0.004726243 -0.1097447 -0.011504119 0.0636912 0.057863474 -0.023023233 -0.093819775 0.08518814
-0.029321391 0.019380268 0.092973396 0.13648897 -0.010027292 0.0021417271 0.11777127 -0.10612572
-0.018440904 -0.039107073 -0.08031712 0.07476395 0.046367858 0.07230566 0.045278944 0.009068947
00000000: cca4 973d 0f30 fe3d 2e55 093e 9288 88bd
00000010: 7020 babd bc36 e8bd 1f64 11bd 50ee e93d
00000020: 1bd3 94bd d0c4 1b3d e166 4c3d c977 91bd
00000030: ee3c da3d 4b70 db3d 6093 0d3e 7342 c63d
00000040: 17e2 4e3c 4676 c8bd 13e1 ebbd d615 8cbd
00000050: cc5b d53d fe19 f7bd 5afb 8a3d 434f 9e3d
00000060: 953d f53d 18f8 593d 9626 ce3d 8bd4 16bd
00000070: 42a8 b4bd 8452 13bd d1fb d83d 0755 9a3d
00000080: 9ade 9a3b d4c1 e0bd c67b 3cbc 8870 823d
00000090: 4002 6d3d 389b bcbc 9524 c0bd 1f77 ae3d
000000a0: 6a33 f0bc 5ec3 9e3c d668 be3d c4c3 0b3e
000000b0: 8349 24bc 385c 0c3b 1032 f13d 7158 d9bd
000000c0: 6111 97bc bd2e 20bd 4d7d a4bd d81d 993d
000000d0: 39ec 3d3d fd14 943d 6a76 393d ec95 143c
