ndp/weights/pretrain-8.pt (torch, 593583 bytes, 5 tensors)

linear_1.weight f4 [256, 512]
0	0xbc7ee3ea	-0.015557269
1	0xbd25fa1a	-0.04052172
2	0x3c925562	0.01786298
3	0x3d34b1b0	0.04411477
4	0x3c05e91a	0.0081732515
5	0x3c87f1c7	0.01659478
6	0xbd12c452	-0.035831757
7	0x3c7a9cd8	0.0152961835
8	0xbd11f425	-0.035633225
9	0xbc94d36f	-0.018167226
10	0x3caaab5b	0.020833662
11	0x3ce3eeb7	0.027823789
12	0xbbba2bc5	-0.0056814873
13	0x3d005e63	0.031340014
14	0x3b6d5aac	0.0036217375
15	0x3caf4169	0.021393495
16	0x3cab5a59	0.020917105
17	0x3d0b73c9	0.03404597
18	0xbb331ed4	-0.0027331607
19	0xbccb1289	-0.024789112
20	0xbce9aa23	-0.02852351
21	0x3caf0136	0.021362882
22	0xbb4bbce1	-0.0031087922
23	0xb9f2d5a2	-0.00046317006
24	0x3c34736d	0.011013848
25	0x3cb9f249	0.022698538
26	0x3d0e658a	0.034764804
27	0x3cfd6a37	0.030934436
28	0x3cb7521c	0.02237802
29	0x3ced4f1b	0.028968384
30	0x3c1cd723	0.009572777
31	0x3d20976d	0.03920691
32	0xbc45ef42	-0.012080969
33	0xbb784217	-0.003788119
34	0xbc2af4de	-0.010434357
35	0xbd196dbe	-0.037458174
36	0x3b019b58	0.001977643
37	0xbb1f9e55	-0.0024355848
38	0x3cab99d7	0.02094738
39	0xbd20b7c3	-0.03923775
40	0x3d1b78e5	0.03795709
41	0xbcd4b2de	-0.025964197
42	0x3d1daf4a	0.038497247
43	0x3bc53eb8	0.0060194395
44	0xbc73a7ef	-0.014871581
45	0xbcc2c0f0	-0.02377364
46	0x3c9cce6c	0.019141398
47	0xbcb81cc9	-0.022474663
48	0x3d0b0c4d	0.033947278
49	0xbcb3b32d	-0.021936024
50	0x3c52d7f6	0.012868872
51	0xbd08f71e	-0.033438794
52	0x3d157023	0.036483895
53	0xbca593d1	-0.020212086
54	0x3d078182	0.033082493
55	0x3d071296	0.03297671
56	0x3cfcd9a6	0.030865502
57	0xbd0218df	-0.031762
58	0x3c9f9f0b	0.019485017
59	0xbbf196a9	-0.0073726964
60	0xbd140e4c	-0.036146447
61	0xba78b220	-0.0009486992
62	0xbd045308	-0.032305747
63	0x3ccebed2	0.025237475
64	0xbc5acab5	-0.013353993
65	0x3d063e1d	0.03277408
66	0x3c6b09fc	0.014345642
67	0x3c8529cc	0.016255282
68	0xbc2bce3f	-0.010486185
69	0x3d00f537	0.031483855
70	0x3d2e8981	0.042611603
71	0x3d2d2dcd	0.042280007
72	0xbb1b1cba	-0.0023668245
73	0x3d024cfd	0.031811703
74	0x3ce749f3	0.028233504
75	0x3d10d968	0.035363585
76	0x3d0e9f29	0.034819756
77	0x3d3be851	0.04587585
78	0x3c1536ec	0.009107333
79	0xbca8278b	-0.020526668
80	0x3c9cf030	0.0191575
81	0xbcc0bc24	-0.023527212
82	0x3c1c7c4d	0.00955112
83	0x3c19486f	0.009355648
84	0x3b560fd3	0.003266324
85	0x3c5912b1	0.013249085
86	0xbc90b2ae	-0.017663326
87	0x3c6d7b67	0.014494753
88	0xbc015007	-0.007892615
89	0xbb32a7d8	-0.0027260687
90	0xbc8fe5c1	-0.01756561
91	0x3ce2816e	0.027649608
92	0x3b8a9625	0.0042293244
93	0x3ce80a57	0.028325243
94	0xbcf2a6a4	-0.029620476
95	0xbbb07c53	-0.0053859144
96	0xbc0ba0f1	-0.008522258
97	0x3d17a403	0.03702165
98	0x3c9772d8	0.018487379
99	0xba1adf29	-0.0005907887
100	0x3b92d123	0.0044804974
101	0x3cb6a37e	0.022294756
102	0x3ce6409f	0.028106986
103	0xbc1897bb	-0.009313519
104	0x3cac2f27	0.021018578
105	0x3afc45ee	0.0019246915
106	0x3d2806fa	0.04102228
107	0x3d212c5a	0.039348938
108	0xbcb0fdce	-0.021605399
109	0x3d126bb7	0.035747256
110	0xbd24341f	-0.04008877
111	0x3ccfbee7	0.025359584
112	0x3bed41be	0.007240503
113	0x3ca0428b	0.01956298
114	0xbd05a45b	-0.032627445
115	0xbc6d5b1a	-0.014487052
116	0x3cc427d6	0.023944777
117	0x3cb38bab	0.021917185
118	0x3b86dc18	0.0041155927
119	0xbcc90e9c	-0.0245431
120	0xbcbe7a96	-0.023251813
121	0x3c6de7aa	0.014520565
122	0x3d398745	0.04529502
123	0xbb9b7490	-0.00474412
124	0x3d3142c6	0.04327657
125	0x3d0a520e	0.03376966
126	0x3c97353b	0.018458
127	0xbaa55415	-0.0012613559
128	0x3b26b2ff	0.002543628
129	0xbc988643	-0.018618708
130	0x3b4bc9b6	0.003109557
131	0x3d2076b2	0.039175697
132	0xbce32fe0	-0.02773279
133	0xbcec1994	-0.02882079
134	0x3c1451ed	0.009052736
135	0x3c588fa7	0.013217843
136	0x3bfb1786	0.0076627163
137	0x3cb86c27	0.022512509
138	0xbc19b3d0	-0.00938125
139	0xbc949f5e	-0.018142398
140	0x3cf1af36	0.029502492
141	0x3d099128	0.033585697
142	0x3bd1297e	0.00638312
143	0x3c688db9	0.014193946
144	0x3caf78c6	0.021419894
145	0xbce8846a	-0.028383452
146	0xbc08b33e	-0.008343516
147	0x3b846086	0.004039827
148	0x3d0ea20d	0.034822512
149	0xbd1f4535	-0.03888436
150	0x3c833602	0.016016964
151	0x3c954c3e	0.018224832
152	0x3d111aa6	0.035425805
153	0x3ca0b0e1	0.019615592
154	0x3ba6aeaf	0.005086742
155	0x3c27510f	0.010212197
156	0xb9cd2d62	-0.0003913446
157	0xbbeda9d1	-0.0072529097
158	0xbd105799	-0.03523979
159	0xbb86011d	-0.004089488
160	0xbd0ec71a	-0.034857847
161	0xbd120948	-0.035653383
162	0xbcdd4839	-0.027011978
163	0x3c4d9bc9	0.012549349
164	0x3d363c2c	0.044490978
165	0xbd195955	-0.03743871
166	0xbd01200e	-0.03152471
167	0x3ca7b1fa	0.020470608
168	0xbc274a33	-0.010210562
169	0x3c0e6ab0	0.0086924285
170	0xbc4b7c59	-0.0124197835
171	0x3d3f7542	0.046742685
172	0xbc58ab9a	-0.013224507
173	0xbc99f797	-0.018794818
174	0x3cb9c986	0.022679102
175	0xbcc9edeb	-0.024649581
176	0x3c00e5b8	0.007867269
177	0x3b941535	0.0045191296
178	0xbd01c3ea	-0.03168098
179	0x3d1d9f57	0.038482036
180	0xbc9693da	-0.018381048
181	0x3c1c724a	0.009548733
182	0xbceadd13	-0.02866987
183	0x3c8ef690	0.017451555
184	0xbd22d18b	-0.039750617
185	0xbb370f3f	-0.0027932671
186	0x3c06b761	0.008222432
187	0x3d3439cc	0.044000432
188	0x3c8e7725	0.017390797
189	0x3d121c27	0.03567138
190	0x3caacb9d	0.020849044
191	0x3cb232d8	0.02175276
192	0xbc59f83f	-0.013303815
193	0x3d2f5262	0.042803176
194	0xbd1b6a29	-0.03794304
195	0x3d03739d	0.03209268
196	0x3d24035d	0.04004227
197	0xbd1a41e1	-0.037660483
198	0xbcaa6982	-0.020802263
199	0x3c0d723d	0.008633194
200	0x3c4ad642	0.012380185
201	0xbcddb56a	-0.027064044
202	0xbb894bb9	-0.004189935
203	0x3ac233e8	0.0014816495
204	0x3d171961	0.036889438
205	0x3b96f7bc	0.004607169
206	0x3cba6b96	0.02275638
207	0xbcab0a65	-0.02087898
208	0xbb9f6de1	-0.0048653935
209	0x3cea420e	0.02859595
210	0xbc608c04	-0.013705257
211	0x3ca6c27d	0.020356411
212	0x3d10b9be	0.035333388
213	0x3c2e0cc6	0.010623163
214	0x3c04fe3d	0.008117256
215	0x3d057f60	0.032592177
216	0xbca737ce	-0.020412352
217	0x3c9ce0cf	0.019150166
218	0xbc322fee	-0.010875685
219	0xbd128db2	-0.035779662
220	0x3ca34113	0.01992849
221	0xbc353056	-0.0110588875
222	0xbcc31f79	-0.023818718
223	0xbcebe249	-0.028794425
224	0x3c66b4da	0.014081204
225	0xbcf013a0	-0.029306233
226	0xbd26b8a8	-0.040703446
227	0xbd07cd27	-0.033154633
228	0x3cef3cd3	0.029203808
229	0xbbf6280f	-0.0075120996
230	0xbbe47479	-0.0069718924
231	0xbca6bd46	-0.020353924
232	0x3d197de8	0.03747359
233	0x3b7103fd	0.003677606
234	0xbca8c771	-0.020602914
235	0x3c5b48d1	0.01338406
236	0x3bf0859f	0.0073401476
237	0x3d1a8389	0.037723098
238	0xbcf2de3d	-0.029646987
239	0x3b8f79c4	0.0043785293
240	0x3d15351f	0.036427613
241	0x3b308b50	0.0026938505
242	0x3d1d0e2f	0.038343605
243	0x3d21f876	0.03954359
244	0x3cea8652	0.028628502
245	0x3c8d3e6b	0.017241677
246	0x3c8ff1fc	0.017571442
247	0x3cc86dff	0.024466513
248	0xbd117d9a	-0.035520174
249	0x3cc2e14a	0.023789067
250	0xbc6431b3	-0.013927865
251	0x3d1ee22d	0.038789917
252	0x3cfc09b2	0.030766342
253	0x39832f88	0.0002502168
254	0xbc85dae9	-0.016339736
255	0xbcd90dd5	-0.026495853

linear_1.bias f4 [256]
0	0xbc48c0e7	-0.012253023
1	0xbaccb5d0	-0.0015618149
2	0xbba38217	-0.004989873
3	0xbc108c74	-0.008822549
4	0xbcc45251	-0.023965033
5	0xbc30cdee	-0.010791285
6	0x3c2832e4	0.0102660395
7	0xbc8478ea	-0.016170938
8	0xbc27e59b	-0.010247613
9	0xbba5a4d8	-0.0050550513
10	0xbce7d8bb	-0.028301587
11	0x3c46c47f	0.012131809
12	0xbbdf503f	-0.006814986
13	0xbce118b8	-0.027477607
14	0x3bd62ff1	0.006536477
15	0x3caedaa6	0.021344494
16	0x3be2d34c	0.006922161
17	0x3d1278c6	0.03575971
18	0xbd0d8639	-0.034551833
19	0x3b36f29c	0.0027915603
20	0xbd13ec61	-0.0361141
21	0xbd04e738	-0.03244707
22	0x3d2a43ad	0.041568447
23	0x3d4b3b46	0.049617074
24	0xbd302068	-0.042999655
25	0x3d111d70	0.035428464
26	0x3d1b7c8b	0.03796057
27	0x3d195b82	0.037440784
28	0x3d11c6ab	0.035589855
29	0x3cdbf7ed	0.026851619
30	0xbd115e77	-0.03549048
31	0xbc86ef43	-0.01647151
32	0x3d268e3d	0.040662993
33	0x3b62f0a7	0.0034628303
34	0x3cf8fede	0.030394968
35	0xbc93f643	-0.018061763
36	0x3caa7025	0.020805428
37	0x3cbf9a4c	0.023389004
38	0xbd120c2e	-0.035656147
39	0x3b6b7fae	0.0035934257
40	0x3c4a14d7	0.01233407
41	0x3cd5e238	0.026108846
42	0x3cb1b88a	0.02169444
43	0xbd21866b	-0.03943483
44	0xbd3964ff	-0.045262333
45	0xbd1bf24f	-0.03807288
46	0x39ba96f4	0.00035589153
47	0x3c8c6910	0.017139941
48	0xbc96ef2e	-0.018424597
49	0x3c8098a4	0.015697785
50	0x3d0b57cd	0.03401928
51	0x3c1456e9	0.009053924
52	0x3d0cc176	0.034364186
53	0x3c7c978a	0.015416989
54	0xbc839dca	-0.01606645
55	0xbd1f2603	-0.03885461
56	0xbd21e280	-0.039522648
57	0xbd23318e	-0.03984218
58	0xbb2c0ce9	-0.0026252812
59	0xbc2f0054	-0.010681231
60	0x3cbf64ce	0.023363497
61	0x3bc92e6c	0.006139567
62	0xbccc1e94	-0.024916925
63	0xbc6b8554	-0.01437505
64	0xbc680f37	-0.014163784
65	0x3bc82e79	0.0061090556
66	0x3d53a19b	0.05166779
67	0xbcedacdb	-0.029013088
68	0x3bc92414	0.006138334
69	0x3d26863e	0.040655367
70	0xbcfe22c3	-0.031022435
71	0xbd171274	-0.036882833
72	0x3b99c369	0.004692484
73	0x3c81e99c	0.015858464
74	0xbd1a6059	-0.03768954
75	0x3cf10500	0.02942133
76	0x3d3e5da9	0.04647604
77	0x3c87992d	0.016552532
78	0x3b3fc402	0.0029261117
79	0x3a901ccc	0.001099491
80	0x3bcccbc1	0.0062498753
81	0xbd3e98f9	-0.046532605
82	0xbc8ed43e	-0.01743519
83	0xbd2a55bc	-0.04158567
84	0xbab1c36e	-0.0013562271
85	0xbc858820	-0.016300261
86	0xbd1a54f9	-0.037678692
87	0xbc0f0864	-0.008730028
88	0x3d218e98	0.03944263
89	0xbc6c2508	-0.014413126
90	0xbcff8e1b	-0.03119569
91	0x3c873c1e	0.016508158
92	0x3c005b55	0.007834275
93	0x3c821625	0.0158797
94	0x3d48e149	0.049042974
95	0xbcda8094	-0.026672639
96	0xbca108c2	-0.019657496
97	0x3cc17bac	0.023618542
98	0xbc0cf3bb	-0.008603032
99	0x3b95a837	0.004567172
100	0x3d125340	0.035723925
101	0xbcae137b	-0.021249523
102	0x3cdf950e	0.027292755
103	0xbcfa90a4	-0.030586548
104	0x3c6e071a	0.01452806
105	0xbcf35283	-0.02970243
106	0xbc432e85	-0.011912947
107	0x3cc0f039	0.023552047
108	0xbcb5f495	-0.022211352
109	0xbcc6ba92	-0.024258886
110	0x3d03e120	0.032197118
111	0x3a8540cc	0.0010166406
112	0x3d060348	0.032717973
113	0xbd0f3962	-0.034966834
114	0x3d085f1f	0.03329384
115	0xbcc2b7be	-0.023769256
116	0x3bac967f	0.005266964
117	0x3c69a799	0.01426115
118	0x3cc77ff7	0.02435301
119	0xbcdd1862	-0.026989166
120	0x3d066771	0.032813493
121	0x3ca34b92	0.019933496
122	0x3d22db18	0.039759725
123	0xbd34fff2	-0.0441894
124	0xbc00a592	-0.007851975
125	0xbc8e3fbd	-0.017364377
126	0x3b82ad65	0.0039879554
127	0x3cf060b7	0.029342992
128	0x3cb91189	0.02259137
129	0xbce25185	-0.027626762
130	0xba39d812	-0.0007089387
131	0x3c81826c	0.01580926
132	0xba8765e8	-0.0010330053
133	0xbcb6c881	-0.022312405
134	0x3d3e8ecd	0.046522904
135	0x3b6362ca	0.0034696334
136	0xbc95fdb8	-0.01830946
137	0x3d3f18a8	0.046654373
138	0x3d191239	0.037370894
139	0x3b5b28e8	0.003344113
140	0xbc8cb835	-0.01717768
141	0x3cd94c84	0.026525743
142	0x3baea07f	0.005329191
143	0x3cf205bb	0.029543748
144	0x3d043055	0.032272656
145	0x3d17264d	0.03690176
146	0x3d2c38e1	0.04204643
147	0xbce60a12	-0.028080974
148	0xbc889a1d	-0.01667505
149	0x3cc50c7e	0.024053808
150	0x3c8000f2	0.01562545
151	0xbc44170e	-0.011968387
152	0xbcfd4359	-0.030915903
153	0xbc62fa86	-0.013853675
154	0xbce04948	-0.027378693
155	0xbd0536b2	-0.032522865
156	0xbcd91edc	-0.026503973
157	0x3c3c244b	0.011483262
158	0x3b8ca667	0.0042922976
159	0x38cee71f	9.865895e-05
160	0x3c87f739	0.016597377
161	0x3c2114bb	0.009831603
162	0x3cace44b	0.021104952
163	0x3be40fe0	0.0069599003
164	0x3c56a80a	0.013101587
165	0x3c88eb28	0.016713694
166	0xbce1e9d6	-0.027577322
167	0x3ca8e2bf	0.020615933
168	0x3cacb51c	0.021082453
169	0xbc91ab4d	-0.017781878
170	0x3d369a78	0.044580907
171	0xbc949692	-0.018138204
172	0x3d497d91	0.049192015
173	0xbc12c902	-0.008959057
174	0xbc88d6cb	-0.016703984
175	0x3cd59c8d	0.026075626
176	0xbbebed91	-0.007199951
177	0xbc6b017b	-0.014343615
178	0xb96e62c0	-0.00022734236
179	0x3d283515	0.041066248
180	0x3cb74d4d	0.022375727
181	0x3b516217	0.0031949335
182	0xbcfd5770	-0.030925483
183	0xbc2daca6	-0.010600245
184	0xbc6bf9aa	-0.014402786
185	0xb9b5df3a	-0.00034689327
186	0xbd04cfe1	-0.03242481
187	0x3c9231e8	0.017846063
188	0xbafad429	-0.0019136715
189	0xbbf66b2e	-0.007520101
190	0x3d40175e	0.046897285
191	0xbcb1889d	-0.021671588
192	0x3ccf3cc6	0.025297534
193	0xbc5f7494	-0.013638634
194	0x3a261c5d	0.0006336624
195	0xbca2a65d	-0.019854719
196	0xbd0ec73e	-0.03485798
197	0x3ce4d19a	0.027931977
198	0x3d26df7f	0.040740486
199	0xbcd17740	-0.025569558
200	0xbcd5cdc8	-0.0260991
201	0xbd430038	-0.04760763
202	0xbcef49f8	-0.029210076
203	0x3d3f1cd6	0.04665836
204	0xbd011d7a	-0.03152225
205	0xbc68a15e	-0.014198629
206	0x3cc4dfdc	0.024032526
207	0xbce4cc84	-0.027929552
208	0xbd1f25e4	-0.038854495
209	0xbd145dd6	-0.0362223
210	0x3c1d3fb4	0.009597708
211	0x3c54c78a	0.012987027
212	0x3d0af485	0.0339246
213	0x3d462b0c	0.048380896
214	0x3b9a26e7	0.0047043446
215	0x3cc1e019	0.023666428
216	0xbcf18c12	-0.029485736
217	0xbc931e1c	-0.017958693
218	0x3c4731f8	0.01215791
219	0x3d359620	0.044332623
220	0xbca30602	-0.019900326
221	0xbc92e1d8	-0.017929956
222	0xbcec6b6f	-0.028859822
223	0x3c8a59db	0.01688855
224	0x3c910695	0.017703334
225	0x3cf8c13f	0.030365584
226	0xbccac0d7	-0.024750156
227	0x3ce2bf06	0.027678978
228	0xbcceda4b	-0.025250575
229	0x3bdc24f7	0.0067182737
230	0xbca92104	-0.020645626
231	0xbc9efd1f	-0.019407807
232	0xb9132e02	-0.00014036152
233	0x3d11c433	0.0355875
234	0x3ca4f37f	0.02013564
235	0xbc467f8e	-0.012115372
236	0xbb3daf20	-0.0028943494
237	0x3d28eb9b	0.041240316
238	0xbd1dfdf6	-0.038572274
239	0x3cc4a123	0.024002617
240	0x3ceaec48	0.02867712
241	0xbcbca678	-0.023028597
242	0xbd01638b	-0.031589072
243	0xbc41ff56	-0.011840662
244	0x3bda617a	0.006664452
245	0xbc96fece	-0.018432047
246	0xbcdf5aa6	-0.027264904
247	0xbcb827cd	-0.022479916
248	0x3ca20fc4	0.019782908
249	0x3d1647a7	0.036689427
250	0xbd1c6713	-0.038184237
251	0x3d38faca	0.045161046
252	0x3c7a8a1d	0.015291718
253	0xbc3e1bf3	-0.011603343
254	0xbcf7be83	-0.03024221
255	0x3c01ced2	0.007922845

linear_2.weight f4 [64, 256]
0	0x3d82d49f	0.063882105
1	0xbcc278d4	-0.023739256
2	0x3b643776	0.0034823096
3	0x3c76a7cb	0.015054653
4	0xbd000827	-0.031257775
5	0xbcf8c92f	-0.03036937
6	0x3b38abe0	0.0028178617
7	0xbc38944f	-0.011265828
8	0x3d58f156	0.05296453
9	0x3c75b0e7	0.01499579
10	0xbd0fdb69	-0.035121355
11	0xbd415964	-0.04720439
12	0xbcf29eaa	-0.029616673
13	0xbc2707d3	-0.0101947365
14	0x3d8a097e	0.06740092
15	0xbd17bc92	-0.03704507
16	0x3d04476a	0.03229467
17	0x3d0c161a	0.034200765
18	0xbc508586	-0.012727147
19	0x3c03cf59	0.008045041
20	0x3ca231b2	0.019799087
21	0xbcb89479	-0.022531735
22	0xbc99a918	-0.018757388
23	0x3c4d0930	0.0125143975
24	0xbb2707d8	-0.0025486853
25	0x3d7a0473	0.0610394
26	0x3bfe2932	0.0077563757
27	0xbc95e058	-0.018295452
28	0x3d81e31a	0.06342144
29	0xbcadbdd8	-0.021208689
30	0x3d6a9b59	0.057277057
31	0xbccba7b3	-0.024860239
32	0xbc816044	-0.015792973
33	0x3cbb0dc3	0.02283371
34	0x3d6cbcc5	0.057797212
35	0x3d370af3	0.044688176
36	0xbd40db61	-0.047084216
37	0x3b96e1b9	0.004604545
38	0x3d00f5ab	0.031484287
39	0x3d3d0e40	0.046156168
40	0xbc3693df	-0.011143654
41	0x3c58c4df	0.0132305315
42	0x3c1b7445	0.00948817
43	0xbd5d1501	-0.05397511
44	0x3d00afe7	0.031417754
45	0x3cb66ca5	0.022268603
46	0x3d294eb3	0.04133482
47	0x3accc09f	0.001562137
48	0x3c5e8e43	0.0135837225
49	0x3d4458aa	0.04793612
50	0x3ac6ba44	0.0015161713
51	0x3bc38e3c	0.0059678834
52	0xbbd1e70d	-0.006405717
53	0xbd6c02cb	-0.05761985
54	0x3be23680	0.0069034696
55	0xbd116516	-0.035496794
56	0x3d75a85f	0.059975024
57	0x3c975e04	0.018477447
58	0xbd5a8b32	-0.053355403
59	0xbc06cd52	-0.008227663
60	0x3c8084e0	0.01568836
61	0xbd4dc31f	-0.05023491
62	0xbd0bffd3	-0.03417952
63	0x3939b544	0.00017710502
64	0x3d1eca87	0.038767364
65	0xbc4371c0	-0.011928976
66	0xbbf401ee	-0.007446519
67	0x3d540146	0.051759027
68	0x3d2dc4c4	0.04242398
69	0xbcc8af8b	-0.024497768
70	0x3c87f9e9	0.016598659
71	0xbd4db549	-0.050221715
72	0x3d5467e4	0.05185689
73	0xbc6b2ac1	-0.014353455
74	0xbbafcd30	-0.0053650364
75	0xbcdb1318	-0.026742503
76	0x3d0ab963	0.033868205
77	0xbcd286ce	-0.025699046
78	0x3d8291fe	0.06375502
79	0x3d70bdcd	0.058774758
80	0x3c2a019d	0.010376361
81	0x3d18c63e	0.037298433
82	0x3d16469d	0.036688436
83	0xbc4f6552	-0.012658434
84	0xbd1d78e0	-0.038445354
85	0xbd53baa6	-0.051691674
86	0x3bf531de	0.0074827513
87	0xbd55831a	-0.05212698
88	0xbd08181f	-0.03322613
89	0xbb91362e	-0.0044315076
90	0xbb71a83e	-0.0036873962
91	0x3cc10018	0.023559615
92	0xbc86ea18	-0.016469046
93	0x3d3c04ac	0.045902893
94	0x3d24db04	0.040247932
95	0x3cfe4476	0.031038504
96	0xbd57e719	-0.052710626
97	0x3b0a43f9	0.0021097644
98	0x3d86df6f	0.06585585
99	0x3cb70d20	0.022345126
100	0xbcca8edc	-0.024726324
101	0xbd01b450	-0.0316661
102	0x3bffb12f	0.0078031044
103	0x3ccceb24	0.025014468
104	0x3d67ca4e	0.056589417
105	0x3d750c0b	0.05982594
106	0x3d81af69	0.06332285
107	0xbbd7ef00	-0.0065897703
108	0xbd20056f	-0.039067682
109	0xb754550d	-1.2655987e-05
110	0xbc230739	-0.0099504525
111	0x3d22373a	0.03960345
112	0xbd14df5a	-0.036345817
113	0xbb785bed	-0.003789659
114	0xbd3e744e	-0.046497636
115	0x3d19ba13	0.03753097
116	0xbd213fcd	-0.039367486
117	0xbca5cdf9	-0.020239817
118	0x3d6066fe	0.05478572
119	0x3c0fff59	0.008788907
120	0xbc20eec7	-0.009822554
121	0xbbd906f7	-0.0066231447
122	0xbcbc97c8	-0.023021594
123	0xbacf3fa6	-0.0015811815
124	0x3d3a41c9	0.045472894
125	0xbcb0cc04	-0.021581657
126	0x3d3eb7ba	0.046561934
127	0x3d0d5cc6	0.034512304
128	0x3d4cedd2	0.05003149
129	0xba8aca41	-0.0010588841
130	0x3d217ff8	0.03942868
131	0xbd0030aa	-0.03129641
132	0x3ca13e02	0.019682888
133	0x3d46ba1b	0.048517328
134	0x3bc26c33	0.0059333085
135	0x3c9087cb	0.017642876
136	0x3d3fe67a	0.04685066
137	0x3d38d63b	0.04512618
138	0x3ce99cad	0.028517092
139	0xbd40f058	-0.04710421
140	0x3c52d06e	0.012867076
141	0x3cb0f997	0.021603389
142	0x3ce8ccd6	0.028417986
143	0x3d599fa9	0.05313078
144	0xbc860879	-0.016361462
145	0x3c8eb0fb	0.017418375
146	0xbd60a378	-0.054843396
147	0xbd7122b6	-0.058870994
148	0xbd40d412	-0.047077246
149	0xbbde70dc	-0.006788356
150	0x3c754a80	0.014971375
151	0x3d0a4a43	0.033762228
152	0xbccb9b87	-0.024854435
153	0xbce7fa0b	-0.028317472
154	0xbd4e240a	-0.05032734
155	0x3cb8fba8	0.022580937
156	0xbd5b50f7	-0.05354401
157	0x3d202c37	0.039104667
158	0xbd1fcbc7	-0.039012697
159	0x3d24d42d	0.04024141
160	0xbd363bf3	-0.044490766
161	0x3d736a80	0.05942774
162	0xbd00a38c	-0.03140597
163	0x3d3599a0	0.04433596
164	0xbd7e8cea	-0.062146105
165	0x3d3a6982	0.045510776
166	0x3d33a149	0.043854985
167	0xbcb6cc1f	-0.02231413
168	0xbcd2e7a6	-0.025745224
169	0x3d1d94db	0.038472038
170	0xbc2bbbab	-0.010481755
171	0x3d34cc97	0.044140425
172	0x3bd57088	0.006513659
173	0xbc792244	-0.0152059235
174	0x3cfa5f00	0.030562878
175	0x3d291aa8	0.041285187
176	0x3d0cfc14	0.034420088
177	0xbcadc58c	-0.021212362
178	0xbd1c7f32	-0.03820724
179	0x3cba16d7	0.022715969
180	0x3961c9c3	0.00021532834
181	0xbd489617	-0.04897126
182	0x3cc0fb87	0.023557438
183	0x3d8ace9d	0.067776896
184	0x3cad68eb	0.021168193
185	0x3c8e4317	0.017365975
186	0x3c1ad239	0.009449535
187	0xb939002d	-0.0001764304
188	0x3d51c2f6	0.05121132
189	0x3d5f417b	0.054505806
190	0x3d8da256	0.06915729
191	0xbc914d6a	-0.01773711
192	0xbbe420b4	-0.0069619063
193	0xbd06b480	-0.032886982
194	0x3d1a5e7e	0.03768777
195	0xbd0c870d	-0.034308482
196	0xbc824111	-0.015900167
197	0xbc526280	-0.012840867
198	0xbb571a75	-0.0032822166
199	0x3d4f7cfb	0.0506563
200	0x3d743c2a	0.05962769
201	0x3c8b1665	0.016978452
202	0xbbed901a	-0.0072498443
203	0xbceefdc6	-0.029173743
204	0x3c487973	0.012235987
205	0xbd3925dc	-0.04520212
206	0x3cce2c49	0.025167601
207	0xb90fb7d7	-0.00013706028
208	0x3c54cd44	0.012988392
209	0xbd5840ff	-0.05279636
210	0xbd5751c2	-0.052568205
211	0xbcebea9c	-0.028798394
212	0xbd28b25f	-0.041185733
213	0x3d3fd614	0.04683502
214	0xbd020a8c	-0.03174834
215	0xbca80a50	-0.02051273
216	0x3d7e3a52	0.062067337
217	0xbc1f74a0	-0.009732395
218	0xbd084369	-0.033267412
219	0x3d096176	0.03354021
220	0xbcae3b49	-0.021268504
221	0xbd273837	-0.040825095
222	0x3d749aab	0.059717815
223	0xbd3ae646	-0.045629762
224	0xbc26baf6	-0.010176411
225	0xbd67e86f	-0.05661815
226	0x3bc4721c	0.005995048
227	0x3d847864	0.06468275
228	0x3d58157d	0.052754868
229	0xbcd5ff97	-0.026122851
230	0x3ce624b5	0.028093675
231	0x3a5f5f55	0.00085209805
232	0x3d5a0e09	0.05323604
233	0xbd2c85a8	-0.042119652
234	0x3ce76606	0.02824689
235	0x3c6bba81	0.014387728
236	0x3cf11a83	0.029431587
237	0x3d518b71	0.051158372
238	0xbcd94de0	-0.026526392
239	0x3d1bf0a3	0.038071286
240	0x3d0ea1b1	0.03482217
241	0x3d4879f0	0.048944414
242	0x3d88807d	0.06665132
243	0x3d4ee169	0.050507937
244	0x3d3c74ac	0.046009704
245	0x3c10aad7	0.008829794
246	0xbd653a33	-0.055963706
247	0x3d684ca6	0.056713723
248	0x3d6062e0	0.054781795
249	0xbcda7a0a	-0.02666952
250	0xbd1cab38	-0.038249224
251	0x3cd9a7cc	0.02656927
252	0xbd04fbed	-0.032466818
253	0x3d9001bf	0.07031583
254	0x3d7ee715	0.062232096
255	0x3c9a8336	0.018861394

linear_2.bias f4 [64]
0	0x3d6c3872	0.057671018
1	0xbd69371c	-0.056937322
2	0xbcc1cadd	-0.023656303
3	0x3ced33a7	0.028955294
4	0xbcbdd8a6	-0.023174595
5	0xbd3810a0	-0.04493773
6	0x3d8da3cd	0.06916008
7	0x3d03f94b	0.032220166
8	0xbcd6a091	-0.02619961
9	0xbd2e802b	-0.0426027
10	0x3d705c9a	0.05868206
11	0x3d558272	0.052126355
12	0xbb155886	-0.002278836
13	0xbca6d2d0	-0.020364195
14	0x3caffd7a	0.021483172
15	0x3d16c6a0	0.036810517
16	0xbc4c1712	-0.012456672
17	0xbd0f3e70	-0.034971654
18	0x3d271305	0.040789623
19	0x3d6d2c73	0.05790372
20	0xbd292eb9	-0.041304324
21	0xbc25fa28	-0.010130443
22	0x3ced708c	0.02898433
23	0xbca24703	-0.019809252
24	0x3cd39eee	0.02583262
25	0xbd39fda7	-0.045407917
26	0x3d70636c	0.058688566
27	0xbc064f61	-0.008197636
28	0xbd2086c6	-0.03919103
29	0xbd3a09d4	-0.04541953
30	0x3d5f4e66	0.054518126
31	0xbcbb9d72	-0.022902224
32	0xbc586b7f	-0.013209223
33	0x3c1a82e4	0.009430621
34	0xbc25d1f5	-0.010120858
35	0xbd63b1e5	-0.055589575
36	0xbc887d77	-0.016661389
37	0xbc9688d0	-0.018375784
38	0xbce8eb78	-0.028432593
39	0xbd6548da	-0.05597768
40	0x3d5473a8	0.05186811
41	0x3d4a09f9	0.049325917
42	0xbd7f7c74	-0.062374547
43	0xbcd43642	-0.025904778
44	0x3c1ca790	0.009561434
45	0xbd3c346e	-0.04594844
46	0xbcfe98ea	-0.031078774
47	0x3d0429e4	0.032266513
48	0xbd36f2ec	-0.044665262
49	0xbd156a44	-0.036478296
50	0x3d699c91	0.05703408
51	0xbcc91eb8	-0.02455078
52	0xbd1fd1e8	-0.03901854
53	0x3d8da25f	0.069157355
54	0xbc9ad08d	-0.018898273
55	0xbd455ea2	-0.048185952
56	0x3d401512	0.046895094
57	0x3d84c85f	0.0648353
58	0xbd3044a6	-0.04303422
59	0x3c833625	0.016017029
60	0x3d272deb	0.040815275
61	0x3d1ead9d	0.03873979
62	0x3c3f0aa8	0.0116602555
63	0x3cce67bb	0.025195947

linear_3.weight f4 [1, 64]
0	0x3deac674	0.11463633
1	0xbdb2654c	-0.08710727
2	0xbc876695	-0.016528407
3	0xbd85a485	-0.0652552
4	0x3d712d3b	0.058881026
5	0x3d893edc	0.067014426
6	0x3deb0b58	0.11476773
7	0xbca2e169	-0.019882875
8	0xbcf6bbaf	-0.030118791
9	0x3d284364	0.041079894
10	0x3dcff941	0.10154963
11	0x3d91affc	0.071136445
12	0xbcfa1aa8	-0.030530289
13	0x3d0ed7a6	0.034873627
14	0x3d02fc96	0.031979166
15	0xbdbdf826	-0.09275846
16	0x3d6db2db	0.058031898
17	0x3df7792a	0.12083657
18	0x3e05b906	0.13058862
19	0x3e0176b7	0.12642942
20	0xbdcbd63f	-0.099529736
21	0xbd912e4a	-0.07088907
22	0x3d9bf5ad	0.07615218
23	0x3ddd518a	0.10806568
24	0x3d12a93f	0.035805937
25	0x3c7f2f74	0.015575279
26	0x3d4e5068	0.05036965
27	0x3dafa67b	0.085766755
28	0x3d8815d3	0.06644788
29	0x3d9dfd5e	0.077143416
30	0x3de220ea	0.11041434
31	0xbd85ed12	-0.06539358
32	0x3cf35c6e	0.02970716
33	0xbd5a0d12	-0.05323512
34	0x3d68be7b	0.05682228
35	0xbd675482	-0.056477077
36	0x3dbc5998	0.09196776
37	0x3d35b88d	0.044365454
38	0xbd65e02f	-0.056122
39	0xbdef45d6	-0.11683242
40	0x3d22e26c	0.039766714
41	0x3dfea5e9	0.124339886
42	0xbde30fec	-0.11087021
43	0x3c3faee0	0.011699408
44	0x3d01296e	0.03153365
45	0x3d41eac5	0.047343034
46	0xbdd0c49b	-0.101937495
47	0xbd82c836	-0.063858435
48	0xbdb446bb	-0.08802553
49	0x3c9f03cd	0.019410992
50	0x3c340069	0.010986426
51	0xbcd22abb	-0.025655141
52	0x3dec6c35	0.11544076
53	0x3dc910a8	0.0981763
54	0x3dc58248	0.0964399
55	0xbbf81540	-0.0075708926
56	0xbd153df4	-0.036436036
57	0x3c54e2c3	0.012993517
58	0x3db877bd	0.09007213
59	0x3dfacf93	0.12246623
60	0xbdec70c0	-0.11544943
61	0xbdb05e78	-0.086117685
62	0xbdb612d0	-0.08890307
63	0xbd5521bb	-0.05203412
