ndp/weights/pretrain-3.pt (torch, 9775 bytes, 5 tensors)

linear_1.weight f4 [36, 27]
0.013610644 -0.005857731 -0.017400535 0.044673998 0.0973012 -0.042361025 0.036074672 0.16041529
-0.056632508 0.082223766 0.025125194 0.102196306 0.09874789 -0.025548156 0.21666431 0.048302684
-0.08483814 -0.28053212 0.17248364 -0.22769988 0.061887942 -0.18151146 -0.15411478 0.050315175
0.015171032 -0.004895483 0.04514704 0.09091579 -0.03473673 -0.12557572 0.01871964 0.21022224
0.17986394 -0.10066834 -0.039047897 0.18084295 0.20988643 -0.13766852 0.047719326 0.034542806
-0.023368945 0.18053383 0.0059851403 0.23790964 0.19713919 0.10874087 0.076075405 0.09461606
-0.10037008 0.19259454 0.090111926 0.04795545 0.073771656 -0.09315116 -0.070094466 0.18034641
-0.021903954 -0.038557857 0.18423568 0.11835934 -0.10719356 0.09372888 -0.120563045 0.22804958
0.17316112 -0.02194566 -0.046021357 -0.011806961 0.024668852 -0.015368112 0.055012625 0.14747198
0.19318421 -0.037360746 -0.14069423 0.22040959 0.14797586 0.07647918 0.1458669 -0.013237654
0.101091065 -0.06368461 0.18946181 0.052576706 0.20995396 0.17485039 0.15597524 -0.05213281
0.10990275 -0.040859558 0.034591287 0.17834803 -0.1269187 0.17330477 0.2008945 -0.1267978
-0.008478563 0.027712692 0.1606262 -0.01570054 0.10642812 0.097226486 0.17141303 -0.028240567
-0.052265413 0.13024463 -0.005034575 -0.030743016 0.1970506 0.18374337 0.14071336 0.14558733
-0.13871741 -0.09571999 -0.03405097 0.09942445 0.0929296 -0.05587997 -0.004463855 0.23436427
-0.030992385 -0.110301234 -0.023769747 0.12079822 0.0697831 0.081444085 0.05701784 0.09647103
-0.07821461 0.19555803 -0.023523279 -0.017562727 0.21779291 0.061689127 -0.09077566 0.11970931
0.044937596 0.23779345 0.08245974 -0.05257317 -0.0046140985 0.023940945 -0.05923013 -0.0769326
-0.12331588 0.05515118 -0.082237616 0.17397173 -0.06120456 0.054370623 0.09093241 0.054179758
0.0154008735 -0.12777863 0.13334177 0.0130586075 0.114003934 0.016814278 -0.026634255 0.060500413
0.20088297 -0.06797259 0.17909701 0.11999817 0.12517883 -0.012758696 0.06504468 -0.07175878
0.09231565 0.19796014 -0.13200103 -0.04509855 0.23202595 0.033690717 0.1639904 0.15831162
-0.12414745 -0.00843005 0.09739884 0.18592736 0.15614201 0.13021022 0.028806511 0.13400272
0.1866939 -0.12617506 0.14606917 -0.09414694 -0.03227404 -0.066483065 0.035971664 0.12133248
0.12878218 0.21389242 -0.121657245 -0.010362648 -0.09278077 0.17744265 -0.002279011 -0.039222434
-0.08474253 0.060458988 0.013490369 -0.051641885 0.011739664 -0.024201741 0.19250214 0.15902421
0.1431392 0.16677608 -0.0411101 0.11387162 -0.0039406824 -0.08659909 -0.047267124 0.0062382766
-0.026361372 0.20825998 0.047915608 0.07545455 0.16346674 0.15985186 -0.11995493 -0.14976738
0.0060535814 0.17862244 0.17198163 -0.11018745 0.050963677 0.16866767 0.16027325 0.15013173
-0.055741724 -0.03390106 -0.12801063 0.16762681 0.20012148 0.17168011 0.17183758 -0.14691263
0.17319946 0.11902869 0.14302433 0.037040014 0.00969399 0.067798465 0.05148467 0.043335516
-0.16761309 0.21513608 -0.18446444 0.045896996 -0.17911609 0.09656843 0.057095613 0.09099996
00000000: 2eff 5e3c 36f2 bfbb 918b 8ebc 15fc 363d
00000010: da45 c73d c182 2dbd 09c3 133d e843 243e
00000020: 7df7 67bd ef64 a83d 5ad3 cd3c 4c4c d13d
00000030: 553c ca3d 5e4a d1bc 40dd 5d3e 09d9 453d
00000040: 9ebf adbd e8a1 8fbe 8d9f 303e 282a 69be
00000050: 367e 7d3d 24de 39be 44d0 1dbe 4917 4e3d
00000060: ec8f 783c 4a6a a0bb 1aec 383d 0f32 ba3d
00000070: 1a48 0ebd ec96 00be ee59 993c 8044 573e
00000080: 412e 383e 342b cebd b0f0 1fbd e52e 393e
00000090: 78ec 563e faf8 0cbe 5775 433d c27c 0d3d
000000a0: 3b70 bfbc dcdd 383e ff1e c43b 969e 733e
000000b0: dbde 493e 89b3 de3d 6ccd 9b3d 11c6 c13d
000000c0: d48e cdbd 8137 453e 9a8c b83d ef6c 443d
000000d0: 9815 973d 09c6 bebd b08d 8fbd bbac 383e
000000e0: ec6f b3bc d8ee 1dbd 47a8 3c3e 6266 f23d
000000f0: 4c88 dbbd edf4 bf3d c2e9 f6bd d485 693e
00000100: 2651 313e 62c7 b3bc e480 3cbd fc71 41bc
00000110: 5516 ca3c 89ca 7bbc eb54 613d e502 173e
00000120: 15d2 453e 9507 19bd 2612 10be 0db3 613e
00000130: fc86 173e 1ea1 9c3d 225e 153e bfe2 58bc
00000140: d508 cf3d 146d 82bd 4702 423e ac5a 573d
00000150: 2cfe 563e fb0b 333e f9b7 1f3e 3789 55bd
00000160: b114 e13d 5a5c 27bd 98af 0d3d dea0 363e
00000170: faf6 01be ce76 313e 4ab7 4d3e 48d7 01be
00000180: ace9 0abc ba05 e33c 327b 243e 6b9e 80bc
00000190: fcf6 d93d ae1e c73d e686 2f3e c358 e7bc
000001a0: 4214 56bd d95e 053e 13f9 a4bb c7d8 fbbc
000001b0: a2c7 493e 3927 3c3e 2a17 103e d814 153e
000001c0: f00b 0ebe d808 c4bd 0879 0bbd 0c9f cb3d
000001d0: e051 be3d 65e2 64bd 8845 92bb 30fd 6f3e
000001e0: bee3 fdbc 9de5 e1bd c6b8 c2bc 0f65 f73d
000001f0: 71ea 8e3d 28cc a63d 8a8b 693d 9a92 c53d
00000200: fb2e a0bd 5d40 483e e4b3 c0bc b5df 8fbc
00000210: 1b05 5f3e bdad 7c3d 97e8 b9bd 282a f53d
00000220: 7c10 383d 2080 733e a7e0 a83d f756 57bd
00000230: dd31 97bb cd1f c43c 4b9b 72bd d78e 9dbd
00000240: 098d fcbd 34e6 613d 326c a8bd a525 323e
00000250: a2b1 7abd bbb3 5e3d c53a ba3d 98eb 5d3d
00000260: f253 7c3c 67d8 02be bf8a 083e c5f3 553c
00000270: e57a e93d 19be 893c 1530 dabc 48cf 773d
00000280: 44b4 4d3e 3735 8bbd 3565 373e 9ac1 f53d
00000290: e12e 003e da09 51bc 2536 853d 44f6 92bd
000002a0: fd0f bd3d 10b6 4a3e 472b 07be 42b9 38bd
000002b0: 3698 6d3e 47ff 093d 19ed 273e 711c 223e
000002c0: 0541 febd 311e 0abc 0b79 c73d be63 3e3e
000002d0: b1e3 1f3e d455 053e a2fb eb3c 0238 093e
000002e0: b02c 3f3e 0934 01be 2893 153e 1cd0 c0bd
000002f0: c931 04bd 4628 88bd 0657 133d 2a7d f83d
00000300: 7adf 033e 9d06 5b3e 6f27 f9bd 19c8 29bc
00000310: d803 bebd 87b3 353e 765b 15bb b4a7 20bd
00000320: 7e8d adbd d8a3 773d b506 5d3c 7186 53bd
00000330: b857 403c bb42 c6bc 481f 453e 3ed7 223e
00000340: 1593 123e 59c7 2a3e 1063 28bd 8635 e93d
00000350: d720 81bb dd5a b1bd 2c9b 41bd 756a cc3b
00000360: cef3 d7bc 1b42 553e 2843 443d ea87 9a3d
00000370: d363 273e 35b0 233e eeaa f5bd 9f5c 19be
00000380: 1f5d c63b cde8 363e f41b 303e f5a9 e1bd
00000390: 4abf 503d 38b7 2c3e ac1e 243e 22bc 193e
000003a0: 6f51 64bd d6db 0abd 3815 03be 5da6 2b3e
000003b0: a5ec 4c3e e9cc 2f3e 31f6 2f3e 4470 16be
000003c0: 335b 313e 50c5 f33d f874 123e 45b7 173d
000003d0: 8bd3 1e3c ecd9 8a3d 97e1 523d 9580 313d
000003e0: c4a2 2bbe a24c 5c3e 3fe4 3cbe 7dfe 3b3d
000003f0: 356a 37be abc5 c53d 17dd 693d 305e ba3d

linear_1.bias f4 [36]
0.12633893 -0.033526633 0.03110185 0.15976752 0.15854803 0.19122331 -0.12667456 -0.06864432
-0.06639734 -0.047875945 0.08559328 -0.09877355 0.08535185 -0.13243534 0.012188409 -0.17540324
-0.074916214 0.06892091 0.22484173 -0.064068675 -0.1458097 0.23151858 -0.06631582 0.16163696
0.026619324 0.11777702 -0.04887999 0.016236544 -0.0026069265 -0.07448539 -0.17358704 -0.15753569
-0.08544551 -0.11051995 0.17990479 0.12487206
00000000: fe5e 013e 3953 09bd 4fc9 fe3c 199a 233e
00000010: 6a5a 223e 0bd0 433e fab6 01be 6595 8cbd
00000020: 54fb 87bd 9119 44bd 884b af3d c949 cabd
00000030: f3cc ae3d 219d 07be e5b1 473c e89c 33be
00000040: ac6d 99bd 6826 8d3d e93c 663e 7036 83bd
00000050: 234f 15be 3513 6d3e 97d0 87bd 2984 253e
00000060: c510 da3c 1435 f13d 6236 48bd 8002 853c
00000070: f8d8 2abb cc8b 98bd cdc0 31be 0951 21be
00000080: 0efe aebd 4958 e2bd f638 383e ecbc ff3d

linear_2.weight f4 [24, 36]
0.052272853 0.117560826 0.17548224 0.18797338 0.071213216 -0.025145339 -0.0966571 0.12010399
0.13725305 0.09194224 0.17458637 0.1778428 -0.034873806 0.010847651 -0.017418096 -0.033429183
-0.081385374 0.11907077 0.18702462 0.19159353 -0.09352894 0.10051438 0.20289837 0.328223
0.16322854 0.1006248 0.11178113 0.18482454 -0.0398878 0.021538071 -0.07988475 0.14043206
0.040573508 0.0658376 0.12131063 -0.10166623 0.13691373 -0.116769575 0.15856542 0.17741401
-0.030261006 0.0840787 0.20079105 -0.1893359 -0.07836777 0.040353063 0.10878476 0.039120503
0.05525117 0.17311364 0.093825 0.104707725 0.1049885 -0.0057307277 0.1574951 0.14080615
-0.057169463 0.2012989 -0.044722427 0.3264828 0.13414694 -0.0836911 -0.029312266 -0.040143006
0.19662213 -0.080191344 0.11660103 -0.036581177 -0.025579 0.0052980706 0.21352495 -0.003725311
0.081267096 -0.0027308888 0.008939276 0.15660478 -0.08669907 0.04170711 0.010263104 -0.10957608
0.06595085 0.16110218 0.15587206 0.108295016 0.078729205 -0.051036324 -0.073888816 0.07982581
-0.025946068 -0.035246667 -0.09452249 0.13164459 -0.039740533 0.067025505 0.20012936 0.19149937
-0.03803843 0.10095998 0.0132896025 -0.07613085 0.088377066 -0.065088436 -0.09946735 0.1587142
-0.014107296 0.06249625 -0.03271367 -0.08438078 0.021295194 -0.031658538 -0.02212098 0.15379426
0.016261838 -0.024862703 -0.03947043 -0.17806537 0.1837421 -0.07763346 0.16314335 -0.10703131
0.17610118 0.07018968 -0.10717544 0.10161856 0.088096544 -0.09353612 0.13726124 0.18596092
0.16353115 -0.011942077 0.14526089 0.07293727 0.20188116 0.15440692 -0.14811067 0.060527567
0.10443898 -0.06428253 -0.15019196 0.069262445 0.04765786 0.09100067 -0.10855856 -0.035837542
-0.09899239 0.07133927 -0.012104365 -0.16406207 0.02900752 -0.10565067 -0.06147081 0.075040564
-0.16394112 -0.024860887 0.1383972 0.1417754 0.14890827 0.117746115 -0.1498102 -0.1526405
-0.0597791 -0.021269163 -0.10793206 -0.023317168 -0.03491156 -0.022798864 -0.15922226 0.11998198
-0.11990061 -0.0061455485 0.14991108 0.13997863 -0.08827799 0.06320425 0.026523154 0.024465999
-0.11507233 0.103402376 0.1123023 -0.028529352 0.300995 -0.12169018 0.13490398 -0.12628788
-0.0033993097 0.095434956 0.060508057 -0.050095785 -0.042010237 0.06714998 -0.052701198 0.16877154
-0.018858325 -0.07300423 -0.11837951 -0.15413061 0.09099975 0.115533784 0.050857354 -0.015986491
0.008227745 0.13880906 -0.1433621 0.23613018 0.020648384 0.13249242 0.083459295 0.13272466
0.009092715 -0.06395969 0.06078891 -0.030480172 0.1528992 0.08880027 0.15029173 -0.06822537
-0.009844921 0.065750964 -0.14266606 -0.022777073 -0.03702384 -0.114529006 -0.08806437 -0.04549513
0.03910104 0.14717352 0.061025057 -0.10121896 -0.0027177504 0.016171424 -0.046770506 -0.14104934
0.013714371 -0.14814632 -0.06512916 0.11916223 -0.03427685 0.05107888 -0.08826154 0.0842046
0.007193015 -0.03721086 0.12397909 0.0064940583 0.12898801 -0.12936862 -0.033075295 0.114839755
-0.11918574 0.0019559113 -0.010074442 -0.08052254 0.12374261 -0.10152868 -0.04817568 0.116962515
00000000: 0f1c 563d bbc3 f03d 9eb1 333e 187c 403e
00000010: 3cd8 913d 99fd cdbc 28f4 c5bd 15f9 f53d
00000020: 108c 0c3e 374c bc3d c5c6 323e 6c1c 363e
00000030: d6d7 0ebd 59ba 313c 65b0 8ebc 0aed 08bd
00000040: 60ad a6bd 60db f33d 6283 3f3e 1831 443e
00000050: 1a8c bfbd 7cda cd3d 97c4 4f3e d80c a83e
00000060: 6225 273e 6014 ce3d 81ed e43d a542 3d3e
00000070: 6461 23bd 9c70 b03c 9e9a a3bd 6ccd 0f3e
00000080: 6830 263d ddd5 863d b571 f83d 6236 d0bd
00000090: 1d33 0c3e e324 efbd f95e 223e 05ac 353e
000000a0: eee5 f7bc 7431 ac3d 2b9c 4d3e 45e1 41be
000000b0: 487f a0bd 4149 253d 8bca de3d d23c 203d
000000c0: 0d4f 623d b444 313e 5227 c03d 0171 d63d
000000d0: 3604 d73d d4c8 bbbb 6546 213e 7d2f 103e
000000e0: 872a 6abd 4d21 4e3e dd2e 37bd c128 a73e
000000f0: d15d 093e 3d66 abbd 4720 f0bc fe6c 24bd
00000100: 5057 493e 5c3b a4bd 85cc ee3d 25d6 15bd
00000110: 0d8b d1bc 709b ad3b 49a6 5a3e 5924 74bb
00000120: 5d6f a63d b6f8 32bb 0b76 123c 015d 203e
00000130: 488f b1bd 13d5 2a3d 9426 283c 6d69 e0bd
00000140: 3d11 873d f8f7 243e ed9c 1f3e c7c9 dd3d
00000150: c73c a13d 770b 51bd 0553 97bd b77b a33d
00000160: d98c d4bc cf5e 10bd 0295 c1bd d7cd 063e
00000170: f8c6 22bd ab44 893d b6ee 4c3e 6918 443e
00000180: 2fce 1bbd 1bc4 ce3d a2bc 593c 7eea 9bbd
00000190: 09ff b43d 164d 85bd 8ab5 cbbd fa85 223e
000001a0: 4a22 67bc 11fc 7f3d c5fe 05bd d5cf acbd
000001b0: 4273 ae3c 62ac 01bd 0f37 b5bc 3e7c 1d3e
000001c0: 8c37 853c deac cbbc bfab 21bd c556 36be
000001d0: e426 3c3e 4bfe 9ebd 0d0f 273e 3b33 dbbd
000001e0: de53 343e 9bbf 8f3d cc7e dbbd 641d d03d
000001f0: f66b b43d de8f bfbd 368e 0c3e 8a6c 3e3e
00000200: b674 273e b4a8 43bc 45bf 143e 2360 953d
00000210: efb9 4e3e d91c 1e3e 53aa 17be c1eb 773d
00000220: 1be4 d53d 8fa6 83bd eccb 19be 78d9 8d3d
00000230: e334 433d 8f5e ba3d f353 debd 63ca 12bd
00000240: 86bc cabd 531a 923d 6351 46bc e3ff 27be
00000250: 2ea1 ed3c 615f d8bd d1c8 7bbd deae 993d
00000260: 2ee0 27be 0fa9 cbbc ffb7 0d3e 922d 113e
00000270: 697b 183e e024 f13d d867 19be cb4d 1cbe
00000280: eeda 74bd ab3c aebc 7c0b ddbd a503 bfbc
00000290: 6dff 0ebd afc4 babc 290b 23be 1db9 f53d
000002a0: 738e f5bd 9960 c9bb 4a82 193e 8f56 0f3e
000002b0: 17cb b4bd 3b71 813d 1647 d93c eb6c c83c
000002c0: 0bab ebbd a0c4 d33d c0fe e53d 63b6 e9bc
000002d0: 041c 9a3e b338 f9bd 4524 0a3e 9c51 01be
000002e0: f4c6 5ebb 6773 c33d 4cd7 773d 3d31 4dbd
000002f0: ed12 2cbd ee85 893d 36dd 57bd 72d2 2c3e
00000300: c67c 9abc 3e83 95bd f570 f2bd 6ad4 1dbe
00000310: 145e ba3d fa9c ec3d cd4f 503d 1af6 82bc
00000320: aacd 063c f623 0e3e 84cd 12be 1ccc 713e
00000330: cd26 a93c 18ac 073e b5ec aa3d f9e8 073e
00000340: 9cf9 143c 4cfd 82bd cbfd 783d 8eb1 f9bc
00000350: 9c91 1c3e eadc b53d 13e6 193e beb9 8bbd
00000360: 974c 21bc 71a8 863d 0d17 12be fc96 babc
00000370: 4fa6 17bd 2f8e eabd 185b b4bd 1a59 3abd
00000380: 6a28 203d a8b4 163e 69f5 793d e34b cfbd
00000390: 491c 32bb ef79 843c 6e92 3fbd 3d6f 10be
000003a0: 3eb2 603c abb3 17be 7062 85bd 540b f43d
000003b0: e265 0cbd 1638 513d 77c2 b4bd 7673 ac3d
000003c0: 62b3 eb3b 6a6a 18bd c0e8 fd3d 1ccc d43b
000003d0: 6f15 043e 3579 04be f679 07bd 1b31 eb3d
000003e0: a717 f4bd bf2e 003b 460f 25bc 00e9 a4bd
000003f0: c46c fd3d 45ee cfbd dd53 45bd 0b8a ef3d

linear_2.bias f4 [24]
-0.09677558 0.11203894 0.08276355 0.04351088 -0.00979368 0.027439445 0.05745243 -0.15455337
-0.13797426 -0.13731089 0.10176528 0.14217559 0.12922196 -0.06776919 -0.03785398 -0.07675072
0.1354981 0.017033791 0.12094203 0.19822936 -0.16708922 -0.058041 -0.04008033 -0.10515859
00000000: 4632 c6bd ac74 e53d f07f a93d 7738 323d
00000010: ac75 20bc b0c8 e03c 3d53 6b3d 3d43 1ebe
00000020: 2049 0dbe 3a9b 0cbe 516a d03d 7a96 113e
00000030: c352 043e 93ca 8abd c60c 1bbd 7b2f 9dbd
00000040: 04c0 0a3e 738a 8b3c 74b0 f73d a3fc 4a3e
00000050: 7019 2bbe 66bc 6dbd 462b 24bd 635d d7bd

linear_3.weight f4 [1, 24]
0.23343274 0.18250524 0.11525938 0.23232976 -0.054899924 0.029753188 -0.07940329 -0.08506304
-0.15870297 0.13992818 0.16777763 0.22667632 0.1422564 0.048656356 -0.048784133 0.1194012
0.080694124 -0.06690449 0.15345575 0.17292936 -0.16604392 -0.16334848 -0.17431898 -0.19906789
00000000: fe08 6f3e a7e2 3a3e 1c0d ec3d dae7 6d3e
00000010: bede 60bd f5bc f33c 319e a2bd 8835 aebd
00000020: 0883 22be 5549 0f3e e6cd 2b3e d61d 683e
00000030: a9ab 113e e34b 473d dfd1 47bd 9e88 f43d
00000040: f642 a53d 3905 89bd 8123 1d3e 6514 313e
00000050: 6b07 2abe d344 27be ad80 32be 74d8 4bbe
