ndp/weights/pretrain-6.pt (torch, 155247 bytes, 5 tensors)

linear_1.weight f4 [144, 216]
000000 81 dc ba 3b 01 87 b7 3c 00 f9 48 bc f8 f5 e5 bc
       0.0057025556 0.022403242 -0.0122663975 -0.028071389
000010 ed ae 15 bd 50 bd 8a bc c6 57 2c 3d 00 1a a6 3d
       -0.036543775 -0.016935974 0.042075895 0.08110428
000020 ad e9 15 bd ab 6d a1 3d d6 aa c6 3c 8e 89 22 3d
       -0.036599804 0.07882246 0.024251383 0.039681964
000030 0d 79 11 3d c1 b4 8f 3d c4 22 09 3b 6d 50 56 3d
       0.035515834 0.07016898 0.0020925263 0.052322794
000040 26 67 bc bc 6e ce cb 3b 13 55 34 bd 06 70 2d bd
       -0.022998404 0.0062196767 -0.044026446 -0.042343162
000050 a8 2c 29 3d 90 57 77 3d 0d 06 40 3d b9 35 32 bd
       0.041302353 0.06038624 0.04688077 -0.043508265
000060 6f cb 86 3d 47 60 0d 3d 3e 49 8f 3d 07 b9 94 3d
       0.06581771 0.034515645 0.06996392 0.07261854
000070 15 b4 fe 39 11 4b a6 3c eb d9 31 bd 3f 2d bc 3c
       0.00048580827 0.020299466 -0.043420713 0.022970794
000080 64 fe 19 bc ca cc a4 3d 58 f0 86 3a 7f eb bf 3b
       -0.00939903 0.08046873 0.0010295017 0.0058569307
000090 fb 47 2e bd 0f fb 93 bc 2f 9a 31 3d c2 0c 40 3d
       -0.042549115 -0.01806405 0.04335993 0.046887167
0000a0 d9 78 a7 3c ea 88 1e 3d 99 fb c1 3c 53 29 ef 3c
       0.020443367 0.03870479 0.023679541 0.02919451
0000b0 f9 b3 5a 3d ec 1e 21 bd a7 3c 73 3d 98 00 1a 3d
       0.05339429 -0.03933613 0.059384014 0.037598222
0000c0 b8 e1 da bc 09 6e 69 3d d0 f5 a8 3c 68 40 37 3d
       -0.02671896 0.056989703 0.020625025 0.044739157
0000d0 da a9 4c 3d ee be 87 bc b8 f4 b6 3c 84 b3 80 3d
       0.04996667 -0.016570535 0.022333488 0.0628424
0000e0 70 f9 a6 3c 05 65 57 3d 0a 70 a9 3d 46 3d 87 3b
       0.020382613 0.052586574 0.08273323 0.0041271774
0000f0 7c 5f c5 bb fe e7 42 bd 80 d4 00 bd 4a 73 2f 3b
       -0.0060233455 -0.047584526 -0.031452656 0.0026771598
000100 b3 16 94 3c 7a 1e f6 bc ee bc 05 3d d0 6d 2d bc
       0.01807723 -0.03004383 0.03265088 -0.010585263
000110 b2 ea ff 3b 89 f0 9f 3d 38 75 f2 bc 42 dd 26 3d
       0.0078099603 0.0780955 -0.02959691 0.04073835
000120 01 7d e9 bc 6d e0 c8 bc 7d 47 b1 3b 82 28 3b 3d
       -0.02850199 -0.024521077 0.0054101334 0.045692928
000130 b2 36 41 bd 7a 77 34 bc 20 49 9a 3d a9 72 bc bc
       -0.047171302 -0.011014814 0.07533479 -0.023003893
000140 31 55 08 3d 03 80 8a 3c e4 04 62 3d a5 a0 06 bc
       0.03328437 0.016906744 0.055180445 -0.008217012
000150 88 b4 c3 3b 0b fb 62 3d 11 85 14 3c ff 53 73 3d
       0.0059724487 0.055415194 0.009064929 0.059406277
000160 84 a9 97 3d 7b e9 8f 3d 3a b9 33 3d 99 71 a0 3b
       0.074053794 0.07026955 0.043877818 0.0048963544
000170 ec 40 84 3d 69 fc a1 bc 25 f2 8d 3d 60 38 37 3d
       0.06457695 -0.019773679 0.06930951 0.044731498
000180 e9 e6 8e bc d6 88 50 3d 3b 82 3a b9 7e 52 59 bc
       -0.01744409 0.050911747 -0.00017786857 -0.013264297
000190 cd 2f da 3b 89 3a 89 3d e3 df d0 bc 1d c2 82 bc
       0.0066585303 0.06700618 -0.025497383 -0.015961701
0001a0 fd 05 61 3d de 8e ee ba 48 f2 7f bb 5d 62 a6 ba
       0.05493735 -0.0018200537 -0.0039054323 -0.001269411
0001b0 c6 f8 ff 3c 64 cf a7 bc a1 b3 1c 3d 87 3f 9a 3d
       0.031246554 -0.020484634 0.038257245 0.07531648
0001c0 ec 5a ab bb 22 bf 32 bc a0 d7 12 3b 18 68 f7 bb
       -0.0052293446 -0.010909827 0.0022406355 -0.0075502507
0001d0 da 38 ad 3c 20 aa 8a 3d b0 1d 9a 3d ab 38 8a 3d
       0.021145273 0.0677073 0.07525194 0.0674909
0001e0 5b f7 d1 ba d4 91 27 3d dc e8 a6 3d 82 ec 4a 3d
       -0.0016019152 0.040910557 0.08149883 0.049541958
0001f0 bf 94 2b 3d a9 f8 a6 3d 7f 26 40 3d 60 96 79 3d
       0.041889902 0.08152897 0.046911713 0.060934424
000200 2f 3e 92 3d 02 53 13 bd 17 e2 c3 bc 39 65 06 3d
       0.07140767 -0.035967834 -0.023911519 0.032811377
000210 83 06 81 3d 9b f2 3c 3c 5d 93 48 bd 53 06 6a 3d
       0.0630007 0.011532451 -0.04896866 0.057134937
000220 90 f4 d5 3c f5 49 61 3d ff b9 06 3a f6 0b 6a 3d
       0.026117593 0.05500217 0.000513941 0.057140313
000230 4d 56 56 bd f7 5d 0d bd 29 32 8c 3d 3e 57 53 bd
       -0.052328397 -0.03451344 0.06845505 -0.051596873
000240 76 a4 8b 3b 78 2a 51 bd 93 6a dc bb e9 b3 51 bc
       0.0042615486 -0.051065892 -0.006726572 -0.012799242
000250 2c 17 87 3d 26 11 0e 3d 78 16 0f 3d af 00 a1 3d
       0.065962166 0.034684323 0.034933537 0.078614585
000260 7e 68 3e bd 43 9a 3a 3d b7 a5 1b 3d 25 94 43 bd
       -0.04648637 0.04555727 0.037999835 -0.047748704
000270 40 6e ed 3c a3 29 c8 bb a6 17 81 3c 3a d1 d3 3b
       0.028983235 -0.006108479 0.015758347 0.0064641507
000280 5e 59 09 bd 0d 4f 00 3c 37 80 62 3c 69 cf d5 bc
       -0.033532493 0.007831347 0.013824514 -0.026099877
000290 78 93 ff 3c fd c5 61 3c 01 4f a3 3d 28 10 90 3d
       0.031198248 0.013780114 0.07974053 0.070343316
0002a0 9e 59 06 bd b3 08 65 3d f2 ab 0b bd 5b bc 97 3b
       -0.03280031 0.0559165 -0.034099527 0.004630608
0002b0 5d bb 86 3c ea 2a 77 ba 08 b3 11 bd 38 67 36 bd
       0.016446764 -0.0009428697 -0.035571128 -0.04453203
0002c0 be 74 12 3d c8 ca 03 3d aa d8 dd bb 23 92 e0 bc
       0.035755865 0.03217581 -0.006770213 -0.027413433
0002d0 97 3f ac ba 75 bc f9 bc 46 ec 94 3d ed bf 3c 3d
       -0.001314151 -0.030485371 0.07271628 0.046081472
0002e0 6e 76 1e bd 99 61 57 bd 72 df 2f bc 02 04 ae bc
       -0.038687162 -0.05258331 -0.010734426 -0.021242145
0002f0 f8 6c a2 3d 7a b6 a2 3d 46 66 af 3c 69 95 32 38
       0.079309404 0.07944961 0.021411072 4.2577656e-05
000300 9e 89 89 3d f1 7e 40 bc 35 60 0a 3d fd 18 44 3d
       0.067157015 -0.011749015 0.033783156 0.047875393
000310 b1 98 6f 3d 8c c0 48 b9 ad 1e 96 3d 26 d7 48 bd
       0.058495227 -0.00019145216 0.0733007 -0.049033307
000320 8c 48 3d 3d 1b ce 34 3c 2c 29 0c bd 60 48 e4 bb
       0.046211764 0.0110354675 -0.034218952 -0.0069666356
000330 d2 3d 83 3d 29 b9 2d bc fa 32 22 bd ce b4 20 3d
       0.06408276 -0.010603228 -0.039599396 0.03923493
000340 bb df 8d 3d f4 de 2f bd ba b1 8b 3c 67 5f d3 bc
       0.06927439 -0.042937234 0.01705252 -0.025802327
000350 f0 a0 06 3c 5b 93 3f 3d 0a e3 b3 3c 46 f7 0d bb
       0.008217081 0.04677139 0.021958847 -0.002166228
000360 20 a7 84 3d 03 54 81 3d 6e 9f 9f 3d ab d7 d5 3c
       0.06477189 0.06314852 0.07794081 0.026103815
000370 fb 36 62 bc d2 23 24 bd ac 86 bd 3c 37 4b 18 3d
       -0.013807054 -0.040073223 0.023135506 0.037181105
000380 af 49 b3 3c 63 da 4e 3b aa eb 52 3c 6c 8f 99 3c
       0.021885721 0.0031563274 0.0128735695 0.018745147
000390 dc f5 4f bc 0b 36 4e bc bf d3 a3 3d 79 00 8e 3d
       -0.012692895 -0.012586127 0.07999372 0.06933684
0003a0 95 45 3c bd 0b a0 05 3d 80 fa 92 bc 2d ac 4d bd
       -0.045964796 0.032623332 -0.017941713 -0.050213028
0003b0 d6 b3 7b 3c e1 17 5e 3d 71 be 0b 3b ff a8 d3 3c
       0.0153627 0.05422199 0.0021323229 0.02583742
0003c0 43 b3 8d 3d 86 b8 e0 bb 2c da c8 bb 0e d5 27 3b
       0.06918957 -0.0068579344 -0.0061295237 0.0025609168
0003d0 39 15 96 3d f5 f1 54 bb 6d 64 3c bd 42 61 06 3d
       0.07328267 -0.003249285 -0.04599421 0.032807596
0003e0 44 2c d4 bc f3 1d af bb 27 92 17 3c fb 81 a8 3d
       -0.025900014 -0.0053441464 0.009251154 0.08227917
0003f0 74 5c 93 3d af ab 0d bd 2c 9f 3b 3d de ec ac bc
       0.071953684 -0.03458756 0.045806095 -0.02110904

linear_1.bias f4 [144]
000000 22 38 8c bb e4 80 55 bd 94 a0 60 bd da da 8f 3c
       -0.0042791525 -0.052124873 -0.05484064 0.017560411
000010 aa 13 38 3d b2 2f 10 bd 9b 2f 79 bd f6 65 dc 3a
       0.044940628 -0.035201736 -0.060836416 0.0016815055
000020 50 5a bd bc 2f 87 34 3d 66 cc 20 bd 4f 00 8f 3d
       -0.023114353 0.044074234 -0.03925743 0.06982481
000030 b6 ad 33 bd 39 48 e9 3a be 3b 3c bd 7e 9c f6 bb
       -0.043866836 0.0017798013 -0.045955412 -0.0075259795
000040 ec 9f 33 3b 45 a7 e9 bc f3 15 0f 3c c4 70 99 bb
       0.0027408553 -0.028522143 0.00873326 -0.004682632
000050 ac b3 f9 bc c3 78 09 3d 0b 32 65 3c 3b 38 b5 bb
       -0.030481182 0.033562433 0.013988982 -0.005530385
000060 2a d1 bf bc b3 dd 20 bd 7d e1 a6 3a a3 28 85 3d
       -0.023415167 -0.03927393 0.0012731996 0.065018915
000070 d6 64 54 3d 4c 17 5a 3d c9 6d 4d bd 61 3c 58 3d
       0.051853977 0.053244874 -0.050153527 0.052791957
000080 d2 f2 11 bd e4 e0 9c 3d c8 72 6c 3d cb c2 90 bc
       -0.035631962 0.07660082 0.05772665 -0.01767101
000090 db 28 16 bc 73 70 42 3d 84 25 c8 3a d6 78 6a 3d
       -0.009165014 0.04747052 0.001526997 0.057244144
0000a0 75 dc 4f bd 71 ca 60 b9 f7 91 65 bd 71 27 bc bb
       -0.050747354 -0.0002143772 -0.056047406 -0.0057420065
0000b0 3a d6 ef 3c 7a 8f d0 3c 9a 83 9f bc ae dd 57 bc
       0.029276956 0.02545904 -0.019471932 -0.013175411
0000c0 76 5e 96 3b 5f 5f 29 bd e8 2e c6 bc 73 2c 0a bb
       0.0045888973 -0.04135072 -0.024192289 -0.0021083623
0000d0 89 94 c4 bc ad b2 80 bc e6 15 55 bd b6 a7 9f 3d
       -0.023996608 -0.0157102 -0.052022837 0.0779566
0000e0 fa 8d 45 bd 32 bd 74 3d df 7c a8 bc 6d de 17 3c
       -0.048231103 0.059750743 -0.020567356 0.009269339
0000f0 48 82 4c bd 44 9e f3 bc 8c c2 f8 bc eb 1c 1e bd
       -0.049928933 -0.029738553 -0.030366205 -0.038601797
000100 9f 36 8a bc 8c 8e 40 bd bb c0 18 bd 6f 88 87 3b
       -0.016871748 -0.047010943 -0.037293177 0.004136137
000110 a5 51 6a 3d 23 69 8a bd 40 a5 6e 3c bc 99 af 3c
       0.05720677 -0.067583345 0.014565766 0.021435611
000120 bb 70 46 3d e8 e4 6f 3c be 3e 0a bd 9c 4a 59 bd
       0.048447352 0.014641978 -0.033751242 -0.05304967
000130 08 17 80 3d 42 ae 32 3d 00 93 2b 3d da ae 66 bc
       0.06254393 0.043623216 0.041888237 -0.014079774
000140 94 2d 16 bd 33 a7 66 bc dc f3 40 3d 12 24 38 bd
       -0.03666456 -0.014077949 0.047107562 -0.044956274
000150 92 22 b6 bb 35 6a 42 bd af a4 a6 3c 33 e9 8e bc
       -0.0055583203 -0.04746457 0.0203422 -0.017445182
000160 31 bf 46 3d 43 de 12 bd 6f f2 97 3d 85 c7 73 3c
       0.048522178 -0.035856497 0.074192874 0.014879112
000170 87 1d 93 3d 40 44 4e 3d 93 b4 d3 3c 99 e6 58 bc
       0.07183366 0.050358057 0.02584294 -0.0132385725
000180 a9 58 d6 3c 90 f1 c8 ba b8 97 31 3d 84 c7 21 3c
       0.026165323 -0.001533078 0.04335758 0.009874228
000190 fb 00 98 3d c3 85 44 bd 0c 3e 5e bd 6d 38 5d 3b
       0.07422062 -0.047979128 -0.05425839 0.0033755556
0001a0 26 c4 88 3d 36 88 c5 3a 36 9a b7 bc ee 4f 88 3d
       0.06678037 0.0015070501 -0.0224124 0.066558704
0001b0 dc aa 6c bc b9 e4 65 3d 44 5b 2b 3d 4f 74 03 bd
       -0.014445033 0.05612633 0.041835085 -0.032093342
0001c0 60 e0 fc 3c d6 94 47 3b e7 4f 2f 3d 90 49 2e 3d
       0.03086871 0.0030453703 0.04280081 0.042550623
0001d0 f2 81 68 3d 47 29 d7 bc bb 05 87 3d 64 99 dd 3c
       0.05676455 -0.0262648 0.0659289 0.027050681
0001e0 a5 4c 21 3d f9 ce e8 3c f0 d0 c9 bc 8a c0 df bc
       0.039379735 0.028419005 -0.024635762 -0.02731349
0001f0 71 c1 8f 3d 2c 7f 2b 3d af c7 93 3d e5 22 df 3a
       0.07019318 0.041869327 0.07215821 0.0017023949
000200 c1 c6 f4 3c d1 b1 7b 3d ce c9 87 bd 9a 04 42 3d
       0.02987993 0.061448876 -0.06630288 0.04736767
000210 a4 e4 77 bc ee 3e cc 3c c0 7e 5b bd 1c 8a 82 3d
       -0.015130196 0.024932351 -0.053587675 0.063739985
000220 7a 0c 60 bc 29 0c 3e 3d 61 1b 98 3d dd 27 89 bd
       -0.01367485 0.046398316 0.07427097 -0.066970564
000230 ca 0d 88 3d 72 5d a6 3c 5d 13 69 3c b0 c0 41 3d
       0.06643255 0.02030823 0.014225808 0.0473029

linear_2.weight f4 [48, 144]
000000 c5 1e ae 3d fc 35 88 bd 85 94 8a bd 2f c2 8e 3c
       0.085019626 -0.06650922 -0.06766609 0.017426578
000010 63 7c 92 3d 82 63 b7 bc a6 19 55 bb ba e0 87 3c
       0.07152631 -0.022386316 -0.0032516508 0.01658665
000020 87 62 fa 3c c1 8d 04 bd cd 1e a6 3d 86 3d 60 bc
       0.03056456 -0.03236175 0.081113435 -0.013686543
000030 70 76 28 3d 3d d1 b1 3d 32 ea 6b bd 18 f6 8c 3d
       0.041128576 0.08682487 -0.057596393 0.06882876
000040 81 84 b8 3d b6 d6 ca 3c 8e f4 81 3d 85 e6 88 3d
       0.09009648 0.024760585 0.06345473 0.06684593
000050 bb cf f6 3c e5 50 02 3d 9a 5f 4c bd 20 2e e0 bc
       0.03012835 0.03181543 -0.04989586 -0.027365744
000060 0b 19 48 bd 02 43 9e 3d dc ca 0b bc 6c 8d 54 bd
       -0.048852008 0.077276245 -0.008532252 -0.051892683
000070 73 e9 54 3d 07 95 d3 3c 4b 50 6f bc d5 81 9f 3d
       0.051980447 0.025827898 -0.014606546 0.07788435
000080 eb 2c 36 3d 3e f2 a1 3d 32 63 6e 3d f8 83 08 bd
       0.04447643 0.07907532 0.05820007 -0.03332898
000090 99 b5 e2 bc 2a 36 a1 3d 31 6a 38 bd b8 f5 53 bc
       -0.027674483 0.07871659 -0.045023147 -0.012937002
0000a0 b9 40 4f bc 7a cd 09 3d 9c 8a 68 bd d2 14 22 3d
       -0.012649708 0.033643223 -0.056772813 0.039570637
0000b0 8a 7b 3a 3d 2b e9 04 bb 98 02 9c 3c 90 ad 97 3d
       0.045527972 -0.002028058 0.019044206 0.07406151
0000c0 02 a9 8c bd 6e 88 06 bd 8e ad da bc a8 91 c3 bc
       -0.06868173 -0.032844953 -0.026694085 -0.023873165
0000d0 2c 66 9e 3d c8 34 28 bd 99 9d fc bc da a0 35 3d
       0.077343315 -0.04106596 -0.030836867 0.044342853
0000e0 bd 4b 7e 3d f2 0e be 3d b8 de 0f 3d 34 db cf bb
       0.06208395 0.09280194 0.03512451 -0.0063432697
0000f0 03 0a c4 bc a0 59 ad 3d 57 8d 2d 3d e7 ca 83 bd
       -0.023930555 0.0846436 0.04237112 -0.06435185
000100 bf 5d 57 3d 49 3a 81 bd 9f 39 aa 3d 75 b2 89 3d
       0.052579638 -0.06309945 0.083117716 0.06723491
000110 c6 75 85 3d a6 1a a9 3c 26 5d be 3c 44 ce fd bc
       0.06516604 0.02064259 0.023237776 -0.030982144
000120 1d 59 13 bd 0e 1b bb bc e8 e2 c0 3c b5 7e b3 3c
       -0.035973657 -0.02284005 0.023545697 0.021911005
000130 85 6c 94 3d a0 5d 52 bd 8a 1f 8f bd 05 ea 1d bd
       0.07247261 -0.05135882 -0.069884375 -0.038553257
000140 3d d0 e9 3b b1 f1 99 3c 93 77 b4 3c bf bd 52 bc
       0.0071354196 0.018792005 0.022029674 -0.012862622
000150 7c 75 83 bd 83 88 b1 3b 92 bd 22 3d 17 ec de bc
       -0.06418893 0.005417885 0.03973157 -0.027212186
000160 7c 09 9b bd 3b 31 a8 3d 54 81 3a ba 0a 55 47 bc
       -0.075701684 0.08212515 -0.00071146083 -0.012166271
000170 1f 0f ca 3c 02 c8 45 3d ab f3 5e bc 26 35 86 bd
       0.024665413 0.048286445 -0.0136079 -0.06553106
000180 08 35 3b bb 88 81 78 3c d2 35 af 3c 9b 25 a3 bd
       -0.0028565545 0.015167601 0.021387968 -0.07966157
000190 f2 3a 84 3d f4 84 46 bd 00 ab ab 3b c7 bf 5b 3d
       0.064565554 -0.048466638 0.0052388906 0.05364969
0001a0 45 29 46 bc 58 85 10 3d ce b2 48 bd ef f2 81 3d
       -0.0120948 0.035283417 -0.048998646 0.06345164
0001b0 b6 4c 28 3d fe c8 a7 3d b4 f7 b0 b9 ff e3 29 3d
       0.041088782 0.08192633 -0.0003375389 0.0414772
0001c0 5b 93 ea 3c de 1d 12 bc 1a d3 36 bd e4 34 a2 3d
       0.028634718 -0.008918254 -0.044634916 0.07920244
0001d0 09 2a 43 3d fe 2b 4f 3d 8a 6f 32 3d ab 60 27 3d
       0.04764751 0.050579064 0.043563403 0.040863674
0001e0 b6 94 25 3c 91 74 fb bc 96 2f ac bb 36 67 9c 3d
       0.010106256 -0.030695232 -0.005254696 0.076368734
0001f0 f6 a6 80 3d 91 46 ed 3c 05 f8 81 3d e8 e6 82 3d
       0.06281845 0.028964313 0.06346134 0.06391698
000200 5f fc f3 3b ce 01 ad bc ad f5 36 bd 99 5c 23 bd
       0.0074458565 -0.021119025 -0.04466789 -0.03988323
000210 49 89 37 bd 18 f4 62 3c 0a ec 18 bd 59 fb a2 3d
       -0.04480866 0.013852142 -0.03733448 0.07958097
000220 fd c6 ea bc ce 85 b4 3d fe cc e3 bc 0f 53 84 bd
       -0.028659338 0.08814584 -0.027807709 -0.06461155
000230 41 f5 19 3d 65 fc f2 3c 82 2a b3 3c 6e f1 8d bd
       0.037587408 0.029661367 0.021870855 -0.06930815
000240 bb 58 96 3d ff 62 01 3d 42 13 29 3d 83 a2 6f bc
       0.07341143 0.03158855 0.04127813 -0.014626148
000250 b7 41 f0 3b 89 84 2d 3d 13 b4 89 bd 03 bc a9 bd
       0.0073320526 0.042362723 -0.067237996 -0.082878135
000260 7a e9 5c bd 80 79 4e 3d 10 20 a9 bd 09 dc a4 bd
       -0.053933598 0.05040884 -0.082580686 -0.08049781
000270 c7 c1 8d bd e9 62 b5 bc d6 28 25 bd cc ab 6b 3d
       -0.06921726 -0.02214189 -0.040322147 0.057536885
000280 ec 8b 0b bd b0 80 f9 bc 24 f7 8d 3c 19 d7 6f 3d
       -0.034068987 -0.03045687 0.01732976 0.058554742
000290 e4 24 47 bd 09 55 97 3d b8 6c 80 bd 8a 6b f6 b8
       -0.048619166 0.07389266 -0.062707365 -0.00011750225
0002a0 10 39 8e bd 2a 1d 9d 3d 0a 3d 91 3d ee 14 41 bc
       -0.069444776 0.07671578 0.070917204 -0.011784775
0002b0 6c af 65 bc a5 90 42 bd 4e 91 4e bd 7c 88 8d 3d
       -0.014018875 -0.047501225 -0.050431542 0.06910798
0002c0 13 5d af 3b 79 3c 53 3d af ba 02 3c 6d 24 7a 3d
       0.0053516715 0.051571343 0.007979079 0.061069895
0002d0 58 20 5a bd d8 55 b7 3c 7b 2d 1e 3d 22 b5 8a bc
       -0.0532535 0.0223798 0.038617592 -0.016932074
0002e0 4c 1c 95 3d 90 30 8f 3d bc ef cb 3c 60 5e 95 bc
       0.07280788 0.069916844 0.024894588 -0.018233478
0002f0 53 ac 78 3c f7 e5 84 bd 74 81 4e bd c3 20 57 bd
       0.015177804 -0.06489175 -0.050416425 -0.05252148
000300 2f 1c f6 3c 40 ae 2a 3d f8 70 89 bd d0 38 20 3d
       0.030042736 0.041670084 -0.06711 0.03911668
000310 79 4a 7b bd 87 5e 96 bd 61 d7 9d bd bb 7f 94 3d
       -0.06135032 -0.073422484 -0.07707096 0.07250925
000320 cb cf 48 bd 74 9b 7f 3d 97 f6 23 bd 07 45 4d 3c
       -0.04902629 0.06240411 -0.04003009 0.012528664
000330 93 88 c2 3c 20 e9 97 3c 66 8b 92 bd 73 b5 b6 3c
       0.023746764 0.01854378 -0.071554944 0.022303319
000340 07 a3 88 3d 88 bf 9e 3c d0 48 9f 3d f0 87 24 bc
       0.0667172 0.019378439 0.0777756 -0.010042176
000350 86 8f 63 3d 26 ea a3 bd 0d c1 a3 bd 42 75 26 bd
       0.055556796 -0.08003645 -0.07995806 -0.04063917
000360 5a 3f 73 3d 93 c1 6c 3d 53 00 ab bd 90 76 b1 bd
       0.05938659 0.057801794 -0.08349671 -0.08665192
000370 51 20 50 3d 9a 82 22 bd 07 1c 8e bd d4 59 90 bd
       0.05081207 -0.039675333 -0.069389395 -0.07048383
000380 7d 4c 07 bd a7 90 e3 3b 50 95 9c 3d 4e 38 4c bd
       -0.03303193 0.006944734 0.076456666 -0.049858384
000390 99 6f 8e bd 5f 7a 8e 3d 8a 98 28 bd de 39 32 3b
       -0.06954879 0.06956934 -0.041161098 0.0027195136
0003a0 dd 11 bf b9 f8 39 65 3d 5c 8c 13 bd 96 e5 2e bd
       -0.00036443668 0.055963486 -0.03602253 -0.04269942
0003b0 c4 81 8c bd a0 57 79 3d 41 d2 f9 bc df 41 88 3d
       -0.06860688 0.06087458 -0.030495765 0.06653189
0003c0 a6 76 28 3b 51 fb e2 3c b5 43 90 bd 48 64 6b bc
       0.0025705486 0.027707728 -0.07044164 -0.014367171
0003d0 b1 3a 7e 3d 0f fc 36 3d b0 de aa bc 35 8e 4e 3d
       0.06206769 0.044673976 -0.020858139 0.050428588
0003e0 56 2c a9 bd e8 e9 6f 3c 10 a7 d0 bc 52 ba 83 bd
       -0.082604095 0.01464317 -0.025470287 -0.06432022
0003f0 00 95 88 bd b4 f2 69 3d f5 3a 7a bd bc fc 4b bd
       -0.066690445 0.057116225 -0.061091382 -0.049801573

linear_2.bias f4 [48]
000000 c4 56 9f 3d 55 3d 8f bd 64 69 1a 3d b8 bf be 3d
       0.07780221 -0.0699412 0.037698165 0.09313911
000010 9d e7 54 bd f1 aa 52 3d f4 90 b4 3d 33 f8 a8 bc
       -0.051978696 0.051432554 0.0881671 -0.020626163
000020 f1 c0 22 bd 7f 89 7c 3d 83 85 a2 bc cb b5 9b 3d
       -0.039734785 0.061654564 -0.019839054 0.07603034
000030 e3 b2 30 bd 7d 8d 82 bd b4 46 86 bd b0 7e 6f bd
       -0.04313935 -0.06374643 -0.06556454 -0.058470428
000040 d3 37 b5 3c 4f 03 dc bc d0 aa 31 3d 88 df 05 bd
       0.022121346 -0.026857046 0.04337579 -0.03268388
000050 43 26 7a bd 44 a3 30 bc f9 fb f4 3b 42 ff 95 3d
       -0.061071645 -0.010781113 0.0074763265 0.07324077
000060 0d 85 05 bd 7c 21 33 3d ca fc 1c 3d 43 31 94 bd
       -0.03259759 0.043733105 0.038327016 -0.072359584
000070 6f 16 0b bd b0 62 51 bc 57 d0 2c bd 83 c3 85 3d
       -0.03395694 -0.012779877 -0.042190876 0.065314315
000080 91 7c 47 3d ec 5f a8 bc 6e bd 8b bd 0d 42 45 3a
       0.04870278 -0.020553552 -0.0682324 0.0007524796
000090 aa 0b c4 ba 3b 85 aa bd 15 ff e0 3c e2 cd 56 3d
       -0.001495709 -0.08326193 0.027465383 0.05244244
0000a0 4c f3 80 bd 71 77 9b 3c 8e 8b 97 bd 3c 42 83 3d
       -0.06296405 0.018977853 -0.07399665 0.064091176
0000b0 07 65 62 bd 04 05 8a b9 d2 d7 01 bd 27 3f 94 bd
       -0.05527213 -0.00026325148 -0.031699963 -0.07238608

linear_3.weight f4 [1, 48]
000000 fa 60 70 3d 56 9f e5 bd d1 7d ae bd 7e f5 18 3e
       0.058686234 -0.112120315 -0.08520091 0.14937398
000010 5d 05 0d 3e 1f 83 b6 3d d9 67 4e 3d 65 42 f2 3d
       0.13771577 0.08911728 0.050392006 0.1182907
000020 80 ae fd bd 93 85 3e 3d 21 0e fc bd 53 b3 f1 3d
       -0.12386799 0.046514105 -0.123073824 0.118017815
000030 49 c2 10 be 82 cb 02 3e e6 46 83 bd 0f a6 e1 bd
       -0.14136614 0.12772945 -0.06410007 -0.11018001
000040 d1 45 e5 3d ae 8c bb bd 60 82 14 3d 4a dd 06 3e
       0.11194957 -0.09157692 0.036257148 0.13170353
000050 2f 14 0f 3e dc 78 f7 bc 3c f3 01 be fd ec 26 bd
       0.13972543 -0.030208997 -0.12690443 -0.040753353
000060 26 f6 e2 3c 2b ca b7 3d 91 50 c3 bd 45 fa c8 3d
       0.027705263 0.08974107 -0.09536851 0.0981336
000070 90 f2 02 be 4f f4 1d 3e 42 45 df 3d ba 67 b8 bd
       -0.12787843 0.15425228 0.10901882 -0.09004159
000080 36 9a a9 bd 47 19 b7 bd 25 22 f6 bd df 90 b5 b9
       -0.082813665 -0.08940368 -0.12018231 -0.00034630948
000090 c8 31 6b 3d 1a 29 35 3c 8c bf c0 bd ab ae 9c bd
       0.057420522 0.011057163 -0.09411535 -0.07650503
0000a0 fa d5 06 bd c5 0f c1 bd e4 bf ec bd 60 31 e7 bc
       -0.032918908 -0.09426836 -0.11560038 -0.028221786
0000b0 57 79 c5 3d b8 75 83 3d aa e0 c2 3c 0d cf 8d bc
       0.09642284 0.064189374 0.023788769 -0.017310644
