ndp/weights/pretrain-6.pt (torch, 155247 bytes, 5 tensors)

linear_1.weight f4 [144, 216]
0	0x3d7530d7	0.05986103
1	0xbd8b81fc	-0.06811902
2	0x3b213278	0.0024596732
3	0x3cd89841	0.026439788
4	0x3d42a316	0.047518812
5	0x3d7e1e66	0.06204071
6	0x3bbd0ecc	0.005769586
7	0x3c8c989e	0.017162617
8	0xbc7bc015	-0.01536562
9	0x3d2bcd5b	0.04194389
10	0x3d38abb1	0.045085613
11	0xbd2f46a7	-0.04279199
12	0x3d4057b8	0.046958655
13	0xbd443a01	-0.04790688
14	0xbcb40d69	-0.02197905
15	0xbd0570bc	-0.032578215
16	0xbd421bf3	-0.047389936
17	0x3add2c5e	0.0016874184
18	0xbd714c0b	-0.05891041
19	0xbc94623f	-0.018113254
20	0x3d6864a3	0.0567366
21	0xbc4f71bd	-0.012661395
22	0xbd0f76bc	-0.035025343
23	0xbbbd4508	-0.0057760514
24	0x3cbea9c2	0.023274306
25	0xbd62904a	-0.055313386
26	0xbd0ff77f	-0.03514814
27	0xbd85fbad	-0.06542144
28	0x3cd20908	0.025639072
29	0xbd765bd2	-0.06014616
30	0xbc8ffa19	-0.01757531
31	0xbcb909e3	-0.022587722
32	0x3c78ae9d	0.01517835
33	0x3b79b15a	0.0038100095
34	0x3c14c84f	0.00908096
35	0xbcb6b316	-0.022302192
36	0xbc4dedea	-0.01256893
37	0x3be19946	0.0068847267
38	0x3d510cb0	0.05103749
39	0xbc76d7a2	-0.015066059
40	0x3d3ef52e	0.04662054
41	0xbd1bd929	-0.038048897
42	0xbd3d049e	-0.04614698
43	0x3d062871	0.03275341
44	0xbcfc5352	-0.030801449
45	0x3c3dc98a	0.011583695
46	0x3d77fac8	0.060541898
47	0xbd714e49	-0.05891255
48	0x3d7d9ee8	0.061919123
49	0xbd13cfde	-0.03608691
50	0xbccd6e58	-0.02507703
51	0x3a23b794	0.0006245312
52	0xbd0deb5e	-0.03464829
53	0xbcc682c8	-0.024232283
54	0xbd5ff56f	-0.054677423
55	0xbd6ee633	-0.058325004
56	0x3a6b868f	0.00089845894
57	0xbca79a7f	-0.020459412
58	0x3c8fea75	0.017567853
59	0x3d71ecea	0.05906383
60	0x3c2f7445	0.010708873
61	0xbcab6489	-0.020921962
62	0xbc8a721d	-0.016900117
63	0xbd699912	-0.057030745
64	0x3d0efbea	0.034908213
65	0xbd67ee74	-0.05662389
66	0x3d02959a	0.031880952
67	0xbd472e63	-0.048628222
68	0xbc55fcad	-0.013060731
69	0xbbd111d8	-0.006380301
70	0xbc897d81	-0.016783478
71	0xbd65ce40	-0.0561049
72	0x3d806ea2	0.062711015
73	0x3d7d97d7	0.061912384
74	0xbc76e0db	-0.015068258
75	0xbd24c13c	-0.040223345
76	0xbbde3354	-0.006781021
77	0x3d321e32	0.043485828
78	0x3bde9e95	0.006793807
79	0x3cb591ec	0.022164308
80	0x3b26f543	0.0025475777
81	0xbd896797	-0.06709211
82	0x3d53fb30	0.051753223
83	0x3c4e5c3f	0.012595235
84	0xbcb99a2b	-0.02265652
85	0x3bddd4c5	0.006769749
86	0x3cf62a2f	0.030049412
87	0xbc5211ac	-0.012821596
88	0x3a1e4b0f	0.0006038406
89	0xbd8c96b7	-0.06864684
90	0x3b8e6414	0.0043454263
91	0x3d205ecf	0.039152917
92	0xbd32c989	-0.04364923
93	0xbd87b25a	-0.06625815
94	0xbd1ab89a	-0.037773706
95	0xbb96ffaf	-0.0046081166
96	0x3d0b66b7	0.034033503
97	0x3c2661e4	0.010155175
98	0xbcba6d15	-0.022757092
99	0x3cd771b2	0.026299331
100	0xbd938520	-0.07203126
101	0xba21a592	-0.00061663345
102	0x3bb0b9e5	0.005393254
103	0x3d1f251e	0.038853757
104	0x3d57b09d	0.052658666
105	0xbd208fcb	-0.03919963
106	0xbd5939ff	-0.053033825
107	0xbd4c6237	-0.049898352
108	0xbd12484e	-0.035713486
109	0x3c087f34	0.008331109
110	0xbd081044	-0.033218637
111	0x3c3d0be1	0.011538477
112	0xbbf225d1	-0.007389762
113	0xbcfa5aa8	-0.030560806
114	0xbcc48581	-0.02398944
115	0xbd044d23	-0.032300126
116	0x3d11dcc1	0.035610918
117	0x3d12908d	0.035782386
118	0x3c62177c	0.013799544
119	0xbd617a83	-0.055048477
120	0x3d750c96	0.059826456
121	0xbd36f632	-0.044668384
122	0xbd25bc33	-0.040462684
123	0xbd0c25a8	-0.0342156
124	0xbcb4a829	-0.022052841
125	0x3ca7ffa8	0.020507649
126	0x3d034ffb	0.032058697
127	0xbd00e2ee	-0.031466417
128	0xbd38a766	-0.04508152
129	0xbd8c2564	-0.06843069
130	0x3d79ea43	0.061014425
131	0x3d1cf92b	0.038323563
132	0x3d144a71	0.036203805
133	0xbd6f07a0	-0.05835688
134	0xbd20f84e	-0.0392993
135	0x3d7f98c6	0.062401555
136	0xbc15e20c	-0.009148132
137	0x3cd1be08	0.02560331
138	0xbcd39be8	-0.025831178
139	0xbc74928c	-0.014927518
140	0xbd3a3689	-0.045462165
141	0xbd4c589e	-0.0498892
142	0xbd33a249	-0.04385594
143	0xbd8599d8	-0.06523484
144	0xbd71052e	-0.05884283
145	0xbd74b21b	-0.059740167
146	0x3d3ddea2	0.046354897
147	0xbd672ee8	-0.056441218
148	0x3cd2794f	0.02569261
149	0x3c412aef	0.011790021
150	0x3d10f991	0.035394255
151	0x3c1fcb82	0.00975311
152	0x3c6ccd35	0.014453222
153	0xbd3466d5	-0.04404338
154	0x3d3155db	0.04329477
155	0x3d141a98	0.036158174
156	0x3c933ca0	0.017973244
157	0x3d025aec	0.03182499
158	0xbd24abbf	-0.040202852
159	0xbd778285	-0.060427207
160	0x3d6683dd	0.0562781
161	0x3b85f017	0.004087459
162	0x3d503fb1	0.05084199
163	0xbaf3f4a7	-0.0018612341
164	0x3d31ff4d	0.043456364
165	0xbcf1a21d	-0.029496247
166	0xbd1e926d	-0.03871386
167	0x3c8b2892	0.016987119
168	0x3cce5136	0.025185209
169	0x3d52c10d	0.05145364
170	0xbd8d05c2	-0.06885864
171	0xbd93b00f	-0.07211315
172	0x3c7feff9	0.015621179
173	0x3d281926	0.04103961
174	0xbd6d4b52	-0.05793316
175	0x3c970144	0.01843322
176	0x3c522532	0.012826251
177	0x3d526974	0.0513701
178	0xbd91479e	-0.07093738
179	0xbb178fc2	-0.0023126458
180	0xbc85b0ea	-0.01631971
181	0x3ca59025	0.020210335
182	0x3d0b2c79	0.03397796
183	0xbd36509e	-0.044510476
184	0x3d36066c	0.044439718
185	0xb9c5ad74	-0.00037704
186	0xbd73c9d9	-0.05951867
187	0x3d5ddcfb	0.05416582
188	0x3ccc42c6	0.024934184
189	0xbd807383	-0.06272032
190	0xbd3c6506	-0.04599478
191	0x3d6e08c2	0.05811382
192	0xbcb6cbde	-0.022314008
193	0xbd93ed5a	-0.072230056
194	0xbd28fbe0	-0.04125583
195	0xbd61d480	-0.055134296
196	0x3cd4185b	0.02589052
197	0x3d368057	0.04455599
198	0x3ce5a87d	0.028034443
199	0x3d401342	0.046893366
200	0xbaa251e6	-0.0012384027
201	0x3d7fa03f	0.062408682
202	0x3d26d772	0.04073281
203	0x3d1fd3d8	0.03902039
204	0x3d2446f7	0.04010674
205	0xbd7e912e	-0.062150173
206	0x3c75f5eb	0.015012245
207	0x3d671f40	0.056426287
208	0xbd13c83d	-0.036079634
209	0xbc06bf3f	-0.008224308
210	0x3c93d48c	0.018045686
211	0xbd811835	-0.06303445
212	0xbd846924	-0.064653665
213	0x3d6b1483	0.05739261
214	0xbcac6c71	-0.021047803
215	0xbba0d315	-0.0049079754
216	0x3c21ec1b	0.009882952
217	0x3d3e40fb	0.04644869
218	0x3d76270d	0.060095835
219	0xbc8afe27	-0.016966892
220	0x3d69ad40	0.05704999
221	0x3d313e27	0.043272164
222	0xbd8d9d0e	-0.069147214
223	0xbd67b8a1	-0.05657256
224	0xbd0ac78a	-0.0338817
225	0xbcaddecd	-0.021224404
226	0x3ccbb042	0.02486432
227	0xbbc7f941	-0.0061027114
228	0xbb520559	-0.0032046644
229	0xbc9a7d19	-0.01885848
230	0xbd856a00	-0.065143585
231	0xbc0361d2	-0.008018928
232	0x3d2aa434	0.041660503
233	0xbd87cb8a	-0.06630619
234	0xbc388526	-0.011262214
235	0x3c147943	0.009062114
236	0xbc030985	-0.007997875
237	0x3d33df6d	0.043914247
238	0x3cd2501a	0.025672961
239	0x3b140772	0.0022587446
240	0xbd824abd	-0.063619114
241	0x3b826563	0.0039793714
242	0x3d611bf9	0.054958317
243	0x3d216fe3	0.039413344
244	0x3cc57590	0.02410391
245	0x3c027e9b	0.007964755
246	0x39effb99	0.00045773087
247	0x3ba15277	0.0049231607
248	0x3d688d78	0.05677554
249	0xbc086b64	-0.008326385
250	0xbc7b4186	-0.015335446
251	0x3d60fe76	0.054930173
252	0x3cff9c98	0.0312026
253	0x3d077884	0.033073917
254	0x3d833ec7	0.06408458
255	0xbcce9847	-0.025219096

linear_1.bias f4 [144]
0	0xbd501b00	-0.050807
1	0xbce87e9f	-0.02838069
2	0xbcd4d9ac	-0.0259827
3	0xbcb1cf92	-0.021705423
4	0x3c6c3356	0.014416536
5	0xbd355fb3	-0.04428072
6	0x3d023af0	0.03179449
7	0xbb14218d	-0.0022603006
8	0xbcb06cfa	-0.02153634
9	0xbc98e0fa	-0.018661965
10	0xbc5561e6	-0.013023829
11	0xbd3c692d	-0.04599874
12	0xbd92f223	-0.0717509
13	0x3d6abbb7	0.057307925
14	0xbcfe7220	-0.031060278
15	0xbd601696	-0.05470904
16	0xbd16b149	-0.036790166
17	0x3d05b88c	0.0326467
18	0xbd1fd2e6	-0.039019488
19	0xbd4dc2ff	-0.05023479
20	0xbd5e5453	-0.054279637
21	0xbac6034b	-0.0015107183
22	0xbbb3be4c	-0.0054853316
23	0xbcc2252f	-0.023699371
24	0x3d6f8b17	0.058482256
25	0x3d7166f1	0.058936063
26	0xbccdad75	-0.025107125
27	0x3ccd8f15	0.02509264
28	0x3d612701	0.054968838
29	0xbd395346	-0.04524543
30	0x3b84d24f	0.004053391
31	0xbc85f7cc	-0.01635351
32	0x3cebf06a	0.028801162
33	0xbce7ae0f	-0.02828124
34	0x3d2a5853	0.04158814
35	0xbc8690fe	-0.01642656
36	0x3d585ecf	0.05282479
37	0xbd0a40aa	-0.033753075
38	0xbd79215f	-0.06082284
39	0xbcf1aa56	-0.029500168
40	0x3d65e6ed	0.05612843
41	0x3c394300	0.011307478
42	0xbcd6bbd1	-0.026212605
43	0xbc23b65f	-0.009992211
44	0x3d241a98	0.040064424
45	0xbce75573	-0.028238988
46	0x3d8e40e5	0.069459714
47	0x3c67290e	0.014108909
48	0xbd4c8d10	-0.049939215
49	0x3d5e5eb9	0.054289553
50	0xbc0dbd69	-0.008651116
51	0xbd50b1cb	-0.050950807
52	0x3c561a0e	0.013067735
53	0x3d078581	0.033086304
54	0xbd299aed	-0.041407514
55	0x3ca3dcf0	0.020002812
56	0xbd2920a0	-0.04129088
57	0x3c6ec84a	0.01457412
58	0x3d852005	0.06500248
59	0xbd46072a	-0.048346676
60	0x3d58771a	0.05284796
61	0xbd1322bb	-0.035921793
62	0xbbb774b0	-0.005598627
63	0x3c651e3d	0.01398426
64	0xbc22605b	-0.009910668
65	0xbd4f9611	-0.050680224
66	0xbd53d914	-0.051720694
67	0xbcb6a43e	-0.022295114
68	0x3c4d93ac	0.012547415
69	0x3d47359d	0.048635114
70	0xbc987157	-0.018608732
71	0x3d23b5c1	0.039968256
72	0xbd13a24b	-0.036043447
73	0xbd175cd8	-0.036953777
74	0xbd2176c9	-0.039419923
75	0x3d18a3c5	0.037265558
76	0xbc6da0bd	-0.014503655
77	0xbd461996	-0.048364244
78	0x3d76f377	0.06029078
79	0x3c95eac9	0.01830043
80	0x3cc8b7e6	0.024501752
81	0x3cbcf98f	0.023068218
82	0x3c66e16f	0.0140918335
83	0xbbc024d2	-0.0058637643
84	0xbd765468	-0.06013909
85	0x3d76775c	0.060172424
86	0x3c6ba027	0.014381445
87	0x3d43c274	0.047792867
88	0xbb0c0d75	-0.0021370326
89	0x3d7c60c6	0.061615728
90	0xbccfd5f8	-0.025370583
91	0xbc40e845	-0.011774127
92	0xbd53499f	-0.051583882
93	0x3d74b2ba	0.05974076
94	0xbd3ec377	-0.04657313
95	0x3d5574a3	0.052113187
96	0x3d18e042	0.037323244
97	0xba4ba3c6	-0.00077682396
98	0x3d833d76	0.06408207
99	0xbca52264	-0.020158
100	0x3d43e474	0.04782529
101	0xbd12b11d	-0.03581344
102	0xbd21604b	-0.039398473
103	0xbd05074f	-0.032477673
104	0xbcd197de	-0.025585111
105	0x3d196d47	0.03745773
106	0xbc25b681	-0.010114313
107	0x3ca470f1	0.020073386
108	0xbd24be2a	-0.040220417
109	0x3d383a11	0.04497725
110	0x3c8c04cd	0.017092133
111	0x3d2c75a2	0.04210437
112	0x3c501740	0.012700856
113	0x3d43251b	0.04764281
114	0x3d277d2e	0.040890865
115	0xbd178568	-0.03699246
116	0x3d58a744	0.052893892
117	0xbd2a8590	-0.04163128
118	0xbd3f35f8	-0.046682328
119	0xbc7c88cd	-0.015413475
120	0x3d879d90	0.066218495
121	0x3cd996b9	0.026561128
122	0xbd01bf24	-0.031676427
123	0xbd84926b	-0.064732395
124	0xbd505283	-0.05085994
125	0x3d3193a6	0.0433537
126	0x3ceda396	0.029008668
127	0xbd0d31d9	-0.034471367
128	0x3d90241f	0.070381396
129	0x3d62323b	0.055223685
130	0x3d29423e	0.04132294
131	0xbbeda0e1	-0.0072518443
132	0xbd246b60	-0.040141463
133	0xbd618dd5	-0.055066902
134	0x3cfb4a12	0.030674968
135	0xbd0f6d7e	-0.03501653
136	0xbd0419fb	-0.03225134
137	0x3d4bf5af	0.04979485
138	0xbcd5d681	-0.02610326
139	0xbd3b96fc	-0.045798287
140	0xbcb4128d	-0.021981502
141	0x3c740f35	0.014896204
142	0x3d21803f	0.039428946
143	0x3d11a74e	0.035559945

linear_2.weight f4 [48, 144]
0	0x3c942f8d	0.01808908
1	0xbd8a9495	-0.06766621
2	0xbd44e89a	-0.04807339
3	0xbd88f5d9	-0.06687517
4	0xbda29bb8	-0.07939857
5	0x3cd9ebbf	0.02660167
6	0x3d8392ce	0.06424485
7	0xbc262fe1	-0.010143251
8	0x3da2501a	0.079254344
9	0xbc7bca5c	-0.01536807
10	0x3d8a0159	0.06738538
11	0x3d389d20	0.04507172
12	0x3c65d24c	0.014027189
13	0xbb7a0409	-0.0038149378
14	0x3bb0bc61	0.0053935503
15	0x3d937c9b	0.07201501
16	0x3d9305b2	0.07178821
17	0xbd65f317	-0.05614003
18	0xbd11459f	-0.035466786
19	0x3d9cd978	0.07658666
20	0x3d692bb1	0.056926433
21	0xbd4918e3	-0.049096
22	0xbd56940e	-0.05238729
23	0xbdaf1d23	-0.08550479
24	0xbc69a9e3	-0.014261696
25	0xbd6952d2	-0.05696375
26	0xbda023ed	-0.07819352
27	0x3d5d81c6	0.05407884
28	0x3d7b15c5	0.061300058
29	0xbd4adcb6	-0.049526893
30	0x3d0d3bec	0.034480974
31	0x3c62756e	0.013821943
32	0x3cca3bfb	0.024686804
33	0xbcb64d1d	-0.022253567
34	0x3d40d25e	0.04707562
35	0x3d9633e0	0.07334113
36	0x3c9af3a8	0.018915012
37	0xbcd911f4	-0.026497819
38	0xbd913ff7	-0.070922785
39	0x3d85f3ee	0.065406665
40	0x3d308091	0.04309136
41	0xbd6d6a8c	-0.05796294
42	0xbd17b1d7	-0.037034836
43	0xbd31c9e9	-0.043405447
44	0xbd20bc66	-0.03924217
45	0xbd4f7c96	-0.050655924
46	0xbcb4def3	-0.022078967
47	0x3d153a63	0.036432635
48	0xbd7748a4	-0.06037201
49	0x3d97bb21	0.07408739
50	0x3c758a03	0.014986518
51	0x3cfc74ed	0.030817473
52	0x3d2e58d1	0.04256517
53	0xbda16967	-0.07881432
54	0xbd8361e9	-0.06415159
55	0x3c69566d	0.014241797
56	0xbd4d2832	-0.05008716
57	0xbb1d4cd7	-0.00240021
58	0xbd5e1249	-0.054216657
59	0xbd7287c1	-0.059211496
60	0x3bd33c82	0.006446422
61	0x3d94a565	0.07258109
62	0xbc3b68b9	-0.011438542
63	0x3c91eec7	0.017814053
64	0x3b1aabac	0.002360086
65	0xbd8ff0a4	-0.070283204
66	0x3d46a7fe	0.048500054
67	0x3d9b4f58	0.07583493
68	0xbb307578	-0.0026925486
69	0xbd5c051b	-0.053715806
70	0x3c46adcd	0.012126398
71	0xbd227984	-0.039666668
72	0x3b59fd21	0.003326245
73	0x3d1f2a18	0.038858503
74	0xbd101882	-0.035179622
75	0x3cb068df	0.021534381
76	0xbbe89e3b	-0.0070989407
77	0x3da22480	0.07917118
78	0xbd290865	-0.04126777
79	0xbd179280	-0.037004948
80	0xbc19ffff	-0.009399413
81	0xbc550548	-0.013001747
82	0x3c4c59e9	0.012472608
83	0x3d493842	0.049125917
84	0xbcc510bf	-0.024055837
85	0xbd478c35	-0.048717696
86	0xbc7e6a60	-0.015528291
87	0x3d5c59af	0.053796466
88	0xbd358a2b	-0.04432122
89	0x3da041b4	0.07825032
90	0xbda6797b	-0.08128639
91	0x3c8ed8d5	0.017437378
92	0xbd3fcbbc	-0.046825156
93	0xbc39e938	-0.011347108
94	0xbb1b0f60	-0.0023660287
95	0x3d9372c3	0.071996234
96	0xbd8fbaaa	-0.07018025
97	0x3d5b0333	0.053469848
98	0x3c33511c	0.010944631
99	0x3d8f60e5	0.07000903
100	0x3ca399cc	0.019970797
101	0x3d166014	0.03671272
102	0xbd8652d3	-0.06558766
103	0xbc9624e8	-0.018328145
104	0xbd036a6e	-0.03208392
105	0x3d05b79b	0.032645803
106	0xbd8636bd	-0.06553409
107	0x3d27ef44	0.040999666
108	0x3d126627	0.03574195
109	0x3d988e82	0.07449056
110	0x3c12f6f8	0.008970015
111	0xba4a494b	-0.000771661
112	0x3d8368ad	0.0641645
113	0x3c610bec	0.013735753
114	0xbd78bb36	-0.060725413
115	0x3c735d38	0.014853768
116	0xbda84b43	-0.0821748
117	0x3d608cca	0.054821767
118	0xbd84a51a	-0.06476803
119	0x3d4865ae	0.048925094
120	0x3d4f08af	0.05054539
121	0xbda3299c	-0.07966921
122	0xbd2e4056	-0.042541824
123	0xbd854aed	-0.065084316
124	0xbd30f7f8	-0.04320523
125	0xbd983375	-0.0743169
126	0x3c8fd590	0.01755789
127	0xbd381323	-0.044940125
128	0x3b0f0535	0.0021823172
129	0x3d5511d8	0.05201897
130	0xbd92d09c	-0.07168695
131	0x3d003438	0.0312998
132	0xbc21bd2d	-0.009871763
133	0x3d12da5c	0.035852775
134	0x3c702fa6	0.014659798
135	0xbd9bc6ee	-0.07606302
136	0x3c7b7543	0.015347782
137	0x3b5e0710	0.0033878721
138	0x3d8594ac	0.065224975
139	0xbc7630e8	-0.015026309
140	0xbd6d559d	-0.057942975
141	0xbda69926	-0.081346795
142	0x3d5d4475	0.054020364
143	0xbd550758	-0.052008957
144	0xbc7b3fcf	-0.015335037
145	0xbd49e419	-0.049289797
146	0xbd42e067	-0.047577288
147	0xbc683fbf	-0.0141753545
148	0x3d9eb0a4	0.07748535
149	0x3c81e8dc	0.015858106
150	0xbd99cdb3	-0.07509937
151	0xbc332571	-0.01093422
152	0x3d8cf1fd	0.06882093
153	0xbd184c37	-0.03718206
154	0x3cb8cd5b	0.022558859
155	0x3d9f5e97	0.077817135
156	0x3d9ff483	0.07810309
157	0x3bd38b72	0.006455832
158	0x3ce02dad	0.02736553
159	0xbcc0af10	-0.023520976
160	0xbd6bc65b	-0.057562213
161	0xbd90ee32	-0.07076682
162	0x3c824014	0.015899695
163	0xbbef3363	-0.007299827
164	0x3c3e3e56	0.011611542
165	0x3cfe220c	0.031022094
166	0xbd94d71e	-0.07267593
167	0x3c1527a2	0.0091036875
168	0x3d3369ed	0.04380219
169	0xbc727852	-0.014799194
170	0x3b3eaa05	0.0029093039
171	0x3d3cc1e9	0.046083365
172	0x3bf3a585	0.007435503
173	0x3cc998dd	0.024609024
174	0xbd96e2e9	-0.073674984
175	0xbd33b563	-0.043874156
176	0xbb91de09	-0.0044515175
177	0x3d9f0c17	0.07765978
178	0xbcd9612f	-0.026535599
179	0x3b928980	0.0044719577
180	0x3d8c2454	0.068428665
181	0x3d92f132	0.071749106
182	0xbbf64516	-0.00751556
183	0xbc10fff3	-0.008850086
184	0xbc903b1c	-0.01760631
185	0x3c805ff0	0.015670747
186	0xbced49ae	-0.028965797
187	0x3d9f657b	0.07783028
188	0xbd896d95	-0.06710354
189	0x3d79eda4	0.061017647
190	0x3d22e3be	0.039767973
191	0x3d8a9fc4	0.06768754
192	0x3cd18953	0.025578177
193	0xbd8d4e96	-0.06899755
194	0x3c0ccb29	0.008593359
195	0x3c906523	0.01762635
196	0xbd1dc3f5	-0.038516957
197	0x3d0d0c2f	0.034435447
198	0xbd479632	-0.04872722
199	0x3cdcba4b	0.0269443
200	0x3cd71756	0.026256245
201	0x3c46112c	0.012089055
202	0x3ca2c2c0	0.019868255
203	0xbd21ea20	-0.03952992
204	0x3d8afb4e	0.06786214
205	0x3d4910c0	0.04908824
206	0xbca08132	-0.019592855
207	0x3b3e505c	0.0029039597
208	0xbc0adff2	-0.008476244
209	0xbd243ca2	-0.040096886
210	0xbd89c035	-0.06726114
211	0x3d79c6fb	0.06098078
212	0x3ca86b0a	0.020558853
213	0xbd79657e	-0.060887806
214	0xbcd512e4	-0.026009984
215	0xbda23637	-0.07920497
216	0x3d1b5735	0.037924964
217	0xbd5882e7	-0.052859213
218	0xbd78beab	-0.06072871
219	0x3d33937c	0.043841824
220	0x3d57789c	0.052605256
221	0x3c8bf564	0.017084785
222	0xbd34ca54	-0.044138268
223	0xbad8ed16	-0.0016550149
224	0xbd613217	-0.05497941
225	0x3d838481	0.064217575
226	0x3b9fa0b1	0.004871451
227	0xbc268681	-0.010163904
228	0xbcb2c5e2	-0.021822874
229	0x3d887505	0.06662945
230	0xbd589107	-0.052872684
231	0xbd903bb1	-0.07042635
232	0x3b39a4cf	0.0028326993
233	0x3d7a8e53	0.061170887
234	0x3d4a1e7c	0.04934548
235	0xbd0ea61a	-0.034826376
236	0x3d09fb18	0.033686727
237	0x3d9411fd	0.072299935
238	0x3d9ff7f4	0.07810965
239	0x3d89ddf7	0.067317896
240	0x3d4b4be2	0.049632914
241	0xbd7bff6b	-0.061522882
242	0xbd403f3a	-0.046935298
243	0x3d4cb872	0.04998059
244	0xbdacb211	-0.08432401
245	0x3d1acdc0	0.037793875
246	0xbd0027de	-0.03128802
247	0xbd11a49f	-0.035557386
248	0x3d3e0944	0.046395555
249	0xbd041718	-0.032248586
250	0x3cd1b893	0.025600707
251	0x3cd3fce4	0.025877424
252	0x3d2e0a0a	0.042490043
253	0xbb34810a	-0.0027542734
254	0xbda4032c	-0.080084175
255	0x3cbc2edb	0.022971561

linear_2.bias f4 [48]
0	0xbd374c0b	-0.044750255
1	0xbd2efb43	-0.04272009
2	0x3dc09fa1	0.09405447
3	0x3d87a6ff	0.06623649
4	0x3d9db88d	0.07701216
5	0x3cc39306	0.023873817
6	0x3cfc673e	0.030810948
7	0x3d17622b	0.036958855
8	0x3cc117c8	0.02357091
9	0xbd8fa08b	-0.07013043
10	0x3d684bee	0.056713037
11	0x3c935a75	0.01798747
12	0xbca0e6e8	-0.019641355
13	0x3c625484	0.013814095
14	0x3b745e89	0.0037287793
15	0xbd0dd411	-0.03462607
16	0xbd6c5df0	-0.057706773
17	0x3d5b79e1	0.05358303
18	0x3be02a58	0.0068409853
19	0x3cf36bec	0.029714547
20	0x3cc8010a	0.024414558
21	0x3c74ebec	0.014948826
22	0xbd2543f3	-0.040348005
23	0xbd8777f5	-0.06614677
24	0x3c81142b	0.015756687
25	0xbd5d95af	-0.054097828
26	0x3d33daa5	0.043909688
27	0xbd480ba2	-0.04883922
28	0x3be65f3d	0.0070303963
29	0xbd4c3430	-0.049854457
30	0x3d993601	0.074810036
31	0xbdb89624	-0.09013012
32	0xbcdbc742	-0.026828412
33	0x3ca70692	0.020388875
34	0xbc12d2bc	-0.008961376
35	0x3cde970a	0.02717163
36	0xbd685637	-0.056722846
37	0xbb506737	-0.0031799802
38	0xbd229d73	-0.039700937
39	0xbc24bf8e	-0.010055436
40	0x3d4b14cc	0.04958038
41	0x3d24db3f	0.040248152
42	0xbd7ad117	-0.06123456
43	0xbd61b293	-0.055101942
44	0x3d3b70b0	0.045761764
45	0xbc8b2259	-0.016984152
46	0x3c2bd132	0.010486888
47	0x3d4b1b2e	0.049586467

linear_3.weight f4 [1, 48]
0	0xbb2ea81a	-0.002665049
1	0xbd8809ac	-0.0664247
2	0x3e09175d	0.13387819
3	0xbddc8d52	-0.10769142
4	0xbdae5707	-0.08512693
5	0x3daeec43	0.08541157
6	0xbdda4cee	-0.106592044
7	0x3cd58c18	0.026067778
8	0xbe0d2675	-0.13784201
9	0xbd641b63	-0.05569018
10	0xbdbb7fc4	-0.09155229
11	0xbdb43685	-0.08799461
12	0x3ce1623d	0.027512664
13	0x3dac78c5	0.084214725
14	0xbddaf861	-0.10691906
15	0xbda91fdc	-0.0825803
16	0x3e06579b	0.13119356
17	0x3be6cd5b	0.0070435232
18	0x3e0abfed	0.13549776
19	0xbdabd221	-0.08389688
20	0x3d4891ef	0.048967298
21	0xbdcb4881	-0.099259384
22	0x3d7d773b	0.061881285
23	0xbdba51bb	-0.0909762
24	0x3ddb55ab	0.10709699
25	0x3e1e1db1	0.15441014
26	0x3c4db506	0.012555366
27	0x3e042d81	0.12907983
28	0x3e0afaca	0.13572231
29	0xbb8798c5	-0.0041380846
30	0x3e21bae3	0.15793948
31	0xbdc63eec	-0.0967997
32	0x3cb9ea09	0.022694604
33	0xbce18c7b	-0.027532807
34	0x3ca858e5	0.0205502
35	0xbd4c1746	-0.049826883
36	0xbc86aafc	-0.016438954
37	0xbd3bbd86	-0.04583504
38	0xbd84e0a8	-0.06488162
39	0xbc04cb12	-0.008105056
40	0x3e222e7c	0.15838045
41	0x3ca20181	0.019776108
42	0x3d68c5ce	0.056829266
43	0xbc0a59d7	-0.008444271
44	0xbe02dacc	-0.12778777
45	0xbdf5e13b	-0.1200585
46	0x3e1c7cb3	0.15281944
47	0xbdfd159d	-0.12357638
